model_epoch_400.pt (torch, 559464 bytes, 10 tensors)

encoder.lstm.weight_ih_l0 f4 [512, 5]
0	0x3ca8abb4	0.020589687
1	0xbca2bdbe	-0.019865867
2	0xbc9f3d92	-0.019438539
3	0xbd58e706	-0.052954696
4	0xbd383060	-0.04496801
5	0xbd3be527	-0.045872834
6	0x3a05b406	0.0005100373
7	0x3d03dc49	0.032192502
8	0x3d4b6d31	0.04966468
9	0xbd6e2ad8	-0.058146328
10	0xbd14f3d2	-0.036365338
11	0x3ca4507c	0.02005791
12	0xbd2065b2	-0.039159484
13	0x3db415d7	0.08793228
14	0xbdb11a70	-0.08647621
15	0xbd7b8540	-0.061406374
16	0xbd874776	-0.06605427
17	0x3d6be504	0.057591453
18	0xbcadacd4	-0.021200575
19	0x3d92a50d	0.07160387
20	0x3da09aee	0.078420505
21	0xbd05d458	-0.03267321
22	0x3d419d28	0.047269017
23	0x3d2d5248	0.042314798
24	0xbd2ad871	-0.04171032
25	0x3dce1013	0.1006166
26	0xbd3a85cb	-0.04553775
27	0x3d3f64f9	0.046727154
28	0x3b9834f3	0.004644984
29	0xbce2e592	-0.027697358
30	0x3d31c863	0.043403994
31	0x3d86645a	0.06562109
32	0x3d8d99ce	0.069141015
33	0xbd1ca5e1	-0.038244132
34	0x3c8e5bbc	0.017377727
35	0x3da39084	0.079865485
36	0x3a9e60b8	0.0012083268
37	0x3cd2dfec	0.02574154
38	0x3ccf46bc	0.025302283
39	0xbc98a6e4	-0.018634267
40	0xbc2149eb	-0.009844284
41	0xbc7a7b6b	-0.015288214
42	0x3dc00fd8	0.09378022
43	0x3d7a6220	0.061128736
44	0xbd8105ef	-0.0629996
45	0x3d244d7b	0.040112954
46	0xbdcb271a	-0.099195674
47	0xbd35a211	-0.04434401
48	0x3d7dd9ef	0.061975416
49	0xbd4aefbb	-0.04954503
50	0xbdac4947	-0.08412414
51	0x3daeea4b	0.085407816
52	0x3d55465f	0.052069064
53	0xbd3f4171	-0.04669327
54	0xbbd51540	-0.0065027773
55	0x3df24940	0.118303776
56	0x3d0c50d0	0.034256756
57	0xbca71ddc	-0.02039998
58	0x3ca4ca9a	0.02011614
59	0xbc94b5ec	-0.018153153
60	0x3c8a99d7	0.01691906
61	0xbd7c221b	-0.061555963
62	0xbd53aa7f	-0.05167627
63	0xbd66204d	-0.05618315
64	0xbd951b9a	-0.07280655
65	0x3d94ee1b	0.072719775
66	0x3ca95705	0.020671377
67	0xbcc2c8ab	-0.023777327
68	0x3da60229	0.08105881
69	0xbd96c56f	-0.07361876
70	0xbd9c03b4	-0.07617894
71	0xbd6c609e	-0.05770933
72	0xbd125a44	-0.035730615
73	0x3d31ed0c	0.043438956
74	0xbd50a284	-0.050936237
75	0x3d855667	0.065106206
76	0x3ca2af70	0.019859046
77	0x3da27a59	0.07933492
78	0x3c54be80	0.012984872
79	0xbd05cb26	-0.03266444
80	0x3c2f19b8	0.010687284
81	0x3dafd077	0.085846834
82	0x3d8c96c5	0.068646945
83	0x3d8f12c5	0.06986002
84	0x3d07d5bc	0.033162817
85	0xbd619ecf	-0.055083092
86	0x3b764be2	0.003758185
87	0x3d75fb57	0.06005415
88	0x3cf95990	0.030438215
89	0x3cab32b4	0.0208982
90	0xbd8eacc8	-0.06966549
91	0xbd8de160	-0.069277525
92	0x3c464b1f	0.012102871
93	0xbd1b9590	-0.03798443
94	0xbd6551c8	-0.055986196
95	0x3d1975e9	0.037465964
96	0x3c8e2f63	0.01735658
97	0x3b105cbd	0.0022027933
98	0x3d38a581	0.04507971
99	0xbc93a584	-0.01802326
100	0xbdb486ba	-0.088147596
101	0x3c6751de	0.01411864
102	0xbd34d91d	-0.044152368
103	0x3cc147d0	0.023593813
104	0xbc996e80	-0.018729448
105	0xbc037f37	-0.008025936
106	0xba938e8f	-0.0011257696
107	0xbd9d7755	-0.076887764
108	0x3cb86652	0.022509728
109	0x3cbf3e54	0.02334515
110	0x3ca5719f	0.02019578
111	0x3d405332	0.04695434
112	0xbc8c1939	-0.01710187
113	0xbc769339	-0.015049749
114	0x3c87cce0	0.016577184
115	0xbd0961e1	-0.03354061
116	0xbd682e26	-0.056684636
117	0xbd69dae8	-0.05709353
118	0xbd9fcc3e	-0.07802628
119	0x3d9f4997	0.07777708
120	0x3d3ce4d3	0.04611666
121	0xbc0dae70	-0.008647546
122	0x3c01dc92	0.007926123
123	0xbc58cfd6	-0.013233146
124	0x3cb3e200	0.021958351
125	0x3d91f00a	0.07125862
126	0x3d29f80e	0.04149633
127	0x3e1515e2	0.14559129
128	0x3dc94e4c	0.09829387
129	0x3d4518a2	0.048119195
130	0x3d9e04d7	0.07715767
131	0x3cfa1da3	0.03053171
132	0xbbe3bb4f	-0.006949819
133	0xbd0e5a6b	-0.034754198
134	0x3db23485	0.087014236
135	0x3dc87bc6	0.09789233
136	0x3cf8edc8	0.03038682
137	0x3d8a91be	0.06766079
138	0x3b6f0ea4	0.0036477232
139	0xbdb04627	-0.086071305
140	0x3d0c92f1	0.03431982
141	0x3ce127ad	0.02748474
142	0xbd61a509	-0.05508903
143	0x3d587a8d	0.05285125
144	0x3c115d38	0.008872323
145	0xbd873f66	-0.06603889
146	0x3c7f78c0	0.015592754
147	0x3dae4d5b	0.08510848
148	0x3d29b8fe	0.041436188
149	0x3d75b0ce	0.059983067
150	0xbbe3b780	-0.006949365
151	0x3d89ffb5	0.06738225
152	0x3ced113c	0.028938882
153	0x3d7a3272	0.061083265
154	0xbd5510c2	-0.052017935
155	0x3dabf58f	0.08396446
156	0x3d00b82c	0.03142564
157	0x3d5662b2	0.052340217
158	0x3d449b2e	0.047999553
159	0xbd9e9ce3	-0.077447675
160	0x3d955d5f	0.072932
161	0x3c6910db	0.01422521
162	0xbd9dc139	-0.0770287
163	0x3d060a78	0.032724828
164	0x3cfa3830	0.03054437
165	0x3db01a4e	0.08598767
166	0x3c414608	0.011796482
167	0x3cd570a7	0.026054693
168	0xbd756430	-0.05991
169	0x3d43de66	0.047819518
170	0x3b20b45c	0.0024521565
171	0xbd6d3816	-0.057914816
172	0xbd6b1444	-0.057392374
173	0xbd2a0cdc	-0.04151617
174	0xbda57a8e	-0.08080016
175	0xbd624f54	-0.055251434
176	0x3d7d850e	0.06189447
177	0x3c617453	0.013760644
178	0x3d7f3d06	0.062314056
179	0x3cbd21c8	0.023087397
180	0xbd4e46f4	-0.050360635
181	0x3dada6e5	0.08479098
182	0x3d817313	0.06320777
183	0x3bfae2e0	0.00765644
184	0x3cae1f64	0.021255203
185	0x3d0bee8b	0.03416304
186	0x3d31bbf5	0.04339214
187	0x3c9e588b	0.01932933
188	0xbc930227	-0.017945362
189	0xbd808cba	-0.062768415
190	0xbb39e468	-0.00283649
191	0xbd9f951d	-0.07792113
192	0x3da4ba93	0.08043399
193	0x3d934d95	0.07192532
194	0xbd1e8161	-0.038697604
195	0xbdab4545	-0.083628215
196	0xbce81c34	-0.02833376
197	0xbd3971e8	-0.045274645
198	0xbd289d7e	-0.04116582
199	0xbd7efc22	-0.06225217
200	0x3cec2d75	0.02883027
201	0xbd2c5e95	-0.042082388
202	0x3d569c35	0.052395064
203	0x3d93c733	0.072157286
204	0x3d24d4de	0.04024207
205	0x3d873673	0.06602182
206	0xbce7ea7e	-0.028310057
207	0xbda075d7	-0.07834976
208	0x390475fa	0.0001263245
209	0x3d9ecaeb	0.07753547
210	0x3cc5329e	0.024071988
211	0xbd5a66fe	-0.053320877
212	0x3d1bf562	0.038075812
213	0x3c9f7e40	0.01946938
214	0x3d87647f	0.06610965
215	0x3d29a18f	0.04141384
216	0x3ca276df	0.019832073
217	0x3d3b2d89	0.045697723
218	0xbd03f137	-0.032212462
219	0xbcc9fa18	-0.024655387
220	0xbda0c593	-0.07850184
221	0xbd44db83	-0.048060905
222	0x3caaaae8	0.020833448
223	0xbd5df8ab	-0.054192226
224	0x3d6deb6a	0.058085836
225	0xbc0cdf39	-0.008598142
226	0x3beecdbb	0.0072877086
227	0x3bfb7895	0.0076742866
228	0x3d7de59c	0.06198655
229	0x3d2ac6d6	0.04169353
230	0x3c37591f	0.011190682
231	0xbd95660c	-0.072948545
232	0x3d3f3b53	0.046687435
233	0xbd39792b	-0.04528157
234	0xbca7b714	-0.02047304
235	0xbd6562f1	-0.05600256
236	0xbdc34a38	-0.095356405
237	0xbbb84eac	-0.005624613
238	0xb9a689b3	-0.0003176458
239	0xbd7d2a72	-0.061808057
240	0xbc75e47a	-0.015008086
241	0x3dd4aceb	0.10384544
242	0xbd3b4db4	-0.0457284
243	0x3cbb0334	0.022828676
244	0xbd8e0b79	-0.06935782
245	0x3bd6bdec	0.006553402
246	0x3cebcee3	0.028785175
247	0x3d369ddb	0.044584136
248	0xbc29bce0	-0.010359973
249	0x3d32a5c6	0.043615125
250	0xbd93f06a	-0.0722359
251	0xbd9f39ae	-0.077746734
252	0x3c837446	0.016046654
253	0xbd4088d8	-0.047005504
254	0x3d6ec162	0.058289893
255	0x3d3c6a32	0.045999713

encoder.lstm.weight_hh_l0 f4 [512, 128]
0	0xbd95088f	-0.07277023
1	0x3d758312	0.05993945
2	0xbd96c9b3	-0.0736269
3	0xbd0aae1a	-0.033857442
4	0x3d293256	0.04130777
5	0xbd2b5d0f	-0.041836794
6	0xbd5778c6	-0.052605413
7	0x3da45a95	0.0802509
8	0x3b93b0c0	0.004507154
9	0x3bbc0370	0.0057377145
10	0xbd8fc7e8	-0.07020551
11	0x3ba46560	0.0050169677
12	0xbd78201e	-0.060577504
13	0x3d19ef6e	0.037581854
14	0xbc7e4b98	-0.015520953
15	0xbd492072	-0.049103208
16	0x3be60522	0.007019655
17	0x3d919516	0.07108514
18	0xbd6fef8f	-0.05857807
19	0xba87ed00	-0.0010370314
20	0x3d99c947	0.07509094
21	0x3c184cd5	0.009295662
22	0x3d8f90f7	0.07010072
23	0xbd879714	-0.06620613
24	0xbda0ae3a	-0.07845731
25	0xbd9dc43a	-0.07703443
26	0x3d9935a7	0.074809365
27	0x3cafb204	0.02144719
28	0x3d578fc8	0.052627355
29	0x3d63fe78	0.055662602
30	0xba869c80	-0.0010270029
31	0xbd617079	-0.055038903
32	0xbdaa566b	-0.08317264
33	0x3d6145f0	0.05499834
34	0x3d88a011	0.06671155
35	0x3d00e6f6	0.03147026
36	0xbc84dd60	-0.016218841
37	0xbd897a16	-0.06712739
38	0x3d23e6b2	0.04001493
39	0xbca333b8	-0.019922122
40	0x3c548d50	0.012973145
41	0xbda6d5de	-0.08146261
42	0xbd07031a	-0.032961942
43	0x3c29a238	0.010353617
44	0xbc12a648	-0.008950777
45	0x3d61b70c	0.055106208
46	0x3c98f4b8	0.018671378
47	0xbcda4ffa	-0.026649464
48	0x3c799830	0.015234038
49	0x3daebff4	0.08532706
50	0xbcf8f5ec	-0.030390702
51	0xbd2fcf6a	-0.042922415
52	0x3d0cea96	0.034403406
53	0xbd944190	-0.072390676
54	0x3d43bf4e	0.047789864
55	0x3d643746	0.055716775
56	0x3d589a88	0.052881747
57	0xbbb25370	-0.0054420754
58	0xbd46e9d2	-0.048562832
59	0x3d9edc56	0.077568695
60	0x3cc80490	0.024416238
61	0x3d4dc29c	0.050234422
62	0x3d808de1	0.06277061
63	0xbd5c4b08	-0.053782493
64	0x3d4a879e	0.04944574
65	0xbc0014a0	-0.007817417
66	0x3d5461e6	0.051851176
67	0xbd0bc6b4	-0.034125045
68	0x3d106fc6	0.035262845
69	0x3cc6b6d0	0.024257094
70	0xbda1329d	-0.07870982
71	0xbd4cecfb	-0.05003069
72	0xbbfaab00	-0.0076497793
73	0x3d08e60a	0.033422507
74	0x3db440cb	0.08801421
75	0x3ce68df6	0.028143864
76	0x3db4bc8f	0.08825027
77	0x3d9488a7	0.07252627
78	0x3db3a1dd	0.08771107
79	0xbd867a6f	-0.06566321
80	0xbdafeb62	-0.085898176
81	0xbd5d81c9	-0.05407885
82	0xbcd709b2	-0.02624974
83	0x3d965ae5	0.073415555
84	0x3c283a80	0.010267854
85	0x3bb95a90	0.005656548
86	0x3d8bff07	0.06835752
87	0x3d1f1332	0.038836665
88	0xba491980	-0.00076713413
89	0xbd147544	-0.036244646
90	0x3c509a08	0.012732036
91	0x3d8495ff	0.06473922
92	0xbd9b7503	-0.075906776
93	0xbd521bd8	-0.051296085
94	0x3d67ab24	0.056559697
95	0x3cd08224	0.02545268
96	0x3d0b0994	0.03394468
97	0xbd153ca6	-0.036434792
98	0xbd769fc9	-0.060210977
99	0xbd939330	-0.07205808
100	0x3d91c953	0.07118478
101	0x3d90d395	0.07071606
102	0xbcb85692	-0.022502217
103	0xbda05136	-0.0782799
104	0x3c81fd4a	0.015867848
105	0xbda5c357	-0.08093899
106	0x3ceba602	0.028765682
107	0x3d9626f9	0.07331652
108	0x3c73e17d	0.014885304
109	0xbd29222b	-0.04129235
110	0xbd2045bd	-0.039129008
111	0x3ccb1b70	0.024793357
112	0xbd95a980	-0.0730772
113	0x3d99f92d	0.0751823
114	0x3d995a55	0.074879326
115	0xbd8d1834	-0.06889382
116	0x3d3adc1e	0.045620076
117	0x3c00e41d	0.007866886
118	0x3d202092	0.03909356
119	0x3d89c6cd	0.06727371
120	0xbd3939fc	-0.045221314
121	0xbce6332a	-0.028100569
122	0xbd4cf717	-0.05004033
123	0xbd757ed0	-0.05993539
124	0xbd54a4e7	-0.051915076
125	0xbd8e7940	-0.0695672
126	0x3db4fa9f	0.08836865
127	0x3d898b20	0.06715989
128	0xbce09576	-0.027415019
129	0x3d1ad5b2	0.037801452
130	0xbd5100e4	-0.05102624
131	0xbd0cc094	-0.034363344
132	0x3d65064e	0.055914216
133	0x3c011080	0.007877469
134	0xbcf1eb46	-0.029531132
135	0xbc3efa20	-0.011656314
136	0x3c5a9ee0	0.013343543
137	0xbcb3c660	-0.021945179
138	0x3d8d4a9b	0.068989955
139	0x3da8d7c1	0.08244277
140	0x3d56bda2	0.05242694
141	0x3cb2d388	0.021829382
142	0xbc2197f8	-0.009862892
143	0x3c9e384c	0.019313954
144	0x3c90acf8	0.017660603
145	0xbdae274f	-0.08503591
146	0x3d433632	0.047659107
147	0x3d275b52	0.040858574
148	0x3c6e3298	0.01453843
149	0x3da5a73d	0.08088539
150	0x3bd71340	0.006563574
151	0x3db57777	0.08860677
152	0xbd2b7630	-0.04186076
153	0xbceacc9a	-0.028662015
154	0x3d899d9b	0.06719514
155	0xbda6df98	-0.08148116
156	0x3d3e98e2	0.04653252
157	0xbd27d876	-0.040977918
158	0xbd583495	-0.05278452
159	0x3d2c8a56	0.042124115
160	0x3caac988	0.02084805
161	0x3dabac01	0.083824165
162	0xbc8c0f7c	-0.017097227
163	0x3d248474	0.04016538
164	0xbd7df52d	-0.062001396
165	0xbc4f6e68	-0.0126606
166	0xbd036cf0	-0.032086313
167	0xbb2b2500	-0.0026114583
168	0x3d454c3a	0.0481684
169	0x3d9518c3	0.072801135
170	0xbd10c925	-0.035348076
171	0xbc932290	-0.017960817
172	0xbd938f0c	-0.072050184
173	0x3d2f33d0	0.04277402
174	0x3ccec0e8	0.02523847
175	0x3d70ffca	0.05883769
176	0x3ab1bc40	0.0013560131
177	0xbdb2cd63	-0.08730581
178	0xbd673fc3	-0.056457292
179	0xbb468ec0	-0.0030297488
180	0xbd66fbe4	-0.056392565
181	0xbc67fb75	-0.014159073
182	0xbd95ebe6	-0.07320385
183	0xbc7cb890	-0.0154248625
184	0x3ca5b90a	0.020229835
185	0x3d8b06dd	0.067884184
186	0x3db33a33	0.08751335
187	0x3c2ac751	0.010423497
188	0x3d002982	0.031289585
189	0xbda1a18f	-0.07892143
190	0x3db4df51	0.08831657
191	0xbd1aa1d8	-0.037752002
192	0x3d817161	0.063204534
193	0xbbeefc90	-0.0072932914
194	0xbd44cb94	-0.04804571
195	0x3c924a10	0.017857581
196	0x3d3d236a	0.04617635
197	0x3d81b923	0.0633414
198	0xbd962e39	-0.07333035
199	0xbd3a9014	-0.04554756
200	0x3da744e7	0.08167439
201	0x3dafe65f	0.08588862
202	0x3da39b49	0.07988603
203	0xbd5e60f4	-0.05429168
204	0xbda5d5f2	-0.080974475
205	0xbcaf691c	-0.021412425
206	0x3d1469f0	0.036233842
207	0xbd692c02	-0.056926735
208	0x3cc35fd4	0.023849405
209	0x3d48851e	0.048955075
210	0xbdb23f76	-0.087035105
211	0xbd0dd0a7	-0.034622815
212	0x3d05feb4	0.032713607
213	0x3d45dcc6	0.04830625
214	0xbc82430c	-0.015901111
215	0xbb471ea0	-0.0030383244
216	0xbc0861c0	-0.008324087
217	0x3ce4c49c	0.027925782
218	0x3da76397	0.08173292
219	0xbd802f79	-0.06259055
220	0x3db05e67	0.08611756
221	0x3aa36340	0.0012465492
222	0xbbff75a5	-0.0077960067
223	0xbcb3d100	-0.021950245
224	0xbd462037	-0.048370566
225	0xbd39264b	-0.045202535
226	0x3cbe5e94	0.023238458
227	0x3cffb77c	0.031215422
228	0xbcf25c6c	-0.029585086
229	0xbd7bbb53	-0.061457943
230	0x3db20981	0.08693219
231	0xbbe6e390	-0.0070461705
232	0x3d824475	0.063607134
233	0xbb44f0c0	-0.0030050725
234	0x3cb89618	0.022532508
235	0xbd050062	-0.03247107
236	0x3a54cffc	0.000811815
237	0xbbecb530	-0.0072237477
238	0x3d4025d2	0.04691107
239	0xbd8c9ede	-0.06866239
240	0x3b497953	0.003074248
241	0x3ccc8a74	0.024968363
242	0xbc5ec4b0	-0.013596699
243	0xbd6b936c	-0.05751364
244	0x3bc91750	0.0061368123
245	0x3d52a3e2	0.051425822
246	0xbcd96170	-0.02653572
247	0x3c97b534	0.018519022
248	0x3d309b86	0.04311707
249	0x3d863a67	0.06554108
250	0x3cdfd938	0.027325258
251	0xbd40fcb3	-0.047115993
252	0x3cb5b18c	0.022179388
253	0x3cf18e9a	0.029486943
254	0x3d441fde	0.047881953
255	0xbcbd0d46	-0.023077618

encoder.lstm.bias_ih_l0 f4 [512]
0	0x3b99f8be	0.004698842
1	0x3b2c6a83	0.0026308603
2	0xbbb92f40	-0.0056513846
3	0xbbb9ffb0	-0.0056762323
4	0x3d32da22	0.04366506
5	0x3ccd15b9	0.025034772
6	0xbceb417a	-0.028717745
7	0x3c2ab305	0.010418658
8	0x3d90d0ec	0.07071099
9	0x3cfed505	0.031107435
10	0xbd98abac	-0.07454619
11	0x3cb15480	0.021646738
12	0x3d89cb1a	0.06728192
13	0x3d93350a	0.07187851
14	0xbd448bbf	-0.047984835
15	0x3d3df55a	0.046376564
16	0xbd47de91	-0.04879624
17	0x3ba5837e	0.0050510755
18	0x3d12303c	0.03569053
19	0x3d545540	0.051839113
20	0xbdae5a8a	-0.08513363
21	0xbbefe52b	-0.00732102
22	0x3db34f28	0.08755332
23	0xbd372dff	-0.0447216
24	0xbc5417fc	-0.012945171
25	0xbd0f71fa	-0.035020806
26	0x3d4f8e1c	0.050672635
27	0x3c151d36	0.009101203
28	0x3d27243e	0.040806048
29	0xbd8434d4	-0.06455389
30	0xbd7318f7	-0.05934998
31	0x3c92d89c	0.017925553
32	0x3c4674c8	0.012112804
33	0xbd0850e8	-0.033280283
34	0xbd6269fb	-0.055276852
35	0x3d652313	0.055941653
36	0xbc8988c4	-0.016788848
37	0xbcbc6d2b	-0.023001274
38	0xbd9b10e1	-0.07571579
39	0xbcf396e2	-0.029735032
40	0xbb92657c	-0.0044676643
41	0xbda4bbf7	-0.08043664
42	0xba27a39d	-0.0006394925
43	0xbd4d0f3b	-0.050063353
44	0x3d5eb908	0.05437568
45	0xbd390ca1	-0.04517806
46	0x3d77aa0a	0.060464896
47	0x3d5db8c8	0.0541313
48	0xbd3bf629	-0.045889053
49	0x3dd084d1	0.10181583
50	0xbd4d2a1f	-0.050088998
51	0x3d7450f5	0.05964752
52	0x3d5ea886	0.054359935
53	0x3db078ed	0.08616815
54	0xbbff77df	-0.007796272
55	0x3d537122	0.051621564
56	0xbda6d6da	-0.081464484
57	0x3c952f8c	0.018211149
58	0x3c0e60ee	0.008690102
59	0xbc932fac	-0.017967068
60	0xbbf6fec2	-0.0075376937
61	0x3d432ec6	0.04765203
62	0xbc855ba0	-0.016279042
63	0xbc935b1a	-0.017987777
64	0x3d318ed0	0.043349087
65	0xbaa27844	-0.0012395461
66	0xbba02976	-0.004887755
67	0x3da02f34	0.07821503
68	0xbd25bef0	-0.040465295
69	0xbd355e16	-0.04427918
70	0xbd3b4a1a	-0.045724966
71	0xbca46bcd	-0.020070935
72	0x3da08250	0.07837355
73	0x3cea04cc	0.02856674
74	0x3d5d527e	0.05403375
75	0xbd966f48	-0.07345444
76	0xbcbe0c16	-0.023199122
77	0xbb864989	-0.0040981215
78	0x3d1d40de	0.03839194
79	0x3d9ea262	0.07745816
80	0xbd01c4b0	-0.031681716
81	0x3c2c3900	0.010511637
82	0x3ca8526c	0.020547114
83	0x3d8a93c2	0.06766464
84	0x3db3c2b4	0.08777371
85	0x3d525b7a	0.05135677
86	0x3c9413ec	0.018075906
87	0xbd4a050a	-0.049321212
88	0x3d63c612	0.055608816
89	0x3d851083	0.0649729
90	0x3c079b28	0.008276738
91	0xbdadc8ac	-0.08485541
92	0x3c7aa25e	0.0152975
93	0xbda0c18a	-0.07849415
94	0x3cbc42fc	0.02298116
95	0x3d26a082	0.040680416
96	0xbd013546	-0.031544946
97	0xbde6a102	-0.112611786
98	0x3d0558b2	0.03255529
99	0xbb0e8020	-0.002174385
100	0xbd909771	-0.07060135
101	0x3d8aebd9	0.067832656
102	0xbcf585a8	-0.029970959
103	0xbd956c08	-0.07295996
104	0xbd4570a5	-0.04820313
105	0xbd33190c	-0.04372506
106	0x3b8d1e10	0.0043065622
107	0x3d85700a	0.065155104
108	0xbd177e5a	-0.036985733
109	0x3d91331e	0.07089828
110	0x3d986594	0.074412495
111	0x3cfa3b76	0.030545931
112	0xbc798338	-0.015229039
113	0x3da5226f	0.08063208
114	0xbdc043b9	-0.09387917
115	0x3ae47ec0	0.0017432794
116	0xbda43c47	-0.080193095
117	0x3d15ae35	0.03654309
118	0x3da4224c	0.08014354
119	0xbcd75550	-0.026285797
120	0x3d833e3d	0.064083554
121	0xbda9ba48	-0.082874835
122	0x3cbb6a0c	0.022877716
123	0xbd194da1	-0.03742755
124	0xbd3bc9b1	-0.045846645
125	0xbc5857f4	-0.013204563
126	0x3c0e2caa	0.008677641
127	0x3cfab310	0.030602962
128	0x3da6b4ef	0.08139979
129	0x3d556aa6	0.05210366
130	0xbd5eb56f	-0.054372247
131	0xbd4ef9de	-0.05053126
132	0xbb959200	-0.0045645237
133	0x3da44753	0.080214165
134	0xbc38e06a	-0.011283973
135	0xbbf16dd0	-0.007367827
136	0xbcd4696a	-0.025929172
137	0xbd4ae7a8	-0.04953733
138	0x3d8326f9	0.06403918
139	0x3bb82f90	0.0056209043
140	0x3dafc4d7	0.08582466
141	0x3bf154d0	0.0073648468
142	0xbccce8b8	-0.025013313
143	0x3cb2e2b4	0.021836616
144	0x3d285010	0.04109198
145	0x3cfac76b	0.030612668
146	0x3d8a966d	0.06766973
147	0xbd3cb252	-0.046068497
148	0xbc87e578	-0.016588911
149	0xbc88be43	-0.016692286
150	0xbd913e50	-0.07091963
151	0xbd5801ec	-0.052736208
152	0xbd84693d	-0.06465385
153	0x3cdcddd5	0.026961247
154	0x3dcfe038	0.10150188
155	0x3d3618fe	0.04445743
156	0xbca4bb97	-0.020108981
157	0x3cb06f10	0.021537334
158	0x3d4c3306	0.049853347
159	0xbd692c9b	-0.056927305
160	0xbd53416b	-0.05157606
161	0x3c4e0f6f	0.012576922
162	0xbd4709fe	-0.048593514
163	0xbd015e05	-0.031583805
164	0xbd06c8b0	-0.032906234
165	0xbd5bd2a1	-0.05366767
166	0xbc9ec738	-0.019382104
167	0x3c684ae0	0.014178008
168	0xbda8695c	-0.08223221
169	0xbd416c1b	-0.047222238
170	0x3b58d667	0.0033086778
171	0x3d1f0a36	0.038828097
172	0xbce78cea	-0.028265435
173	0xbbfe2b65	-0.007756638
174	0xbb1b51a0	-0.0023699775
175	0xba9af9c0	-0.0011823699
176	0x3c3cded0	0.011527732
177	0x3d8249b7	0.06361716
178	0xbcfddc5c	-0.030988865
179	0x3cbfb5f0	0.023402184
180	0x3d9e725d	0.07736657
181	0xbd90639f	-0.07050251
182	0x3da63885	0.08116249
183	0x3d0f0b61	0.03492296
184	0xbbdf937d	-0.006823002
185	0xbd69c7e7	-0.057075407
186	0xbd840df7	-0.06447976
187	0x3d0c4f4a	0.034255303
188	0xbd01b30d	-0.031664897
189	0xbda52a44	-0.08064702
190	0x3cfaef6a	0.03063174
191	0xbd95a9b3	-0.07307758
192	0xbd89a37f	-0.067206375
193	0x3d570146	0.05249145
194	0xbd8ba743	-0.06819012
195	0x3cd4dc79	0.025984036
196	0xbbb93b70	-0.0056528375
197	0xbd18fbaf	-0.0373494
198	0x3cc680b6	0.024231296
199	0xbb9ce830	-0.004788421
200	0x3cb64d80	0.022253752
201	0x3d3b1f7f	0.045684334
202	0x3cd3fe67	0.025878144
203	0x3d878dc1	0.06618834
204	0x3d2c5386	0.04207184
205	0x3d17318a	0.03691248
206	0xbb9efadf	-0.0048516835
207	0xba13e200	-0.00056412816
208	0xbcde215a	-0.027115513
209	0xbd4887ce	-0.04895764
210	0xbd3c3bec	-0.045955583
211	0x3d566186	0.0523391
212	0x3db309cd	0.08742104
213	0x3bf7d380	0.0075630546
214	0xbd0cc922	-0.034371503
215	0xbc0dfeb0	-0.008666679
216	0xbd570a79	-0.052500222
217	0xbd8421d8	-0.06451768
218	0x3c481238	0.012211375
219	0x3ccd5750	0.025066048
220	0xba0fb980	-0.0005482659
221	0xbd0d1fcc	-0.034454152
222	0xbd1a096e	-0.03760665
223	0xbd11d0fe	-0.0355997
224	0xbcdac6b4	-0.026706077
225	0xbc45f66e	-0.012082679
226	0x3d638546	0.05554702
227	0xbcd57241	-0.026055457
228	0x3c4ec490	0.012620106
229	0xbd9cdfff	-0.07659911
230	0x3cfb23b0	0.030656666
231	0xbc2c5831	-0.010519073
232	0xbd8e424f	-0.06946241
233	0x3daae606	0.08344655
234	0xbd038ca3	-0.032116544
235	0x3d9a0d2f	0.07522046
236	0xbd85398b	-0.06505116
237	0x3d6878ee	0.056755953
238	0x3d080a50	0.03321296
239	0x3b70b800	0.0036730766
240	0xbd4d870f	-0.05017763
241	0xbd49ae1c	-0.04923831
242	0xbd33f199	-0.043931577
243	0x3ddc2602	0.10749437
244	0xbd24b335	-0.040209968
245	0xbc61a143	-0.013771358
246	0x3cc64dd3	0.024207031
247	0x3d821af1	0.06352795
248	0x3da35c73	0.07976618
249	0x3d2dbdfe	0.04241752
250	0xbc649539	-0.013951593
251	0xbd6e1035	-0.058120925
252	0xbd9cd525	-0.076578416
253	0xbda7d7c3	-0.0819545
254	0x3d26c77a	0.04071758
255	0x3db6847a	0.08911987

encoder.lstm.bias_hh_l0 f4 [512]
0	0xbd013480	-0.03154421
1	0xbd2e5eaa	-0.042570747
2	0xbd8dcadb	-0.06923457
3	0xbcb31954	-0.021862663
4	0x3d1c1fb6	0.03811618
5	0x3da7f140	0.08200312
6	0x3be24b12	0.0069059217
7	0x3da57678	0.08079237
8	0x3d56574b	0.052329343
9	0xbd283ded	-0.041074682
10	0xbd596554	-0.05307515
11	0xbc0277fa	-0.007963175
12	0x3d8f3bfe	0.069938645
13	0x3da44476	0.080208704
14	0xbbab299f	-0.0052234675
15	0xbd70112b	-0.058610123
16	0x3d3b84ce	0.04578095
17	0xbbbe4a12	-0.0058071697
18	0xbcf0e5a8	-0.029406384
19	0x3d2f054c	0.04272966
20	0xbd9d93ea	-0.07694228
21	0x3dabc1d2	0.08386578
22	0x3da7508c	0.0816966
23	0xbd9de53a	-0.07709737
24	0x3cf257e8	0.029582933
25	0xbd949472	-0.07254876
26	0xbd28d22c	-0.04121606
27	0x3d829d72	0.063776866
28	0x3db8b32a	0.09018548
29	0xbd7cd198	-0.06172332
30	0x3ced05fc	0.028933518
31	0x3b2fc1c0	0.0026818365
32	0xbd3b7cb5	-0.045773227
33	0xbc3896d2	-0.011266427
34	0x3d659e73	0.056059312
35	0x3beaa451	0.0071607013
36	0x3d3094fe	0.04311084
37	0x3db47423	0.08811214
38	0x3b057fb7	0.0020370313
39	0xbd436e50	-0.047712624
40	0xbc828c9a	-0.015936185
41	0xbdc1bf2b	-0.094602905
42	0xbc8a2e0c	-0.01686766
43	0x3ca9c71c	0.020724826
44	0x3da5e0ca	0.08099516
45	0xbd3a155d	-0.04543053
46	0xbb5cb032	-0.0033674357
47	0xbd9aacac	-0.07552466
48	0x3dd1bec7	0.10241466
49	0x39ff6a94	0.00048716797
50	0x3d7369ae	0.059426956
51	0x3d5d95bd	0.05409788
52	0xbcf93bb8	-0.030423984
53	0x3d2d5ca6	0.042324685
54	0x3d9c67c8	0.07636982
55	0x3d2aef40	0.041732073
56	0x3d796668	0.060888678
57	0x3cc295ec	0.023753129
58	0x3d4191f8	0.047258347
59	0xbd588ab5	-0.052866656
60	0xbc0f3e85	-0.008742933
61	0x3c099f10	0.00839974
62	0x3d872328	0.065985024
63	0x3bc925c7	0.0061385366
64	0x3c8bb04c	0.017051838
65	0x3d864c6f	0.06557547
66	0xbb1bd9db	-0.0023780975
67	0x3cec895e	0.028874096
68	0xbd356d3a	-0.04429362
69	0x3dd874da	0.10569163
70	0xbcca8fd4	-0.024726786
71	0xbdc98df4	-0.098415285
72	0x3dc36b00	0.09541893
73	0x3d8e3173	0.069430254
74	0x3d0bf23a	0.034166552
75	0x3d49e9c6	0.04929521
76	0x3cf7ede8	0.03026481
77	0x3d9fe37c	0.07807061
78	0xbd0620ca	-0.032746114
79	0xbd44fb1a	-0.04809103
80	0xbca110e5	-0.019661376
81	0x3c350968	0.011049606
82	0xbcaba9d4	-0.020955004
83	0xbd20a86a	-0.039223112
84	0x3d6d143c	0.057880625
85	0x3d11b43c	0.035572276
86	0xba956c45	-0.0011400065
87	0x3db01329	0.085974045
88	0x3d6ce16a	0.05783216
89	0xbc7fcf40	-0.015613377
90	0x3d31aad0	0.04337579
91	0x3d1509f8	0.03638646
92	0x3d761f1a	0.060088255
93	0xbd8edbfa	-0.06975551
94	0xbdaa723a	-0.08322568
95	0xbda13a50	-0.0787245
96	0xbd01bedc	-0.03167616
97	0xbda2e0a6	-0.079530045
98	0xbc7ec05c	-0.015548792
99	0xbd63a4fd	-0.055577267
100	0xbcb286a0	-0.02179271
101	0xbda16f6d	-0.07882581
102	0x3d3d5992	0.046228
103	0x3d80610e	0.06268512
104	0x3d03c6d3	0.032172035
105	0x3d6bc65a	0.05756221
106	0xbdbc4b27	-0.09194022
107	0xbb4bcf75	-0.0031098996
108	0xbd88ec95	-0.066857494
109	0x3d8ee50c	0.06977281
110	0xbd5a87fc	-0.05335234
111	0x3d95dabf	0.07317113
112	0xbd926817	-0.0714876
113	0x3db08223	0.086185716
114	0xbbb01bbd	-0.0053744004
115	0xbcd3f440	-0.025873303
116	0xbcd5a7aa	-0.026080925
117	0x3d4ebfe5	0.050475974
118	0xbd63bd36	-0.055600367
119	0xbca0349c	-0.019556336
120	0xbd2cbf79	-0.04217479
121	0x3cdf1de2	0.027235929
122	0x3d4257fd	0.047447193
123	0x3dc62d8f	0.09676658
124	0xbc39fe48	-0.011352129
125	0x3dbf11ab	0.09329542
126	0xbda62e74	-0.08114329
127	0x3c8fbb00	0.017545223
128	0xbc42a748	-0.011880703
129	0xbd25500e	-0.04035955
130	0x3da97931	0.082750686
131	0xbda1176e	-0.07865797
132	0x3d823da7	0.063594155
133	0xbbc5eea0	-0.006040409
134	0x3b39567f	0.0028280315
135	0xbcfc8162	-0.030823413
136	0xbd8d0180	-0.06885052
137	0x3d968d8d	0.073512174
138	0x3d0e997e	0.03481435
139	0xbca9afc8	-0.020713702
140	0xbcae98b0	-0.021313041
141	0xbcbad89c	-0.022808366
142	0xbdb2b14b	-0.08725222
143	0xbd0d51a0	-0.03450167
144	0xbcafa9cc	-0.02144327
145	0x3c5daa00	0.013529301
146	0xbd582d0f	-0.052777346
147	0xbc25c9f8	-0.010118954
148	0xbd8a1fbb	-0.06744333
149	0x3d212da3	0.039350163
150	0xbd07f8d2	-0.033196278
151	0xbc585cc8	-0.0132057145
152	0x3d326469	0.04355279
153	0xbd5e014b	-0.05420045
154	0x3ddbc426	0.10730772
155	0xbcbc76cc	-0.023005866
156	0x3dc238a6	0.09483461
157	0x3daffeff	0.085935585
158	0x3d349022	0.04408277
159	0x3cd6a650	0.02620235
160	0xbcfe384b	-0.031032702
161	0xbdaa68c9	-0.083207674
162	0xbc6e8ef8	-0.014560454
163	0x3d8505a6	0.06495218
164	0x3ba47670	0.0050190017
165	0x3d44ee1e	0.04807865
166	0x3d1b7d52	0.03796131
167	0x3a492200	0.0007672608
168	0xbd1242e8	-0.035708338
169	0xbd935aa0	-0.0719502
170	0x3da67d98	0.08129424
171	0x3da703bb	0.081550084
172	0x3c01a4f8	0.007912867
173	0x3d1d0829	0.03833786
174	0x3ccd3eac	0.025054298
175	0xbd71467c	-0.05890511
176	0x3ccf3868	0.025295451
177	0xbdaa43aa	-0.08313687
178	0xbdae1781	-0.08500577
179	0x3c14e450	0.009087637
180	0x3d6c09ce	0.057626538
181	0x3c7daf26	0.015483653
182	0xbce44802	-0.027866367
183	0xbd63b435	-0.05559178
184	0xbd8fbfd8	-0.07019013
185	0xbc448118	-0.011993669
186	0x3bccb0aa	0.006246646
187	0xbbb4d810	-0.0055189207
188	0xbdb4a174	-0.08819857
189	0xbd6939f7	-0.056940045
190	0x3d840970	0.064471126
191	0xbd752517	-0.059849825
192	0xbb60d080	-0.0034303963
193	0xbda4bb20	-0.08043504
194	0xbcbd4f18	-0.023109004
195	0x3df93c0b	0.121696554
196	0xbd94500f	-0.072418325
197	0x3d414a6e	0.047190122
198	0x3c52ce1e	0.012866525
199	0xb913f600	-0.00014110655
200	0x3d81e60d	0.06342707
201	0x3db1f94a	0.08690126
202	0x3d3f65e9	0.04672805
203	0xbc87e990	-0.016590863
204	0x3da879fb	0.08226391
205	0x3d19248a	0.037388362
206	0xbd0b0f4c	-0.033950135
207	0x3d9e7591	0.07737268
208	0x3d0c9d40	0.034329653
209	0x3d9c8346	0.07642226
210	0xbd97fd86	-0.07421403
211	0xbd5cb4ac	-0.05388324
212	0x3dca9f93	0.098937176
213	0xbc00b160	-0.0078547895
214	0xbd3c1303	-0.04591657
215	0xbdafef59	-0.08590574
216	0xbb0a3720	-0.0021089986
217	0x3b913e40	0.0044324696
218	0x3d8c748f	0.06858169
219	0xbc2b6d08	-0.010463007
220	0x3bf996a0	0.007616833
221	0x3d3a0b42	0.045420893
222	0x3d5f370a	0.05449585
223	0xbd55156e	-0.05202239
224	0x3cce7dcc	0.025206469
225	0x3d24d17c	0.040238842
226	0xbd995ea5	-0.07488755
227	0x3d7d973b	0.061911803
228	0x3d4c3992	0.04985959
229	0x3ce616da	0.028087068
230	0xbd9949b1	-0.07484759
231	0x3e04ace5	0.12956579
232	0xbd8b76d9	-0.06809778
233	0x3d280824	0.04102339
234	0x3c8e3ae8	0.017362073
235	0xbd78a3c0	-0.06070304
236	0xbdd2431b	-0.102667056
237	0xbd9ab176	-0.07553379
238	0xbd2c3862	-0.04204596
239	0xbcca8ab8	-0.02472435
240	0xbd8ba9aa	-0.0681947
241	0xbcf4a4fa	-0.029863823
242	0x3ce99898	0.028515145
243	0x3da18c48	0.07888085
244	0x3da66103	0.08123972
245	0x3dc6b2bf	0.09702062
246	0x3bb958df	0.005656346
247	0xbd8e0d72	-0.06936158
248	0x3d0b148a	0.033955134
249	0x3d5f0da6	0.054456376
250	0xbca9301f	-0.020652829
251	0xbb4ae3a0	-0.003095843
252	0xbd04ffff	-0.0324707
253	0x3d840c23	0.064476274
254	0x3d419e5a	0.047270156
255	0x3d34e54c	0.044163987

decoder.lstm.weight_ih_l0 f4 [512, 5]
0	0xbc84d3c8	-0.016214266
1	0x3d8ffe9a	0.07030983
2	0xbd12d04a	-0.03584317
3	0xbd8fb71a	-0.07017346
4	0xbd939ccc	-0.07207641
5	0x3d842e49	0.06454141
6	0xbc831a14	-0.016003646
7	0x3d8e7b95	0.06957165
8	0xbcfcacc8	-0.030844107
9	0x3cdfe3f8	0.027330384
10	0x3bea4990	0.0071498826
11	0x3d6dfca6	0.058102272
12	0xbdac02a6	-0.08398943
13	0x3da327af	0.079665534
14	0x3d8fc6c1	0.07020331
15	0x3bf60738	0.0075081848
16	0xbc9241bc	-0.01785361
17	0x3d4f9e0e	0.050687842
18	0x3dbc13a4	0.09183434
19	0xbc89a96c	-0.01680442
20	0xbd29db7f	-0.041469093
21	0x3da4b9f1	0.08043278
22	0x3d138e56	0.036024414
23	0x3d80b0ab	0.06283697
24	0xbd97c361	-0.074103124
25	0xbd76f008	-0.060287505
26	0x3dad7f2b	0.08471521
27	0x3d3b40d6	0.04571613
28	0x3d3d1932	0.046166606
29	0x3d3902b2	0.045168586
30	0xbdab216e	-0.083559856
31	0xbd88642d	-0.06659732
32	0xbda5bd3d	-0.08092735
33	0xbcc52274	-0.02406428
34	0x3c98313c	0.018578164
35	0x3cf18828	0.02948387
36	0x3cb756dc	0.022380285
37	0xbc9d5fb6	-0.019210678
38	0x3d8a51a3	0.06753852
39	0x3d1da486	0.03848698
40	0x3cf9f2d3	0.030511295
41	0x3d431ffc	0.047637925
42	0x3caae5c3	0.020861512
43	0xbd3a3f16	-0.04547032
44	0xbd0dd49b	-0.034626585
45	0x3d8b0754	0.06788507
46	0x3da1b28e	0.07895385
47	0xbd1240de	-0.035706393
48	0xba965814	-0.0011470341
49	0xbd78234d	-0.06058054
50	0x3dc02ff5	0.09384147
51	0xbd152a52	-0.036417313
52	0x3d018a24	0.03162588
53	0x3d3cae12	0.046064444
54	0x3daec2e3	0.085332654
55	0x3db933d1	0.09043086
56	0x3dabe705	0.08393673
57	0x3c2f461e	0.01069787
58	0xbd57e764	-0.052710906
59	0x3d51a99e	0.05118715
60	0x3d11ebf7	0.035625424
61	0xbd017949	-0.031609807
62	0x3da29472	0.0793847
63	0x3cbbb561	0.022913637
64	0xbda63098	-0.08114737
65	0xbc10ac94	-0.008830208
66	0x3da95fc4	0.08270219
67	0x3cab7f30	0.020934671
68	0x3d318aa8	0.043345124
69	0x3c333080	0.010936856
70	0x3d4f78fa	0.05065248
71	0x3d3a10ea	0.045426287
72	0xbbbe6890	-0.0058108047
73	0x3d1050ba	0.035233237
74	0xbd892082	-0.066956535
75	0x3c78471e	0.015153674
76	0x3c87ebc9	0.016591923
77	0xbcbbe13b	-0.022934547
78	0x3d82d76c	0.06388745
79	0x3c0081e0	0.007843465
80	0xbd8544c1	-0.065072544
81	0x3da5467f	0.08070087
82	0x3d95708f	0.072968595
83	0xbd9df9bd	-0.077136494
84	0x3cb00adc	0.021489553
85	0xbd809ed9	-0.06280298
86	0x3d9a0217	0.0751993
87	0x3d67ef86	0.05662491
88	0x3dad254d	0.0845438
89	0x3b79cd00	0.0038116574
90	0x3dc72583	0.09723952
91	0x3c61e5e5	0.013787721
92	0xbd80c3c5	-0.0628734
93	0x3c921622	0.01783282
94	0x3bcb0ec0	0.0061968267
95	0xbd0924fc	-0.033482537
96	0xbdacc69b	-0.084363185
97	0xbd69913c	-0.057023272
98	0xbc4a0a80	-0.012331605
99	0x3b9718b0	0.0046110973
100	0x3d715fe2	0.05892933
101	0xbdaf9146	-0.085726306
102	0xbd9eef30	-0.07760465
103	0xbd76ac4a	-0.0602229
104	0xbdb0cf1f	-0.08633255
105	0xbd247acc	-0.04015617
106	0x3c111f70	0.008857593
107	0x3da5fafc	0.08104512
108	0x3dad593e	0.08464287
109	0xbd351ff4	-0.044219926
110	0xbd4a6201	-0.04940987
111	0x3dc13e1a	0.09435673
112	0x3d917756	0.0710284
113	0xbd14d37b	-0.036334496
114	0xbccf6e80	-0.025321245
115	0xbb90a440	-0.0044141114
116	0xbd848875	-0.064713396
117	0xbd765357	-0.060138073
118	0x3d08815c	0.03332649
119	0x3d0412f4	0.032244638
120	0xbd6867aa	-0.056739487
121	0x3da9f5db	0.08298846
122	0xbd8fa7c3	-0.0701442
123	0xbd22bd0d	-0.039731074
124	0xbd8745de	-0.06605123
125	0xbb93c214	-0.00450922
126	0xbae58d64	-0.0017513451
127	0xbd5a0163	-0.05322398
128	0x3dc30e12	0.09524168
129	0xbd8c9aeb	-0.06865486
130	0xbda5a41b	-0.08087941
131	0xbda74bbd	-0.08168743
132	0xbcac9241	-0.021065833
133	0x3cc9ff03	0.024657732
134	0x3d273df6	0.040830575
135	0x3d2539f1	0.04033846
136	0xb9d2960a	-0.0004016611
137	0x3dd0184f	0.101608865
138	0x3bfc0114	0.007690558
139	0x3d9a1139	0.07522816
140	0x3d294dfe	0.041334145
141	0x3d87ab12	0.06624426
142	0x3d96c144	0.07361081
143	0xbd03db52	-0.032191582
144	0x3da053a9	0.07828457
145	0x3dad20b7	0.084535055
146	0xbd4bd347	-0.049762037
147	0x3d9996b5	0.07499448
148	0x3d717d96	0.05895766
149	0xbd4c909b	-0.049942594
150	0x3caa3913	0.020779168
151	0x3dc3df06	0.09564023
152	0xbd3b094a	-0.045663156
153	0xbaee2e3b	-0.0018171737
154	0xbca18424	-0.01971633
155	0x3db1d770	0.086836696
156	0x3dbcb32c	0.09213862
157	0xbc3311b6	-0.010929516
158	0xbd132c7c	-0.035931095
159	0xbda07b64	-0.07836035
160	0xbd76c654	-0.060247734
161	0x3da187a4	0.078871995
162	0xbd2c5f04	-0.0420828
163	0x3da935d2	0.082622185
164	0x3d9b5373	0.07584276
165	0x3d8ffbf2	0.07030477
166	0x3c3e7e5c	0.011626806
167	0xbc410b70	-0.011782512
168	0x3d788ec6	0.060683034
169	0xbc9d7778	-0.019222006
170	0xbd1a504e	-0.03767424
171	0x3d2e9200	0.042619705
172	0x3d9a66ad	0.07539115
173	0x3d12f64a	0.03587941
174	0xbcbfa1c4	-0.023392566
175	0x3bb94de9	0.0056550396
176	0x3d750db4	0.05982752
177	0xbd436646	-0.047704957
178	0x3cea50ff	0.028603075
179	0x3cadc0e8	0.021210149
180	0x3db51346	0.08841567
181	0x3ae31853	0.0017325975
182	0x3b045c0d	0.0020196468
183	0xbcf3a1b2	-0.029740188
184	0x3cddb628	0.027064398
185	0x3d88474d	0.066542245
186	0xbc43ed91	-0.011958496
187	0x3d482253	0.04886086
188	0xbd41d819	-0.047325227
189	0x3d8e7177	0.069552355
190	0x3dbd08da	0.09230204
191	0x3cf814ac	0.030283295
192	0xbb509e24	-0.003183254
193	0x3c81a970	0.015827864
194	0x3d949d8b	0.072566114
195	0x3bb9a390	0.00566525
196	0xbc8248ec	-0.015903912
197	0x3da92575	0.082590975
198	0x3d6e0262	0.05810774
199	0xbd6ee4ba	-0.0583236
200	0x3d2f7450	0.042835534
201	0xbd0363a4	-0.032077447
202	0xbceb2f0b	-0.028708955
203	0x3d870769	0.0659321
204	0xbd053404	-0.03252031
205	0x3d9da263	0.076969884
206	0x3dae7535	0.08518449
207	0xbd713810	-0.058891356
208	0x3d156c90	0.036480486
209	0x3c2c5140	0.010517418
210	0xbc4cee7d	-0.012508032
211	0xbd8b0b31	-0.06789244
212	0x3d181478	0.037128896
213	0x3ca2e6d8	0.019885466
214	0x3da79e61	0.08184505
215	0xbd0e4345	-0.034732122
216	0xbd7ee4f6	-0.062230073
217	0xbd9b6ab7	-0.075887136
218	0xbd718409	-0.05896381
219	0x3b897210	0.0041945055
220	0xbd16b0ab	-0.036789577
221	0x3bb26a75	0.0054448196
222	0xbd6ba56d	-0.05753081
223	0xbd99f3b8	-0.07517189
224	0x3c1ea2e8	0.009682395
225	0xbc7108f5	-0.014711608
226	0xbd938223	-0.07202556
227	0x3db98733	0.0905899
228	0x3d52f985	0.05150749
229	0xbd5d46fc	-0.054022774
230	0xbd90fb89	-0.070792265
231	0x3d0c2a28	0.03421989
232	0x3d215b14	0.0393935
233	0x3db23a8d	0.08702574
234	0x3d3c89ce	0.04602986
235	0x3cde5754	0.02714125
236	0xbce240d8	-0.02761881
237	0xbd8cf350	-0.06882346
238	0xbd4104cc	-0.047123715
239	0xbda6af44	-0.08138898
240	0xbd17f4c2	-0.037098654
241	0x3d932a2b	0.07185777
242	0x3b8d2cba	0.0043083103
243	0x3dba20d1	0.090882905
244	0xbd8dc098	-0.069215
245	0xbd479802	-0.04872895
246	0x3da049b6	0.07826559
247	0x3db3021e	0.08740638
248	0x3c0bcb9e	0.008532433
249	0x3d69ae6a	0.0570511
250	0xba983a4b	-0.0011614052
251	0xbbdef776	-0.006804402
252	0xbd4c3b4e	-0.049861245
253	0x3de54c58	0.11196202
254	0x3d8b2d57	0.06795757
255	0x3bbfb534	0.0058504585

decoder.lstm.weight_hh_l0 f4 [512, 128]
0	0xbd411a9e	-0.047144525
1	0x3d4d89cd	0.050180245
2	0xbd50ac5f	-0.050945636
3	0x3d23b18e	0.03996425
4	0x3d81823a	0.06323667
5	0x3c98bfcc	0.018646143
6	0x3d18f5ec	0.037343904
7	0x3d21014c	0.039307877
8	0xbd63933e	-0.055560343
9	0xbd1cc304	-0.03827192
10	0xbd97fc10	-0.07421124
11	0x3d03f05e	0.032211654
12	0x3c810cd0	0.01575318
13	0x3b33a8c2	0.002741382
14	0xbdafc675	-0.085827745
15	0x3d836c4f	0.064171426
16	0x3b101931	0.0021987671
17	0x3ada57b8	0.0016658222
18	0x3d5bb482	0.053638943
19	0xbc8a1836	-0.016857248
20	0x3db174d6	0.08664863
21	0xbca04c51	-0.01956764
22	0x3d5e7ba6	0.05431714
23	0xbd20d4b7	-0.03926536
24	0x3d44d837	0.04805776
25	0x3d628693	0.05530412
26	0x3db467a0	0.088088274
27	0xbd42726d	-0.047472406
28	0xbd642b1a	-0.055705167
29	0x3c1d3538	0.009595208
30	0x3bf43d14	0.00745357
31	0x3da55de0	0.08074546
32	0x3d25bb6e	0.04046195
33	0xbd234f21	-0.039870385
34	0xbc8af464	-0.016962238
35	0x3daec529	0.08533699
36	0x3d97e1fa	0.074161485
37	0x3bb5d058	0.005548518
38	0xbd1a7bac	-0.0377156
39	0xbd94caad	-0.0726522
40	0x3db5df28	0.08880454
41	0xbd5bcc2c	-0.05366151
42	0x3cb3974a	0.021922726
43	0xbdb4552a	-0.08805306
44	0x3d5ac7f4	0.053413346
45	0xbca985e8	-0.020693734
46	0x3cd3faf0	0.025876492
47	0x3d73af7e	0.059493534
48	0xbcffbb41	-0.03121722
49	0x3d15a178	0.03653094
50	0x3d93b317	0.07211893
51	0x3d906844	0.07051137
52	0x3bc349a4	0.0059597064
53	0xbd697cd5	-0.057003815
54	0xbdce3d60	-0.100703
55	0xbd107563	-0.0352682
56	0x3cbc52fe	0.022988793
57	0xbcdf8ff6	-0.027290326
58	0x3d622e16	0.055219732
59	0x3cbcb460	0.023035228
60	0x3da3c25e	0.07996057
61	0x3cea7908	0.028622165
62	0x3d636364	0.05551471
63	0x3d36b050	0.04460174
64	0xbdae97ee	-0.08525072
65	0x3d7ca204	0.061677948
66	0x3d111a82	0.03542567
67	0xbd69c718	-0.057074636
68	0x3dbc50a4	0.091950685
69	0x3c6ffec3	0.014648142
70	0x3cf724d1	0.030168923
71	0xb9ad1900	-0.00033015758
72	0x3d55f7e9	0.05223838
73	0x3c794ab0	0.015215561
74	0xbd847a1e	-0.064686045
75	0x3d935e29	0.07195694
76	0xbd8cad41	-0.06868983
77	0x3d0a21a4	0.03372349
78	0x3c6d6bea	0.014491061
79	0x3bca12cc	0.0061667915
80	0x3a8b0da6	0.0010608926
81	0x3d871a49	0.0659681
82	0x3d5705ca	0.052495755
83	0x3d848b3e	0.06471871
84	0xbd782ef4	-0.060591653
85	0xbd706ddb	-0.058698516
86	0xbd9c31e6	-0.07626705
87	0x3d522210	0.051302016
88	0x3d109f24	0.03530802
89	0xbd846f8f	-0.064665906
90	0xbca51b60	-0.020154655
91	0x3d8c5627	0.0685237
92	0x3d917802	0.07102968
93	0xbd8d1e02	-0.06890489
94	0x3dc3537b	0.09537407
95	0x3cf34b3f	0.029698966
96	0x3d903159	0.07040662
97	0xbcb2e60c	-0.02183821
98	0x3cb0909a	0.021553326
99	0x3d3867f2	0.045021005
100	0x3d82509f	0.063630335
101	0x3cc94e9c	0.024573617
102	0x3d092342	0.03348089
103	0x3d0cf03c	0.034408793
104	0xbc9bb966	-0.019009303
105	0x3c84791e	0.016171034
106	0x3daf598a	0.08562
107	0xbcce0300	-0.025147915
108	0x3da0a849	0.07844598
109	0xbc6f58c8	-0.014608569
110	0x3dad6c60	0.084679365
111	0x3c9e06ac	0.01929029
112	0x3d77d7ac	0.060508415
113	0xbd7e926a	-0.06215135
114	0x3cdea354	0.02717749
115	0xbd38ae6b	-0.045088213
116	0x3c81a2c4	0.015824683
117	0xbd15f0a8	-0.03660646
118	0xbd236b0b	-0.039897006
119	0xbd516f9c	-0.05113183
120	0x3b65c55a	0.0035060258
121	0xbd3d5780	-0.046226025
122	0xbd846627	-0.064647965
123	0x3d01fdca	0.031736173
124	0x3c7bed55	0.015376409
125	0xbcc40488	-0.023927942
126	0xbcd9e630	-0.02659902
127	0x3d111bb8	0.035426825
128	0x3d8b18bf	0.06791829
129	0xbd21d212	-0.03950698
130	0x38b13800	8.4504485e-05
131	0x3d9236a9	0.07139332
132	0xbda4d919	-0.080492206
133	0x3d8284cf	0.063729875
134	0xbce7d16a	-0.028298099
135	0xbdac4990	-0.084124684
136	0x3da6238b	0.08112248
137	0x3db3e25f	0.08783411
138	0x3bebe600	0.007199049
139	0x3c672fe8	0.014110543
140	0x3d869a81	0.06572438
141	0x3db3cd7f	0.0877943
142	0xbd9eea6f	-0.077595584
143	0x3cb0b4f4	0.02157066
144	0xbce64c38	-0.028112516
145	0xbd4801f7	-0.04883
146	0xbd4fb076	-0.050705396
147	0xbd07bc7a	-0.03313873
148	0x3d920937	0.07130664
149	0xbc6b1f70	-0.014350757
150	0xbd1639b7	-0.036676135
151	0x3d66769e	0.056265466
152	0x3d4ff28a	0.050768413
153	0x3c392c00	0.011301994
154	0xbd889e1c	-0.06670782
155	0xbd8fec7e	-0.07027529
156	0xbcf3c846	-0.029758584
157	0x3d5fc6a2	0.05463279
158	0x3d58e7c6	0.05295541
159	0x3d9a294d	0.07527409
160	0x3b1e61a0	0.0024167076
161	0xbcf140f0	-0.02944991
162	0xbdb10046	-0.0864263
163	0x38eb0800	0.00011207163
164	0x3d3c6466	0.045994185
165	0xbdad97f1	-0.08476246
166	0xbc8d33e4	-0.017236657
167	0xbda13b9e	-0.07872699
168	0x3b5437c0	0.0032381862
169	0x3da391f1	0.079868205
170	0xbd38c1e3	-0.04510678
171	0xbd0b2d5a	-0.033978797
172	0xbd9819ef	-0.074268214
173	0x3c3994e0	0.0113269985
174	0x3d8ca351	0.06867088
175	0xba236400	-0.00062328577
176	0xbc23b110	-0.009990945
177	0xbd83fbd4	-0.06444517
178	0xbd813c56	-0.06310336
179	0x3d53937a	0.051654316
180	0x3d5b2246	0.053499483
181	0x3d3323b6	0.04373523
182	0x3d61296a	0.054971136
183	0xbd40e5d4	-0.04709418
184	0x3c261fa0	0.010139376
185	0x3d471a9a	0.048609354
186	0x3bc5c860	0.0060358495
187	0x3d880f5d	0.06643555
188	0x3d015fc2	0.031585462
189	0x3d9c48d7	0.076310806
190	0x3bbcf9b0	0.0057670698
191	0xbdabe6a5	-0.08393601
192	0xbd4b190b	-0.04958443
193	0xbda30d0c	-0.07961473
194	0xbdaab7e2	-0.08335854
195	0xbbd44390	-0.0064777806
196	0xbcb58110	-0.022156268
197	0xbda6ceb5	-0.08144895
198	0x3caddacc	0.021222495
199	0x3bd34090	0.0064469054
200	0xbcc701f4	-0.024292924
201	0x3d674672	0.056463666
202	0x3d76f42e	0.06029146
203	0xbd3b0315	-0.045657236
204	0xbdb0853e	-0.08619164
205	0xbd46aef7	-0.048506703
206	0xbdac72f6	-0.084203646
207	0x3d2ab8d6	0.04168018
208	0x3ab8ef40	0.0014109388
209	0xbcb8f444	-0.022577412
210	0x3cac1894	0.021007814
211	0x3cd2c030	0.025726408
212	0xbc635c38	-0.013876967
213	0x3d21471a	0.03937445
214	0xbd21413a	-0.039368846
215	0xbba77440	-0.0051102936
216	0xbc72fde0	-0.014831036
217	0xbb81d790	-0.0039624646
218	0x3d2f326e	0.042772703
219	0x3ca6cbd4	0.020360865
220	0x3d5987ca	0.053108014
221	0x3d3fe33e	0.046847574
222	0x3d873503	0.06601908
223	0xbca9b5a4	-0.020716496
224	0x3d187556	0.037221275
225	0xbdb079c2	-0.086169735
226	0xb9ea8600	-0.00044731796
227	0xbd1de65e	-0.038549773
228	0x3c779428	0.015111007
229	0x3d31a9a2	0.043374665
230	0xbd2bc5f1	-0.04193682
231	0xbd946d33	-0.072473906
232	0x3c66d3e8	0.014088608
233	0xbd317d09	-0.043332133
234	0xbc800c2c	-0.015630804
235	0x3c389648	0.011266299
236	0xbd2da165	-0.042390246
237	0xbb213dc0	-0.0024603456
238	0x3d83508f	0.0641185
239	0x3d9c6299	0.076359935
240	0x3da340ad	0.0797132
241	0x3d9703a7	0.073737435
242	0x3d8a457b	0.067515336
243	0x3d8787e5	0.06617717
244	0x3d3338c2	0.0437553
245	0xbcdd5f94	-0.027023114
246	0xbdab5324	-0.08365467
247	0x3db1a81f	0.08674645
248	0x3d93714b	0.07199343
249	0xbd1bb947	-0.03801849
250	0x3d86a361	0.06574131
251	0xbd5fcc99	-0.05463848
252	0xbd2504a8	-0.040287644
253	0x3c153190	0.009106055
254	0xbcd17abc	-0.02557122
255	0xbcaed448	-0.021341458

decoder.lstm.bias_ih_l0 f4 [512]
0	0x3cb436b6	0.021998744
1	0x3d2c3a22	0.042047627
2	0x3d48f186	0.04905846
3	0x3c261dae	0.010138912
4	0xbb9f0150	-0.0048524514
5	0x3d1a10a6	0.037613533
6	0xbd94eb38	-0.07271427
7	0x3d7208c7	0.059090402
8	0xbd4599ee	-0.048242502
9	0xbd6bb4f7	-0.05754563
10	0x3cf385a0	0.029726803
11	0xbd336fa8	-0.043807656
12	0x3d4e16be	0.050314657
13	0x3cccb985	0.024990806
14	0x3d97761b	0.07395574
15	0x3d76b65e	0.060232513
16	0xbcdac41e	-0.026704844
17	0xbc1ce570	-0.009576187
18	0x3d919743	0.07108929
19	0x3d4c27b6	0.04984256
20	0xbcf40aa0	-0.029790223
21	0xbc54ce5b	-0.012988652
22	0x3c9d2006	0.019180309
23	0x3d7893a6	0.060687684
24	0xbcf1374e	-0.029445317
25	0x3d905cfe	0.07048987
26	0x3c10c7ae	0.00883667
27	0x3d36ebca	0.04465846
28	0x3d6c1eac	0.05764644
29	0xbd1b8290	-0.03796631
30	0xbcdc7b1b	-0.02691417
31	0xbd22a872	-0.039711423
32	0x3c246827	0.0100345975
33	0x3d9f752b	0.0778602
34	0x3dbc49f6	0.091937944
35	0x3d26bc18	0.040706724
36	0x3dd955a7	0.1061204
37	0xbd3f66c0	-0.04672885
38	0x3d872826	0.065994546
39	0x3d2b8436	0.041874133
40	0x3d1ea08d	0.038727332
41	0x3d2dff12	0.042479582
42	0xbdb0f38b	-0.08640202
43	0xbdad6265	-0.08466033
44	0x3d1153b2	0.03548021
45	0xbc79743c	-0.015225466
46	0xbc82cd5a	-0.01596706
47	0x3da315ee	0.07963167
48	0x3d12ee36	0.035871707
49	0x3db4e277	0.08832257
50	0xbd65566b	-0.055990618
51	0xbd29defc	-0.04147242
52	0x3dcc74c7	0.09983211
53	0xbcbaff74	-0.022826888
54	0x3d11371a	0.03545294
55	0x3cd6e9a4	0.026234455
56	0xbc291dd6	-0.010322055
57	0x3d1b55fa	0.03792379
58	0xbd7bdc8c	-0.061489627
59	0x3d144250	0.036196053
60	0xbd3b098a	-0.045663394
61	0x3d508142	0.05090452
62	0xbd46c000	-0.04852295
63	0x3ca4d6d8	0.020121977
64	0xbc6d8bfe	-0.014498709
65	0x3dad3385	0.08457092
66	0x3a9f2880	0.0012142807
67	0x3db6659c	0.08906099
68	0xbd48d19c	-0.049028024
69	0xbcb99244	-0.022652753
70	0xbb9fec20	-0.004880443
71	0x3d2715c6	0.04079225
72	0x3c00b87c	0.0078564845
73	0xbc5c2dfc	-0.013438698
74	0xbd91122a	-0.07083543
75	0xba54d954	-0.00081195426
76	0xbcedca62	-0.029027168
77	0xbcc79c36	-0.02436648
78	0x3cf40962	0.02978963
79	0x3daaa283	0.08331778
80	0x3d922b38	0.071371496
81	0x3cd01221	0.02539927
82	0xbb74750e	-0.0037301215
83	0x3c5fcd98	0.013659857
84	0xbd0b7eee	-0.034056596
85	0x3d5aca46	0.05341556
86	0x3d26b3aa	0.040698685
87	0x3dd860aa	0.10565312
88	0xbc5248fa	-0.012834782
89	0x3c8e8316	0.017396491
90	0xbc9cf4c4	-0.019159682
91	0xbd8b3899	-0.067979045
92	0xbd878575	-0.06617252
93	0x3d912f14	0.070890576
94	0xbdadd9e6	-0.084888265
95	0x3d1e4f3a	0.038649775
96	0x3d530290	0.051516116
97	0x3ce45c3c	0.027876012
98	0xbdb109f1	-0.08644474
99	0xbd196202	-0.037446983
100	0x3d00e80e	0.031471305
101	0x3d244c87	0.040112045
102	0x3b4f637e	0.0031644995
103	0x3ce47b40	0.027890801
104	0xbbb00a32	-0.005372309
105	0xbda2da9d	-0.079518534
106	0xbc9e513c	-0.019325845
107	0xbd44a340	-0.04800725
108	0x3d501373	0.0507998
109	0x3d29e22a	0.041475452
110	0x3cb71d9e	0.02235299
111	0x3cdaa85a	0.026691604
112	0x3c2d4f1c	0.010577943
113	0x3d8cd0d5	0.06875769
114	0x3da80dab	0.08205732
115	0x3d9b21ce	0.07574807
116	0xbd5e2310	-0.054232657
117	0xbc96ca97	-0.01840715
118	0x3d86758b	0.06565388
119	0x3c3ebfa1	0.011642368
120	0xbd9959a9	-0.074878044
121	0x3d7dfe84	0.062010303
122	0x3d24dea6	0.040251397
123	0xbcf1a114	-0.029495753
124	0xbd321a98	-0.043482393
125	0x3d541077	0.051773515
126	0xbc711838	-0.014715247
127	0xbd9e8489	-0.07740123
128	0x3d5f378e	0.05449634
129	0xbb181680	-0.002320677
130	0xbd86b607	-0.06577688
131	0x3d7e7ed6	0.06213268
132	0x3d821df0	0.063533664
133	0xbc6e7d12	-0.014556186
134	0x3da14ce6	0.07875995
135	0x3c421185	0.011844997
136	0x3c65e361	0.014031262
137	0x3c84fee6	0.016234826
138	0xbd9920fa	-0.07476993
139	0x3d4a484f	0.049385365
140	0xbcaa6b4c	-0.020803116
141	0xbceb5d0f	-0.028730897
142	0xbcc9b3b8	-0.02462183
143	0x3d0b9405	0.03407671
144	0x3cf51aba	0.02991997
145	0xbda46720	-0.08027482
146	0xbbd1d880	-0.0064039826
147	0xbcf27252	-0.029595528
148	0x3c4e77b3	0.012601781
149	0x3d89de94	0.067319065
150	0xbcd27bdb	-0.025693825
151	0x3cef51d4	0.029213823
152	0xbcfd3c60	-0.030912578
153	0x3d35ffde	0.044433467
154	0xbc507861	-0.012724013
155	0xbd4b846a	-0.049686827
156	0x3d04f7a8	0.032462746
157	0x3d3c97e2	0.046043284
158	0x3cc750ac	0.02433046
159	0x3da49c67	0.08037644
160	0xbd94edf4	-0.072719485
161	0xbad52e26	-0.0016264364
162	0xbc870d5c	-0.016485862
163	0xbd0b088e	-0.033943705
164	0x3c3036ac	0.010755222
165	0x3d7016f7	0.05861565
166	0x3da74c3c	0.081688374
167	0x3d67e772	0.056617208
168	0x3d7197c5	0.05898263
169	0xbcfeaa95	-0.0310872
170	0x3da935e4	0.08262232
171	0x3db26251	0.087101586
172	0xbd90ac9a	-0.07064171
173	0x3d9724ac	0.073800415
174	0xbd7a5dff	-0.061124798
175	0x3da7bc4f	0.08190214
176	0x3d32aab1	0.043619815
177	0xbac993cf	-0.0015379133
178	0x3d9740e3	0.07385423
179	0xbca35174	-0.0199363
180	0xbda4501c	-0.08023092
181	0xbd75f4aa	-0.060047783
182	0xbbd43910	-0.006476529
183	0x3a639700	0.00086818635
184	0x3cd772f4	0.026299931
185	0x3d7ee95a	0.06223426
186	0xbd4cfde8	-0.05004683
187	0x3d23007a	0.039795376
188	0xbda50a44	-0.08058599
189	0x3ca9bfd8	0.020721361
190	0x3b1a2e63	0.0023526184
191	0x3d049090	0.032364428
192	0xbdad601a	-0.084655955
193	0x3d7f452b	0.062321823
194	0x3db3246f	0.087471835
195	0x3d63c48c	0.055607364
196	0xbb405b4c	-0.0029351292
197	0x3d98443b	0.07434889
198	0xbd53c46e	-0.051701
199	0xbd85e473	-0.06537714
200	0xbd9211e9	-0.07132322
201	0xbae62fea	-0.0017561887
202	0x3ce8821b	0.028382352
203	0x3c995f07	0.01872207
204	0xbd6aa0cf	-0.057282265
205	0x3d741ac4	0.05959584
206	0x3da05164	0.07828024
207	0xbd59a8fd	-0.053139675
208	0xbcbd5f79	-0.023116814
209	0x3c734c05	0.014849667
210	0x3dafafed	0.08578477
211	0xbb23935b	-0.0024959657
212	0xbd1a8355	-0.037722904
213	0x3bc65980	0.0060531497
214	0xbdc5dc2c	-0.09661135
215	0x3d503e6c	0.05084078
216	0x3ce8ef34	0.028434373
217	0x3d4684c6	0.048466466
218	0xbda00ec4	-0.07815316
219	0xbd08cede	-0.03340041
220	0xbc062be2	-0.008189173
221	0xbd379f2a	-0.044829525
222	0xbc9e74e9	-0.019342856
223	0x3a04ed80	0.00050707906
224	0xbb5600a6	-0.0032654195
225	0x3c357791	0.01107587
226	0xbbc18487	-0.005905691
227	0x3d1f5e9f	0.038908597
228	0x3cb0dbb8	0.021589145
229	0x3d1281bb	0.035768252
230	0xbd55dd56	-0.052213036
231	0x3d24982c	0.040184185
232	0xbd8b0b9a	-0.06789322
233	0x3d1804b1	0.03711385
234	0x3c5aa70b	0.01334549
235	0x3c1da8ac	0.009622734
236	0xbc9ff72e	-0.019527044
237	0x3bc42b38	0.0059865974
238	0xbd5c9351	-0.05385143
239	0x3c2f0e58	0.010684572
240	0xbda0489c	-0.07826349
241	0x3d81c812	0.063369885
242	0xbce8912e	-0.02838954
243	0xbd9c4f6a	-0.076323345
244	0xbcaf95b3	-0.021433687
245	0x3ddcb3ef	0.10776507
246	0xbd9c1dfe	-0.07622908
247	0x3d81f392	0.063452855
248	0xbda8279e	-0.082106814
249	0xbc131670	-0.0089775175
250	0x3cab3f77	0.020904286
251	0x3d13edd4	0.036115482
252	0x3d893afc	0.067007035
253	0x3d97e97a	0.07417579
254	0x3d294a4e	0.041330628
255	0xbb3866e1	-0.0028137492
