model_epoch_300.pt (torch, 559464 bytes, 10 tensors)

encoder.lstm.weight_ih_l0 f4 [512, 5]
000000 a0 57 f7 bc 44 57 98 3c b0 01 29 bd 7c 25 d5 bc
       -0.03019315 0.018596299 -0.041261375 -0.02601885
000010 3d 04 b5 3d 8b e5 a0 bd d6 8a 7c bd 72 46 8b bd
       0.08838699 -0.07856282 -0.06165584 -0.06800546
000020 c5 51 0f bd 2d 5f 89 bd 37 18 cb bc a4 f8 7a 3d
       -0.03499009 -0.067076065 -0.02479182 0.06127228
000030 82 8c 1a bd 9e 0c a9 3d 20 1f 2c bb a0 91 3d 3c
       -0.037731655 0.0825436 -0.002626367 0.011570364
000040 fb b4 a7 bd ac e8 cd bc 5e 11 77 3d 72 43 b2 bd
       -0.08188816 -0.02513536 0.060319297 -0.087042704
000050 b0 09 8b 3d 82 8b 84 bd 9e 24 b0 bd ca aa 85 3c
       0.06788957 -0.064719215 -0.08600734 0.01631679
000060 11 69 89 3d 48 0a 5b 3c 70 61 05 bd 00 b2 9a 3d
       0.06709493 0.01336915 -0.032563627 0.07553482
000070 06 45 68 3d 52 8f 7b 3d 40 80 fc 3c bc ee 82 bd
       0.05670645 0.061415978 0.030822873 -0.06393191
000080 be d8 c1 3d 7c 75 8f 3d 1a 98 24 3d 40 70 66 bd
       0.094651684 0.0700483 0.040184118 -0.056259394
000090 05 2e cb 3c 64 f8 70 bd 56 6b 5d bc e6 b3 52 3d
       0.024802217 -0.058830634 -0.01351436 0.051441096
0000a0 24 d9 e8 3c 68 a8 69 bd 4a 40 58 3d da 1d b2 bd
       0.028423853 -0.05704537 0.052795686 -0.086971
0000b0 10 ba 93 3c 32 be 65 bd 4e c0 6f bb be 45 7c 3a
       0.018033057 -0.056089588 -0.0036583128 0.00096234295
0000c0 1a 6b c3 3a 3a 4d 48 bd 2c fb 16 bd a2 03 fa bc
       0.0014909238 -0.048901774 -0.03686063 -0.03051931
0000d0 9d 17 1d bc 4a 27 6e bd 00 01 57 3a 24 02 2d 3d
       -0.009588149 -0.058142938 0.0008201748 0.04223837
0000e0 e6 73 72 bd f2 28 b5 bd 6c bf 8d bd 39 11 0d bd
       -0.05919256 -0.088457 -0.069212765 -0.034440253
0000f0 c7 ef 74 bd 96 70 94 bd 24 04 8c bd 9f 4f b9 b9
       -0.059798982 -0.072480366 -0.06836727 -0.00035345272
000100 a2 7c 9c bd b0 b1 9d 3d 53 8e 73 bd e2 b2 81 bb
       -0.07640959 0.07699907 -0.059461903 -0.003958092
000110 ca fb a9 3d 7b bd a4 3d 78 b6 bd 3d c0 d5 ad bb
       0.08299978 0.08043953 0.09263319 -0.005305022
000120 72 be ca bc 98 40 e8 3b 16 f0 6b bd 74 0c 9c bd
       -0.024749015 0.0070877783 -0.05760201 -0.07619563
000130 b0 1b b0 bd 2c 42 c3 3c 41 71 11 bd d8 a1 49 bd
       -0.08599031 0.023835264 -0.035508398 -0.04922661
000140 b6 56 89 bd d4 68 25 bd 86 3b b4 bc 90 75 d2 bc
       -0.06705992 -0.040383175 -0.02200104 -0.025690824
000150 9e 1e 23 3d 2e d7 78 3d e6 a9 cd 3c ae ac 20 bd
       0.03982412 0.060752086 0.025105428 -0.03922718
000160 d6 77 1c bc 56 f2 12 3d 07 df ce 3d 68 1c bb 3c
       -0.0095500555 0.03587564 0.10101133 0.022840694
000170 28 09 e2 3c fc d0 25 bd ef 0d 56 bd 8d 73 ca bc
       0.027592257 -0.040482506 -0.05225938 -0.024713302
000180 a5 15 0a bc 73 14 ab bc 46 e0 1f bd 10 6a bd bc
       -0.008428012 -0.020883774 -0.039032243 -0.023121864
000190 b8 41 11 3c 00 13 b3 b9 59 3e af 3d 39 a3 ad 3d
       0.008865766 -0.00034155697 0.08556814 0.08478398
0001a0 78 1f a7 3c a8 59 1f 3d e6 11 af 3d 4e d5 2a bd
       0.020400748 0.038903862 0.08548336 -0.04170733
0001b0 c4 20 d4 3b 4e 97 b3 bd 4e c2 45 3d 7a 6e 12 3d
       0.0064736325 -0.087690935 0.048281007 0.03574989
0001c0 0a 89 37 bc 67 20 b1 bc e7 c6 96 3d 1c cd 23 bd
       -0.011202106 -0.021621896 0.07362156 -0.03999053
0001d0 76 b5 43 3d e0 a4 2d 3d 86 72 37 3d 22 ce b1 bd
       0.047780477 0.042393565 0.044786952 -0.08681895
0001e0 07 8b 31 bd 52 4a c9 bc ac 36 e4 3d ed 4b 70 3d
       -0.043345477 -0.024571571 0.1114324 0.05866616
0001f0 ad 43 89 3d 4e 5a f1 bc 8e 7b 5b 3d ad 7a 85 3d
       0.06702361 -0.029462006 0.053584628 0.06517539
000200 9a 46 64 3d 20 a0 96 bc 8c e1 9b 3d 40 f7 a0 bd
       0.055731393 -0.0183869 0.07611379 -0.07859659
000210 c0 bc ae bd d4 ad 17 3d 6b 1a ac 3d 3c 57 28 bd
       -0.08532095 0.03703101 0.08403476 -0.04109882
000220 68 b9 6b 3d 2f 4f a6 3c f8 c1 89 3d ab f6 9d 3d
       0.057549864 0.02030143 0.0672645 0.07713064
000230 ea 72 31 3d f9 70 92 3d a6 12 1c 3d 5a 5f 28 3d
       0.04332248 0.07150454 0.038103722 0.04110656
000240 50 2a bc bb a0 30 8a bb 78 5d fd 3c 9f 29 8a 3d
       -0.0057423487 -0.0042172223 0.030928358 0.0674622
000250 1a c0 7d 3d d4 10 ad bc 7c 18 1a bd d4 f6 2a 3d
       0.06195078 -0.021126188 -0.037621006 0.0417393
000260 c2 0c 2c bd a2 d9 c1 3d 24 ea ac 3c 5b 27 a4 bd
       -0.042004354 0.09465338 0.02110774 -0.08015319
000270 52 cb 6e 3d 86 30 06 3c 41 9f 9b 3d bc e2 10 3d
       0.05829937 0.00819028 0.07598735 0.03537248
000280 76 8d 7d 3d 73 50 bc 3c d1 5e 90 bc 66 48 7a 3d
       0.061902486 0.02298758 -0.017623337 0.0611042
000290 4e 93 07 3d cf c4 9e 3d c6 95 6b bd b0 f9 22 bd
       0.033099465 0.07752382 -0.057515882 -0.0397889
0002a0 e1 bc 90 3d be 97 55 3d b2 56 89 bd e8 1d 14 3c
       0.07067276 0.052146666 -0.06705989 0.009040333
0002b0 b2 6e 88 bd 80 06 8c bb d6 65 2d 3d 3d e0 a8 bc
       -0.066617385 -0.004273236 0.042333446 -0.020614738
0002c0 ff 44 8f 3c 2f bb 9d 3c fc 39 5d bd 68 3a 9c bc
       0.017488955 0.019254295 -0.054010376 -0.019070819
0002d0 ee 5e 01 3d c0 d0 60 bd 8c 4c c5 3d 90 19 9f 3d
       0.031584673 -0.05488658 0.09633741 0.077685475
0002e0 20 89 59 3c 08 47 8a 3d 60 1c 95 bd b6 8a 0d bc
       0.013277322 0.067518294 -0.07280803 -0.008639028
0002f0 92 49 ad bd c0 bf 2b 3b c2 76 5a 3d 6a f0 62 3d
       -0.08461298 0.0026206821 0.053335913 0.055405058
000300 f9 90 9a 3d 69 fc b1 3d 96 7f 5b 3d 8d 26 25 bb
       0.075471826 0.086907215 0.053588472 -0.002519998
000310 93 7e 9d bd 9a b3 6b 3d f0 a9 27 bd 70 a7 9f bc
       -0.07690158 0.05754433 -0.04093355 -0.01948902
000320 68 fe 66 bd 24 c1 c9 3d 44 9a 39 3d 06 04 30 3d
       -0.056394964 0.09851292 0.045313135 0.042972587
000330 40 69 87 bc 1e 7c 61 3d 76 aa 51 3d de d9 73 bd
       -0.01652968 0.055050008 0.051187955 -0.059533946
000340 2e 35 ac 3d 98 58 a6 bd b0 3b 84 3d f1 5b 00 bd
       0.08408581 -0.08122367 0.06456697 -0.031337682
000350 0c 7b aa 3d 9d db 4b bd ed 6b 0a bd 8e 49 81 bd
       0.083242506 -0.049769986 -0.033794332 -0.063128576
000360 2a fc 7f 3d ff d6 99 3c 9d 39 db 3c 94 92 03 bd
       0.06249634 0.018779276 0.02676087 -0.03212221
000370 fd 9f a2 bd 23 c1 81 3d c9 a3 9e bd 58 85 0e 3d
       -0.079406716 0.06335666 -0.07746083 0.034795135
000380 b4 91 f6 3c fa 1b 4d bd c2 7a 6c bd 94 57 96 3c
       0.030098774 -0.05007551 -0.05773426 0.018352307
000390 8c 37 8f bd ed 1d 4b bd 29 1b 8e 3d e0 f3 d9 bb
       -0.069930166 -0.049589086 0.06938774 -0.0066513866
0003a0 80 d8 97 ba 21 41 9e 3d 2d 7d a8 3d cd cd cf bc
       -0.0011584908 0.07727266 0.082270004 -0.025366688
0003b0 6c 54 c0 bd 18 26 60 bd 12 df 8b 3b a8 78 c0 3c
       -0.09391102 -0.05472383 0.0042685354 0.023495033
0003c0 16 e8 8a bd 00 cd c4 3d e0 5e 07 3d 2c bc 61 3d
       -0.06782548 0.09609413 0.033049464 0.055111095
0003d0 03 c8 ae 3d ec 55 f1 bb c9 00 37 bd fb 3d 4c 3d
       0.08534243 -0.007364979 -0.044678483 0.049863797
0003e0 be a6 a3 bd b8 27 b0 bc b0 67 3a 3d 16 1f 06 3d
       -0.07990788 -0.021503314 0.04550904 0.03274449
0003f0 1e e4 aa 3b 46 d0 a0 3c 70 a2 92 bc b0 c3 05 3d
       0.005215182 0.019630563 -0.017899722 0.032657325

encoder.lstm.weight_hh_l0 f4 [512, 128]
000000 b5 b1 80 bd c2 5e 4d bd f7 29 a9 bd fc 14 9e bc
       -0.06283895 -0.050139196 -0.08259957 -0.019297116
000010 00 1a 33 3c d2 25 27 3d 19 ac 0a bd 56 5c 4d 3d
       0.010931492 0.040807553 -0.03385553 0.050136887
000020 70 3a 5d bc a4 f4 fb bc 28 20 9a bd 89 9f aa 3d
       -0.013502702 -0.030756302 -0.075256646 0.0833121
000030 e0 9a a2 3c 7e fc 64 3d 24 36 69 bd 9b 2e b4 3d
       0.01984924 0.055904858 -0.0569364 0.08797952
000040 ab 8b 95 3d 14 0b 8d bd c0 b4 ba bc d7 c4 9c 3d
       0.0730203 -0.068868786 -0.022791266 0.07654732
000050 4a b3 40 3d c0 0e 99 3c f0 75 89 bb 80 96 ce 3c
       0.047045983 0.018683791 -0.0041949674 0.025218248
000060 a5 07 a5 3d e0 0b 0d 3b fb d8 7f bd 20 b2 d7 bc
       0.08058099 0.002152197 -0.062462788 -0.026330054
000070 3c ee 94 bd 15 a7 8d 3d c5 90 15 bd a8 f8 d3 3c
       -0.07272002 0.06916634 -0.036515016 0.025875404
000080 52 35 83 bd 59 d6 a4 3d a6 24 2d 3d 77 8b 96 3d
       -0.064066544 0.08048696 0.04227128 0.073508196
000090 e7 41 87 bd bc dd 94 bd 9f 4f a8 3d 5e a3 45 3d
       -0.06604367 -0.07268855 0.082183115 0.048251502
0000a0 1e a8 19 bd 76 8d 6c bd e0 27 90 3b 66 d8 67 3d
       -0.037513845 -0.057752095 0.0043992847 0.056602858
0000b0 c8 ff d4 3c 6d 0a ae 3d 58 5c ef 3c 94 56 c2 3c
       0.026000872 0.08498082 0.029218838 0.023722924
0000c0 46 81 a7 bd 9c 53 aa bc 6a 21 fc bc d4 1b 89 3c
       -0.08178954 -0.020791821 -0.030777652 0.016736902
0000d0 c0 b4 30 bc 16 26 59 3d d8 8a 00 bc 77 43 b4 3d
       -0.010785282 0.053014837 -0.007845603 0.088019304
0000e0 40 71 3c 3c 8b c7 5c bd 98 11 a0 bc a5 b5 62 bd
       0.01150161 -0.053901237 -0.01953964 -0.05534901
0000f0 1f 59 a1 bd 43 35 99 bd a0 dc 91 3b f4 8c 4f bd
       -0.078783266 -0.07480862 0.0044513494 -0.050671533
000100 0e 82 48 3d 40 da 96 bd fc 33 a6 bc a4 2b 8f bd
       0.048952155 -0.07365847 -0.02028846 -0.06990746
000110 3a e5 0c 3d df 93 6a bd e9 80 95 3d c8 cb 2a bc
       0.034398295 -0.057269927 0.07299978 -0.010424562
000120 3e dc 25 3d 44 37 81 bd 30 b5 99 bb d0 0a ae bc
       0.040493242 -0.06309369 -0.0046907887 -0.02124539
000130 c0 d6 9e bd 80 73 13 3d 7b a7 aa bd 44 73 93 bc
       -0.07755804 0.03599882 -0.083327256 -0.017999299
000140 9c 66 ed 3c 06 24 f7 bc a5 e6 b4 3d 3d 0b ad 3d
       0.028979592 -0.030168545 0.088330545 0.08449409
000150 1c 3c a9 bd 56 12 db bc f3 31 92 3d 80 d4 95 bc
       -0.08263418 -0.026742142 0.07138433 -0.018289804
000160 42 de 61 3d bc 4d 4f bd 96 06 3d bd a8 1a 2e 3c
       0.055143602 -0.050611243 -0.04614886 0.0106264725
000170 09 3f 8d 3d 42 02 6d bd a7 6d 9f 3d 70 b6 19 3c
       0.068967886 -0.05786348 0.077845864 0.009381875
000180 40 68 ae 3a 0c 93 b1 3c 3f 35 91 3d c6 0a 77 3d
       0.0013306215 0.021676563 0.07090234 0.06031301
000190 90 db bc 3b 68 36 8e bc 4e 94 4c bd 4e 76 6e bd
       0.0057634786 -0.017359927 -0.049946122 -0.058218293
0001a0 8a 43 3c 3d fa 42 52 3d fa f0 52 3d a8 77 8e bc
       0.045962848 0.051333405 0.051499344 -0.01739104
0001b0 36 bf 5d 3d 4d 1b 33 bd 30 33 a8 bb 21 1a 8b bd
       0.05413743 -0.043727208 -0.005133055 -0.06792093
0001c0 68 b0 54 bc 58 67 07 bc ef ab b4 3d 58 f5 40 bc
       -0.012981512 -0.008264385 0.08821856 -0.0117772445
0001d0 a3 b3 a3 3d 20 b5 97 3c 75 b4 92 bd 08 a6 47 3c
       0.07993247 0.018518984 -0.07163326 0.012185581
0001e0 f0 4d e0 bb ce d5 08 3d bd 82 11 bd 25 d7 b0 3d
       -0.0068452284 0.033407025 -0.035525072 0.086347856
0001f0 85 64 89 bd 31 77 aa 3d b7 cd 96 3d cb 9a 7e bd
       -0.06708626 0.08323515 0.07363456 -0.06215934
000200 68 07 89 3c 4e 8f 73 3d 82 74 60 3d 5c eb 8b bc
       0.016727164 0.059462838 0.05479861 -0.017080002
000210 ba 8b 8a bd 87 2e b0 3d 29 85 8e 3d 2a 1c 3c 3d
       -0.06764932 0.086026244 0.06958992 0.045925297
000220 95 4d b0 3d ba 78 50 3d 78 2d 6c 3c fc a2 e9 3c
       0.086085476 0.050896384 0.0144151375 0.0285201
000230 58 c6 b2 3c dd 96 ab 3d 8e 82 84 bd e0 de 0a bd
       0.021823093 0.08378384 -0.06470214 -0.033903956
000240 38 ff cf 3c 76 07 33 3d d3 f7 9e 3d 1c 70 5f bd
       0.025390252 0.043708287 0.077621125 -0.054550275
000250 69 26 08 bd 9e 45 3e 3d 01 fc 6a bd ac 92 c4 bc
       -0.033239756 0.04645311 -0.057369236 -0.02399572
000260 ce 8b 23 3d b8 e1 9b bd ae dc 74 3d 57 c8 92 bd
       0.03992825 -0.07611412 0.05978077 -0.07167118
000270 a4 d9 82 bd 17 f3 13 bd 34 86 95 bc 98 e9 9a bc
       -0.06389168 -0.0361205 -0.01825247 -0.018910214
000280 04 80 01 bd ac a6 d0 bc 7f ea 8d 3d 7d f9 87 3d
       -0.031616226 -0.0254701 0.06929492 0.06639383
000290 70 2d b4 bc 1c 6e ec 3c 02 d2 1a bd 00 24 98 bb
       -0.021994323 0.028861098 -0.037797935 -0.0046429634
0002a0 09 dc 83 3d 92 18 66 3d e9 3b 97 3d 8f b3 81 3d
       0.06438453 0.056175776 0.07384474 0.06333076
0002b0 99 bd 98 3d 5a a0 24 3d 8a be ed bc 37 ee a6 bd
       0.07458038 0.040191986 -0.02902152 -0.081509046
0002c0 76 09 58 3d 22 be 5c 3d 7e 8e 24 bd 1b 83 ab 3d
       0.052743398 0.053892262 -0.040174954 0.08374616
0002d0 85 ad 80 bd c0 cc 71 3c cf 2d 8d 3d 0e 49 67 3d
       -0.06283096 0.014758289 0.06893503 0.056466155
0002e0 9a e5 2b 3d 2f 3d 8c 3d ec 99 d3 bc 14 70 ee 3c
       0.041967012 0.06847607 -0.025830232 0.029106177
0002f0 d4 fa 23 bd a0 55 3f bb 58 19 ac bc 93 9f 28 bd
       -0.04003413 -0.0029195324 -0.021008179 -0.041167807
000300 a0 3d 13 bb ab b8 a5 3d 20 8a 6d 3c 32 61 5c 3d
       -0.0022467151 0.08091863 0.014498264 0.05380363
000310 fb 72 89 bd 9f 36 7d bd 52 e6 3d 3d c0 e2 29 bc
       -0.06711384 -0.06181967 0.04636223 -0.010369003
000320 c4 77 c2 bc 66 35 47 3d 90 db 08 3c fc 15 bf bc
       -0.02373875 0.04863491 0.008353129 -0.023325913
000330 6f ec 38 bd 8a aa 1d bd cc 8c a9 bc b2 f0 30 bd
       -0.045147356 -0.038492717 -0.02069702 -0.043198295
000340 00 a6 60 bb ef 0c 91 bd 14 99 a9 bc d7 6a 81 3d
       -0.0034278631 -0.07082545 -0.020702876 0.06319206
000350 80 2c 1c ba 52 ee 78 bd 4a 09 4e 3d 8e 40 70 3d
       -0.0005957559 -0.060774155 0.050301827 0.058655314
000360 68 10 cd 3c 68 7d a4 bc 97 ca 71 bd ae 0b 4b 3d
       0.025032237 -0.02007933 -0.059031095 0.049571685
000370 5c ff 0c 3d a0 df 4a 3b 5c d0 81 bc 0f d4 9f 3d
       0.034423217 0.0030956045 -0.015846424 0.07804119
000380 f6 84 a0 bd f0 9e f1 3b 33 ee ad 3d b0 24 77 bd
       -0.0783786 0.007373683 0.084926985 -0.060337722
000390 c6 0a 05 3d cc 5e cf bc 53 fe 2b bd b6 85 4a 3d
       0.032480977 -0.025313757 -0.04199059 0.049443923
0003a0 d0 d3 2c bc 4f 25 9d 3d 20 41 9e bb 14 eb ee 3c
       -0.010548547 0.07673132 -0.004829541 0.029164828
0003b0 83 22 9f 3d f0 4e 7d 3c 95 22 5b bd 16 60 38 3d
       0.077702545 0.015460715 -0.053499777 0.04501351
0003c0 00 c5 e3 bb 70 92 b8 3c 34 98 e4 3c 5c 09 ff bc
       -0.0069509745 0.022530764 0.027904607 -0.031132393
0003d0 4a 72 30 bd da 21 31 3d a4 d0 9f 3c 26 0e 47 bd
       -0.043077745 0.043245174 0.019508667 -0.048597477
0003e0 78 a3 5e 3c a7 0c 0f bd c0 08 8b bd 20 c5 6d bc
       0.013588779 -0.034924176 -0.06788778 -0.01451233
0003f0 6b 64 9a 3d 86 cd 2a 3d 5c 84 b1 bd 06 09 50 3d
       0.075386845 0.04169991 -0.08667824 0.050789855

encoder.lstm.bias_ih_l0 f4 [512]
000000 40 79 e4 3b 0e 3e 37 3d ef c0 a9 3d 58 92 84 bc
       0.006972462 0.044736914 0.08288752 -0.016183063
000010 ba 03 a2 bd 0a df 87 bc 3d 01 80 3d 74 58 64 3d
       -0.07910867 -0.016585846 0.06250236 0.055748418
000020 76 5f 24 bd a3 f5 8e bd 3a e2 98 3c ce f3 a3 3d
       -0.0401301 -0.06980445 0.01866256 0.080054864
000030 12 b0 2d 3d 3f c9 00 3b 00 1f 81 3d 1c 0f 20 3d
       0.04240424 0.0019651202 0.06304741 0.03907691
000040 48 ea a8 3c 16 5b 9a 3d a4 ed 3f bd 0f 6e 02 3c
       0.020619527 0.075369045 -0.04685749 0.00796081
000050 f0 d7 e7 3c 29 89 c2 3d f8 e8 79 bd ea 5c d7 3d
       0.02830121 0.094988175 -0.061013192 0.10515769
000060 c0 ef e8 3a 00 d9 fd b9 17 00 18 3d a1 e6 3f 3d
       0.0017771646 -0.00048417598 0.03710946 0.046850804
000070 6c 62 b1 bc 20 0f fa 3c d1 56 94 3b 70 ce e6 bc
       -0.021653377 0.03052479 0.004526951 -0.028174609
000080 23 bf 94 bc 84 3f 89 3d 80 1c d6 ba 86 85 e5 bb
       -0.018157547 0.06701568 -0.0016335398 -0.0070044426
000090 2a 2d 32 3d a4 d1 95 bc d8 f9 39 bc 64 df 96 3d
       0.043500103 -0.018288441 -0.011351071 0.07366827
0000a0 68 d7 8c 3d 82 a4 e7 3c 7a cd 58 bd 72 47 97 3d
       0.06877023 0.028276686 -0.052930333 0.07386674
0000b0 bc 4d 89 bc cd e8 6a bd 03 e9 9d bd ba ca 82 3d
       -0.0167607 -0.057350922 -0.07710459 0.06386323
0000c0 f8 70 93 3d fe ec ec bb d0 0e a5 3c c8 10 8c 3c
       0.071992815 -0.0072304 0.020148665 0.017097846
0000d0 38 3e 10 3d 10 18 b4 3d 24 8c c6 3c 40 a5 85 bd
       0.035215586 0.08793652 0.024236746 -0.065256596
0000e0 f1 fb 6f 3d 30 3c 09 bd ec dd 8c bd 76 91 74 3d
       0.05858988 -0.033504665 -0.06878266 0.059709035
0000f0 48 54 9b bd d6 9e de 3d 5e 34 8d 3d 77 1a 6d 3d
       -0.07584435 0.10870139 0.06894754 0.057886567
000100 85 ef 9e bd 10 6b 36 bd 84 07 92 bd a8 ea da 3b
       -0.077605285 -0.044535697 -0.0713034 0.0066808052
000110 86 a2 60 3d b4 88 88 bb 6d e9 ed 3d d6 c9 f8 bc
       0.054842494 -0.004166687 0.11616788 -0.03036968
000120 4b be 9b bd ff 73 49 3d 83 70 73 bd 1b dc ac bd
       -0.07604655 0.049182888 -0.05943347 -0.08440419
000130 8c b2 4c 3b 7c 33 a0 bd 16 2f 97 bd 1c 42 ad bc
       0.0031234352 -0.0782232 -0.07382028 -0.021149687
000140 f2 60 28 3d da 12 2c 39 67 1b ac 3d 64 5a 5a bd
       0.04110808 0.00016410221 0.08403664 -0.05330886
000150 6d 08 27 bd f7 0b 25 bc f0 c2 d0 bc 46 7e 74 bd
       -0.04077952 -0.010073653 -0.025483578 -0.059690736
000160 9a b4 50 3d 72 5d a1 bd dc 3c 59 3d 6b 4f 55 3c
       0.050953485 -0.078791514 0.053036556 0.013019423
000170 e7 3a 05 3d ff ee 8d bd 6a 56 99 3d 2a 0e a5 ba
       0.032526877 -0.069303505 0.07487185 -0.0012592722
000180 1c d8 09 bd fe 48 9e bd 10 20 65 3c 14 24 85 3b
       -0.033653364 -0.07728766 0.013984695 0.0040631387
000190 28 a4 50 bd 25 fb 8b bb 26 23 c6 3c 8b 2a 40 bd
       -0.0509378 -0.004271882 0.024186682 -0.046915572
0001a0 26 a3 70 3d 3f c7 6b 3d e3 91 45 3d ba ad 24 3d
       0.05874934 0.057563063 0.04823483 0.04020474
0001b0 d1 f3 9a 3d ee 3a 47 3d 70 ec ce bb 66 be 1a 3c
       0.075660355 0.048640184 -0.0063148066 0.009444809
0001c0 7f 84 e0 3b 0c f0 d2 3c 3c b7 88 bc 4c fb 29 bc
       0.0068517323 0.025749229 -0.016688935 -0.010374855
0001d0 56 6a 85 bd d0 7e 78 bc 9a d3 ea bc 60 63 4d bd
       -0.065144226 -0.015166953 -0.028665353 -0.0501436
0001e0 44 6e 3a 3d 70 61 0f 3c fb 7e 90 3d d8 34 fa bc
       0.045515314 0.008751258 0.070554696 -0.030542776
0001f0 16 dd 3e bd 50 70 9a bb 7a 4e 60 bd 12 9e 35 3d
       -0.046597563 -0.0047130957 -0.05476234 0.0443402
000200 b3 9c 3c bd 1c 5e b0 3c 55 5b ac 3d 54 09 86 bd
       -0.046047878 0.02152925 0.08415858 -0.06544748
000210 ae 43 89 bd 7c f5 8c bb 04 f6 57 bd 99 1d d5 3b
       -0.06702362 -0.004301725 -0.052724853 0.0065037725
000220 b0 cd 13 bc 40 d2 a2 bc 98 dd 6a 3d 2c f7 d8 3c
       -0.009021208 -0.019875646 0.057340235 0.026485048
000230 2a 15 03 bd 23 11 84 bc 86 d3 2b 3d ac 7e cd bc
       -0.032002605 -0.016121453 0.04194977 -0.025084816
000240 be 7b 53 3d 65 3e a1 ba a8 36 a7 3c dd 11 53 bd
       0.05163168 -0.001230192 0.020411804 -0.051530708
000250 49 ca 04 3a 90 e9 7e bc 23 7b 9e 3b 66 e8 5e 3d
       0.0005065543 -0.015558615 0.0048364564 0.05442085
000260 3c b7 a6 3c 5e 2b 58 3d 20 14 73 3d 90 ec b1 bd
       0.020351045 0.052775733 0.059345365 -0.08687699
000270 26 1a 4a 3d f4 ea c6 3c fc 0c e4 3d 1e 1b 5f 3d
       0.049341343 0.024281956 0.11135289 0.05446922
000280 c4 7b 6a bc 9c fa 63 3d 28 f2 3d 3c 10 43 c3 bb
       -0.014311735 0.05565892 0.011593379 -0.005958922
000290 e3 37 0c 3d 4c da b5 3c 35 88 3d bd 68 04 16 bd
       0.034232985 0.022198819 -0.046272475 -0.036625296
0002a0 97 06 92 3d 70 f1 d2 3c 45 d9 ad 3d 03 7b aa 3d
       0.07130163 0.025749892 0.084887065 0.08324244
0002b0 24 52 f3 3c 9e b4 37 3d 28 73 57 3d 33 2a 8a 3d
       0.029702254 0.044849984 0.052600056 0.0674633
0002c0 17 9d f4 bc ee 74 50 bd 0e 79 53 bd 4c c0 99 3c
       -0.029860063 -0.050892763 -0.05162912 0.018768452
0002d0 73 fe 9c 3d a0 d4 18 bc 9a 5f 3e 3d 10 ca 9f bd
       0.0766572 -0.0093280375 0.04647789 -0.07802212
0002e0 91 65 14 bd 48 36 5a 3c d4 87 99 3c c0 c7 55 3d
       -0.036229674 0.013318606 0.018741526 0.05219245
0002f0 02 6c 2d bd d0 f2 1c 3c 3f 1d 9b 3d 50 f1 b7 bb
       -0.042339332 0.009579375 0.075739376 -0.0056134835
000300 80 e0 b3 bc 81 34 e6 3c 70 1d 8e 3c 5a 1f 16 3d
       -0.021957636 0.028101208 0.017348021 0.036650993
000310 8c b8 26 bd 00 06 04 bd e3 17 99 3d 3b ed 8e 3d
       -0.04070334 -0.032232285 0.07475259 0.06978842
000320 6d 25 82 3d 52 fe 6a 3d 0a 3f 3e bd 56 a7 53 3d
       0.06354795 0.057371445 -0.046446837 0.051673256
000330 66 af 6e 3d e8 bd 84 bd bc 12 db bc 52 9e 4f bd
       0.05827274 -0.06481534 -0.026742332 -0.050688095
000340 3e 9c e4 bc f9 59 a2 bd 7e 57 a4 3c 20 8b fb 3c
       -0.027906533 -0.07927317 0.02006125 0.030705988
000350 ea c8 5b bd f5 8a aa 3d b4 3e 68 bd cc 3b 86 3c
       -0.053658403 0.08327285 -0.056700423 0.016385935
000360 6f d9 9f bd 16 00 d9 3c 78 73 96 3c 0c ac 8f bc
       -0.07805144 0.026489299 0.018365607 -0.017538093
000370 80 11 c6 ba bf cd ab 3d b1 bf 5d bd 37 a1 8e bd
       -0.0015111417 0.08388852 -0.05413789 -0.06964343
000380 1a a9 87 bd 07 84 44 bd 7c 50 ca 3c 92 07 f5 bc
       -0.066240504 -0.047977474 0.024696581 -0.029910836
000390 29 3b 93 3d b8 5f 5a 3b 86 f1 af bd a9 98 96 bd
       0.07189018 0.0033321213 -0.08590989 -0.07353336
0003a0 ec 03 a7 3c b7 5b e5 3d 8c 49 aa bd 9b c8 8f 3d
       0.020387612 0.11199134 -0.08314809 0.07020684
0003b0 84 68 f9 bc b3 bb 83 3d f8 bf 8a bd a5 62 93 3d
       -0.030445345 0.06432285 -0.067748964 0.07196549
0003c0 de 70 64 3d 60 aa e5 3c ce 17 51 bd 10 54 aa bb
       0.0557717 0.028035343 -0.051048093 -0.0051980093
0003d0 d3 88 b3 3d 7f 51 87 3d 58 b3 ca bb dc dc 82 3c
       0.087663315 0.06607341 -0.00618593 0.015974455
0003e0 4d 8f dd 3a f3 dc 85 3d f0 97 2f bd 62 ae 81 bc
       0.0016903669 0.06536283 -0.04286951 -0.015830223
0003f0 ab 5c 05 3d 42 07 48 bd 0e de 4c bd 16 ff 10 3d
       0.03255908 -0.048835047 -0.050016455 0.03539952

encoder.lstm.bias_hh_l0 f4 [512]
000000 07 8a 57 bd e0 18 ac bb 94 f0 74 3d 64 e1 ef bc
       -0.052621868 -0.005251989 0.059799746 -0.02928228
000010 27 86 8b 3d 2a fb 3e bd 71 d7 88 3d 4c 13 45 bd
       0.06812697 -0.046626247 0.06681717 -0.048114106
000020 eb db 46 bd 39 9f ef bc b3 86 80 3d e2 31 c0 3c
       -0.048549574 -0.029250728 0.06275692 0.023461286
000030 80 00 83 3b ba 82 60 bd ec 45 ba 3d 77 47 db 3c
       0.0039978623 -0.05481217 0.09095368 0.026767476
000040 8e 12 a1 3d ab 9b 5e 3c 31 d1 86 bd 93 30 43 bc
       0.07864867 0.013586919 -0.06582869 -0.011913436
000050 1d d7 37 bd 30 74 f6 3b f2 89 0a 3c 85 d8 6e bb
       -0.044882882 0.007521175 0.00845574 -0.0036444974
000060 ed 3a 30 3d d8 5e 8e 3c 9f ad 09 3d 02 23 e7 bc
       0.043024946 0.01737921 0.033612844 -0.028214935
000070 d8 c9 82 3c 62 da 09 bd 1c f3 9c 3c 00 d2 d6 3b
       0.015965387 -0.03365553 0.019158892 0.0065557957
000080 f1 4b 86 3d 7c 1d b6 3d 8c 86 a5 3c 7c dc b7 bc
       0.065574534 0.088923424 0.020205759 -0.022444002
000090 c2 ab 2c 3d 11 0c 91 3d 55 6e a9 3d 3e 05 16 3d
       0.04215599 0.070823796 0.08272997 0.036626093
0000a0 46 38 85 3c 78 0b 2e bd 85 76 c3 3d 4b f3 d4 3a
       0.016262185 -0.042491406 0.0954409 0.0016246823
0000b0 0a a7 95 3d 3e 60 8b bc de d3 62 3d be b7 9b 3d
       0.07307251 -0.017013665 0.055377834 0.076034054
0000c0 5c f3 95 ba 7e 44 85 bb 60 d5 c3 3c 30 23 44 bd
       -0.0011440325 -0.004067003 0.023905456 -0.04788512
0000d0 8c 5c a0 bd 1f 92 5f bc 68 b6 de 3c 84 03 9a bd
       -0.07830152 -0.013645678 0.027186587 -0.07520202
0000e0 82 d3 d1 3d a6 40 db bc 3c 0a d0 3c e9 82 3c bd
       0.1024542 -0.026764225 0.025395505 -0.046023283
0000f0 90 c7 83 3d 9e bb d2 3d 87 0b 34 3c f7 7a 64 3d
       0.06434548 0.102896914 0.010989076 0.05578133
000100 30 34 34 bd d2 55 70 bd e2 49 64 3d 60 7e 98 3d
       -0.043995082 -0.058675595 0.055734523 0.07445979
000110 46 77 3a 3d 52 55 9b 3d 0f ec 36 3d c0 ca e7 3c
       0.045523904 0.07584633 0.044658717 0.02829492
000120 05 52 83 3d 7b 50 10 3d 40 c6 38 bd 25 ba 98 bd
       0.06412128 0.035233002 -0.04511094 -0.07457379
000130 4a 47 34 3d 6d c8 b1 3d be 3e 48 bd 07 03 3b bd
       0.0440133 0.08680806 -0.04888796 -0.045657184
000140 84 5e 90 bd 0a 86 63 3d 4f 71 86 3d 02 91 e4 bc
       -0.070492774 0.05554775 0.06564581 -0.027901176
000150 da ec ce 3c 3f 15 b4 bc d3 3d 3a bd d8 70 3f 3d
       0.025259424 -0.021982787 -0.045469116 0.046738476
000160 60 8c 8b bc 90 10 13 3d da 39 0b 3c 78 82 50 bd
       -0.01703471 0.035904467 0.00849768 -0.050905675
000170 f8 3a ab 3d ba 51 18 3d 96 53 8d 3d 0a c0 16 bd
       0.08360857 0.037187316 0.069007084 -0.036804236
000180 31 e7 a3 bd b4 3b 3c bd 6e 10 19 3d d2 00 20 bd
       -0.08003081 -0.045955375 0.037369184 -0.039063282
000190 84 33 3b 3d b2 b0 ae bd 2a e2 9e 3c 98 c9 a8 bc
       0.045703426 -0.08529796 0.019394953 -0.02060394
0001a0 c0 ea 9b bd e7 b2 42 3d b6 2b 76 bc d8 b0 07 3d
       -0.076131344 0.047533896 -0.01502507 0.033127636
0001b0 31 71 b2 3d 5c 39 ba 3c b8 cd 0e bd 23 0c f9 bb
       0.08712996 0.02273243 -0.034864157 -0.0076003238
0001c0 e6 0a 2e 3d 16 25 61 3d 80 74 94 3c 44 a3 e4 3d
       0.042490862 0.05496701 0.018121958 0.11163953
0001d0 1a fb 98 bd 62 30 52 bd bb 62 a8 bd 6b a5 b3 bd
       -0.07469769 -0.051315673 -0.08221956 -0.08771785
0001e0 b0 ea e0 bc 2f df 47 bd 83 4a aa 3d d8 b0 3e 3c
       -0.027455658 -0.04879683 0.08314993 0.0116388425
0001f0 62 b2 58 3d b5 d5 62 bd 8a 11 a9 3d be 09 81 bd
       0.052904494 -0.05537959 0.082552984 -0.06300686
000200 b0 bd 67 bc f0 93 6d 3c b8 f4 50 bc 29 fb 8b bd
       -0.014144346 0.014500603 -0.012753658 -0.068350144
000210 d0 a1 7f bd fa 7e b3 3d 80 31 af bd 45 26 83 bc
       -0.062410176 0.08764453 -0.08554363 -0.01600946
000220 c8 fb 01 3c 08 62 fc 3c df 03 b0 3d e9 2c b0 3d
       0.0079335645 0.030808464 0.08594488 0.08602316
000230 fb f5 81 bd 6b 27 c5 3d ce 32 52 bd 1a 3b 61 3d
       -0.06345745 0.09626659 -0.051317982 0.054988004
000240 8c 33 14 3c 1d f5 b4 bc 48 15 61 3c 20 0e 89 bd
       0.009045493 -0.022089535 0.013737984 -0.06692147
000250 aa 3a 82 3c c0 8d 0f 3c a4 57 c0 3d cc 40 92 bd
       0.015897114 0.008761823 0.09391716 -0.07141265
000260 0e 4b 67 bd 9e 91 b4 bd 8d 80 84 3d 04 4a f8 3a
       -0.056468062 -0.08816837 0.064698316 0.0018942957
000270 f1 d9 48 bd 20 af c3 3b 4c ab 60 bd d6 ee 4b 3d
       -0.04903597 0.0059718043 -0.05485086 0.04978832
000280 7d 08 7b 3d 74 f9 41 3d c4 5c ea 3c c0 6b c8 ba
       0.061287392 0.047357038 0.028608687 -0.0015290901
000290 6b f7 2f bd d0 3e 22 3d 29 00 38 3d 8d 9f 83 3d
       -0.042960566 0.039610684 0.044922028 0.06426916
0002a0 00 5f 0d 3c e8 8d 79 bd 18 8a 6c 3c f1 1d b3 bd
       0.008628607 -0.060926348 0.014437221 -0.08745945
0002b0 60 7a 02 3d 3c a1 e5 3c e4 43 9b 3b a0 a6 f9 3c
       0.031854987 0.028030984 0.004738318 0.03047496
0002c0 08 18 25 bd ce bf e7 bc 71 e0 a8 3d 1e 6e 5a 3d
       -0.04030612 -0.028289702 0.08245934 0.053327672
0002d0 94 31 ab bc 88 c8 0f 3d 05 ad 5d bd d2 e3 d7 3c
       -0.020897664 0.03510335 -0.054120082 0.02635375
0002e0 ea 85 3f 3d d4 16 37 bd f4 ed 96 bc d0 da 9b 3d
       0.04675857 -0.044699505 -0.018424012 0.076100945
0002f0 50 6b f3 bc 5a bd 74 3d e6 25 8e bd 48 91 2b 3c
       -0.029714257 0.059750892 -0.06940822 0.0104716495
000300 88 c2 89 3c 92 a2 47 bb c9 0f 40 bd 48 c2 0a bd
       0.016816393 -0.003046189 -0.046890054 -0.033876687
000310 2d 75 a9 3d c4 d6 2b bd d0 28 8a bc f0 41 d6 bc
       0.08274303 -0.041952863 -0.016865164 -0.026154488
000320 e0 08 9a 3b 28 c6 53 bc db 0a 3c bd 82 20 5a 3d
       0.004700765 -0.012925662 -0.04590879 0.053253658
000330 02 34 92 bd e2 6c 04 3d 46 37 40 bd d0 e4 19 3c
       -0.07138826 0.0323304 -0.046927713 0.009392932
000340 90 d2 3e 3c 52 f8 68 3d 2a b3 40 3d ad 65 3c bd
       0.011646882 0.05687744 0.047045864 -0.045995403
000350 ac d1 7a bd dc 99 9f 3c 36 8c 49 3d 80 28 4d bd
       -0.061235115 0.019482546 0.04920598 -0.050087452
000360 40 98 11 3b 7c 4a 3e bd 39 5c aa bd bf 7c 61 3d
       0.0022215992 -0.046457753 -0.08318371 0.055050608
000370 c3 79 3e bd 52 83 92 bd 40 6d 4f 3b a3 3a 3b bd
       -0.04650284 -0.071539536 0.0031650811 -0.045710217
000380 b8 50 98 bd 69 27 67 bd 4e f0 54 3d af 4b 5d bd
       -0.07437271 -0.05643407 0.051986985 -0.054027256
000390 64 35 43 bd 7a cc 05 bc 41 95 72 bd 19 a3 8b bd
       -0.04765834 -0.008166427 -0.05922437 -0.06818218
0003a0 c6 f3 4c bd 26 d6 65 3d 6a 51 92 3d fa 33 7b 3d
       -0.050037168 0.05611243 0.07144435 0.061328866
0003b0 49 97 07 bd 24 14 8e bc a3 e4 46 bd c0 3f 07 bd
       -0.03310326 -0.017343588 -0.04855789 -0.03301978
0003c0 43 fb 42 bd cc d6 b3 bc 0b fb 95 bd 0f db 95 3d
       -0.047602903 -0.02195301 -0.07323273 0.07317173
0003d0 b5 8a c3 3d a7 60 87 3d 0b a9 44 bd 0c e1 2f bd
       0.09547941 0.06610232 -0.048012774 -0.04293923
0003e0 e2 df 19 bd 76 7e 0f bd 40 04 31 3d 34 eb 9a bd
       -0.037567027 -0.035032712 0.043216944 -0.07564393
0003f0 ee b0 b1 bd 30 37 8c 3c 13 17 a8 3d fb c0 9c 3d
       -0.08676325 0.01711616 0.08207526 0.076539956

decoder.lstm.weight_ih_l0 f4 [512, 5]
000000 e0 43 c8 bb dc 0b 19 bd e8 d3 38 bc ad 7a 71 bd
       -0.006111607 -0.037364826 -0.011280991 -0.058954883
000010 c0 a5 e8 3b 4e 43 a1 bd 7a b5 16 3d 87 75 d3 bc
       0.007099837 -0.078741655 0.036794163 -0.025812877
000020 3a c7 85 bd c9 2f 83 3d 96 40 81 bc 3a 91 39 bd
       -0.0653214 0.06405599 -0.015777867 -0.045304514
000030 08 0c 75 3d 7a 33 59 3d 20 d4 17 3c be b6 8f 3b
       0.059825927 0.053027608 0.009266883 0.0043857982
000040 7a ab f9 bc 88 38 cb bc 82 fc cd bb b0 c2 c0 bb
       -0.030477274 -0.02480723 -0.006286205 -0.0058825836
000050 ba 24 f1 bb 5c 45 77 3d c8 9b 16 3d ac 16 3b 3b
       -0.0073591145 0.06036888 0.03676966 0.002854745
000060 3a 76 ee bc 86 af 34 3d 6e 17 68 3d e4 7e bb bc
       -0.02910911 0.044112705 0.05666297 -0.022887655
000070 d7 e0 a2 3d c7 35 10 bd 66 92 21 3c 28 75 af 3c
       0.07953041 -0.035207536 0.009861564 0.02141817
000080 4b 50 83 3d 16 2b c6 bc 92 79 54 bd c4 3f cd bc
       0.06411799 -0.024190467 -0.05187375 -0.02505482
000090 91 fd 5d 3d 6f 65 19 3d 53 76 09 bd 1a fd 34 3d
       0.054196898 0.03745025 -0.03356011 0.04418669
0000a0 64 19 c5 bc 3b b8 aa 3d 2a 6f 2b 3d 3f 51 01 bd
       -0.024059959 0.083359204 0.04185406 -0.031571623
0000b0 50 68 97 bb 52 a4 a1 bd cf a1 95 3d 1a a5 56 3d
       -0.0046205893 -0.0789267 0.07306253 0.052403547
0000c0 70 8b d1 bc 9d f5 1d bd ba 2b 4d bd 80 b1 1c bc
       -0.025579184 -0.038564313 -0.05009053 -0.009563804
0000d0 c2 28 2c 3d 55 e9 40 bd c0 b4 51 bb 8a 93 18 bc
       0.042031057 -0.047097523 -0.0031998605 -0.00931252
0000e0 b6 1d 0e 3d 2e ac 22 bd 6c 3d 9f bd 0a e1 8b bd
       0.034696303 -0.039714985 -0.07775387 -0.06830032
0000f0 75 d4 08 bd 41 95 42 bd 30 24 b3 3c 1d ca 9a bd
       -0.03340574 -0.04750562 0.021867841 -0.07558081
000100 f9 ed 07 bd 9a ec 7a bc ff 4f a5 bc 2c 7a 39 bd
       -0.033185933 -0.015315199 -0.020179747 -0.045282528
000110 a6 d2 6b bd d0 06 21 3c 2b fe ae 3d ee 97 9c 3c
       -0.057573937 0.009828284 0.085445724 0.019115414
000120 19 64 b3 3d 5b f6 8d 3d cf 9e 90 3d 42 c2 c4 3c
       0.087593265 0.06931754 0.0706154 0.02401841
000130 92 41 3a bc e4 0b 6f bd 78 ef 9a bd 78 f7 96 bc
       -0.011368172 -0.05836095 -0.07565206 -0.01842855
000140 fc 30 47 bd a5 69 b9 bc 94 69 30 bd ac 3b 26 bd
       -0.0486307 -0.022633383 -0.043069437 -0.04058425
000150 b5 41 91 3d 85 15 49 bd ab 38 12 bd 35 c8 c8 3d
       0.07092611 -0.04909279 -0.035698574 0.098038115
000160 2b cf 46 3d 2a a5 46 bd 6e a8 a2 bb 34 b6 89 3d
       0.048537415 -0.048497356 -0.004963926 0.067242056
000170 44 39 ba 3d f4 46 c8 bc 20 05 fd bc 0a f3 17 3b
       0.09092954 -0.024447896 -0.030886233 0.0023185634
000180 8f 66 83 3d a2 9e 57 3d 05 64 6b 3c 90 89 c1 3b
       0.06416046 0.05264152 0.014367108 0.0059062913
000190 6c fb 92 3d 02 22 c9 bc 81 31 98 3b b2 4f 1e bc
       0.07176861 -0.024552349 0.004644573 -0.0096625555
0001a0 68 fc 4d bc 92 d2 5e bc a0 40 0f 3d 64 02 3f 3c
       -0.012572385 -0.013600009 0.03497374 0.011658285
0001b0 1c ae b6 3d 4e 69 65 3d 2a 06 0f 3d 36 74 aa 3d
       0.089199275 0.05600863 0.034917988 0.08322947
0001c0 90 72 2d bc 90 6c c7 3b 3e eb 80 bd f2 16 0a bd
       -0.010586396 0.0060859397 -0.06294869 -0.03371329
0001d0 72 32 12 bd da ea 28 bd 7a fa f2 bb a8 60 71 bc
       -0.03569264 -0.041239597 -0.007415113 -0.014732517
0001e0 6a 24 0c bd 72 2b 68 3d f8 2a 04 3d ac db 19 3d
       -0.034214415 0.056682058 0.03226754 0.03756301
0001f0 68 cf 89 bd b6 2b eb bd bf 60 d3 3c 53 ad fd 3c
       -0.06729013 -0.114829466 0.025802968 0.030966436
000200 ef b1 31 bd d1 69 88 3d f8 6b d3 3c 18 b9 a0 bd
       -0.04338258 0.06660808 0.02580832 -0.07847804
000210 0e ee 66 bc 1c 48 a4 3c e5 49 81 3d e4 44 e2 b9
       -0.014094843 0.020053916 0.063129224 -0.00043157407
000220 fe ec 0b bc 13 dc 5a bd 71 f7 bc 3c be f3 72 bd
       -0.00854039 -0.053432535 0.023067208 -0.059314482
000230 04 cb 82 bc 10 75 c0 bc f4 d0 0d 3d 50 e7 37 bd
       -0.015965946 -0.02349332 0.0346231 -0.04489833
000240 b9 c4 87 3d 51 80 2b bd 7d cb b2 3d 05 be 88 3d
       0.06629319 -0.04187042 0.087302186 0.06676868
000250 00 07 51 3b 0d b4 08 bd 7e fe 14 3c fa 47 38 bd
       0.0031895041 -0.033374835 0.009093879 -0.044990517
000260 34 ae 37 bc cc 22 a0 3d 5b df 9f 3d f0 51 ae bd
       -0.011210967 0.07819137 0.078062735 -0.08511722
000270 96 50 98 bd cc 32 f5 3c d7 4f 15 bd f9 fe 82 3d
       -0.074372455 0.029931448 -0.036453094 0.063962884
000280 12 70 2d bd 38 9d bb 3c 7d 52 b9 3a 10 71 95 3d
       -0.042343207 0.022902116 0.0014138963 0.072969556
000290 f0 c4 23 3c 7a 99 94 bd e0 23 3a 3c 0a e6 77 bd
       0.009995684 -0.07255836 0.011361092 -0.060522117
0002a0 6c 3b 8a bc f8 3f 75 3c 6f b7 a2 bd 66 29 70 bd
       -0.016874038 0.014968865 -0.079451434 -0.05863323
0002b0 dc 4d fb bc 95 43 8f 3d 7f 8e b2 3d 44 3e 83 3d
       -0.030676775 0.06995312 0.08718585 0.064083606
0002c0 b2 b4 01 3d 04 48 11 bc a6 7f 36 3d a8 d9 3f bc
       0.031666465 -0.0088672675 0.04455533 -0.011709608
0002d0 b2 85 0b 3d e0 c2 1d bd ec 7d b4 3d c4 40 35 3d
       0.03406305 -0.038515925 0.0881308 0.04425122
0002e0 26 8d 7f 3d 8d 55 37 bd 4a 34 dd 3d 51 05 e9 bc
       0.06239047 -0.044759322 0.10800989 -0.028444918
0002f0 26 d3 c3 3d 43 9c 6b bd e2 5a 84 3d dd 4a 2e bc
       0.09561758 -0.05752207 0.06462647 -0.010637966
000300 f2 99 7e 3d 6c c1 94 3d c8 4d 7f bd 24 63 57 bd
       0.062158532 0.07263455 -0.062330037 -0.052584782
000310 d8 10 18 3d 70 93 90 bc d4 39 65 bd 61 77 ae 3d
       0.03712544 -0.017648429 -0.055963352 0.085188635
000320 fe f4 5e bd cb e8 d1 bd 00 7c 70 bc dc df 69 3d
       -0.05443286 -0.1024948 -0.014678001 0.057098255
000330 6e 64 70 3d ca 5e 63 bd 68 0a 47 3c ee 32 96 3d
       0.058689527 -0.05551032 0.012148477 0.07333933
000340 d4 4e 08 3d 6a 80 01 3d 94 1e 05 bd 41 42 8e bd
       0.0332783 0.031616606 -0.032499865 -0.06946231
000350 59 57 b1 bd ad 2c 8e bd 60 c7 9a 3b 17 2f 9b 3d
       -0.08659238 -0.06942115 0.0047234744 0.07577341
000360 70 3b a9 3c a6 5c 52 3d 4c 8b ef 3c 74 cb 88 bd
       0.020658225 0.051357888 0.029241227 -0.066794306
000370 dc 28 01 bd 75 d3 9e 3d 4c ca 31 3d a7 ce 20 bc
       -0.031533107 0.07755176 0.043405816 -0.009814895
000380 b8 36 67 bc f2 80 1c bd f8 24 4e 3c d4 22 9d 3d
       -0.014112167 -0.03820891 0.012582056 0.076726586
000390 f3 79 a7 3c 52 8d 94 bd 95 75 88 3d 3b a6 ce 3c
       0.020443892 -0.07253517 0.06663052 0.02522575
0003a0 c9 a4 48 3c 87 28 f3 3c 62 24 77 3d dc b8 bc bc
       0.012246319 0.02968241 0.06033743 -0.023037367
0003b0 4e a2 82 3d dc ef 0f 3d 2e 22 a7 3d df 05 ab 3d
       0.063786134 0.035140857 0.08160816 0.08350729
0003c0 b4 50 46 bd df 50 b1 bd ff b3 9c bd a4 60 d2 3c
       -0.04841681 -0.08658003 -0.07651519 0.025680847
0003d0 98 84 01 3d ad 25 b2 3d a8 31 f0 3c 46 22 35 3d
       0.031620592 0.08698592 0.029320553 0.04422214
0003e0 4b 74 97 3d 75 fc 8e 3d 2e 41 02 3c 28 42 d5 3c
       0.07395228 0.06981746 0.00795011 0.026032522
0003f0 6c cf 84 3d c2 10 24 3d f4 9e a3 3c 12 a1 f9 3b
       0.06484875 0.040055044 0.019973256 0.007618078

decoder.lstm.weight_hh_l0 f4 [512, 128]
000000 00 2a f2 bb 3c 3d 6f bd ea 08 66 bd 16 07 91 bd
       -0.0073902607 -0.058408007 -0.056160845 -0.0708143
000010 d1 35 99 bd 21 70 a1 3d 34 e2 cf 3c 37 e0 8b 3d
       -0.07480968 0.07882715 0.025376417 0.06829875
000020 82 82 48 3d e8 6b 51 3c 48 11 08 bc f9 8a a1 bd
       0.048952587 0.0127820745 -0.008304901 -0.07887835
000030 d0 85 32 bd d3 bb 55 bd 54 83 de 3c 56 a9 10 3d
       -0.043584645 -0.052181076 0.027162232 0.03531774
000040 58 9f d9 3c 41 bd 17 bd a6 f0 3b bd f8 4b f5 3c
       0.026565239 -0.03704572 -0.045883797 0.029943451
000050 47 01 85 3d 65 40 36 bd ce 98 18 3d 4c 22 c1 3c
       0.06494384 -0.044495005 0.0372551 0.023575924
000060 1c fe b3 bd a0 87 a4 bb 31 92 9f 3d 09 95 84 bd
       -0.08788702 -0.0050210506 0.07791556 -0.06473739
000070 d6 9b 75 3d 18 2b ac bd 21 cf 94 3d 32 99 3a 3d
       0.05996307 -0.08406657 0.07266069 0.045556255
000080 0e e3 50 3d 6b d9 12 bd c7 16 9f 3d 6c 61 c8 3c
       0.050997786 -0.035851877 0.07768016 0.024460517
000090 53 61 a1 3d df fc 87 3d 6a 4e 3a 3d cb 20 b2 3d
       0.07879891 0.06640028 0.045484938 0.08697661
0000a0 f0 c3 4f 3c 17 5c 8d bd 18 ae aa bc f1 81 8e 3d
       0.0126809925 -0.0690233 -0.020834967 0.06958378
0000b0 3e ea dc bc c0 f2 a7 bc d0 ea d0 bc 0a 3f 0c 3d
       -0.026967164 -0.020501494 -0.025502592 0.034239806
0000c0 92 14 98 bd b5 67 0e bd c4 35 b7 bc 24 a7 82 bd
       -0.074257985 -0.03476687 -0.022364505 -0.06379536
0000d0 d8 a5 97 bc 1c 51 cc bc ab 67 ae 3d f7 4b 84 3d
       -0.018511698 -0.02494102 0.08515867 0.06459802
0000e0 09 b7 af bd 41 c9 25 bd 4e 98 82 bd ad d7 9c bd
       -0.08579833 -0.040475134 -0.06376706 -0.076583244
0000f0 94 e7 a9 3c b4 ed ca bc 3c 60 86 bc 90 37 0b 3c
       0.020740308 -0.024771549 -0.01640331 0.008497134
000100 ac 8a 2e bd fe e7 8b bd b9 1c 81 3d 27 f6 86 3d
       -0.042612717 -0.068313584 0.063043065 0.065899186
000110 80 ee 94 ba d6 c4 a7 bd b8 b1 a1 bc e0 dd 5d bc
       -0.0011362582 -0.0819184 -0.019738063 -0.013541669
000120 88 8b e5 3c 14 97 94 bc 1a aa 49 3d 7b 77 a7 bd
       0.028020635 -0.018138446 0.049234487 -0.08177086
000130 8c be ac 3c 61 ce 85 bd cc db 85 bd 90 1a ad 3c
       0.021086954 -0.06533504 -0.065360636 0.02113083
000140 e0 6b a4 bd 88 54 9c bd c7 47 81 3d 64 3e 9e bc
       -0.08028388 -0.076333106 0.063125186 -0.01931686
000150 2f 74 98 bd 86 22 ee bc 40 22 25 3c a8 f8 2b bc
       -0.07444035 -0.029069196 0.010078967 -0.010496296
000160 be 2b 43 3d 00 52 0d 3c 3d 0b 52 bd 00 5c 30 b9
       0.047649138 0.008625507 -0.05128025 -0.0001681894
000170 1e 78 92 bd a8 c8 28 3c f0 da 20 bd 86 1b 67 bd
       -0.07151817 0.010301746 -0.039271295 -0.056422733
000180 44 1e 00 3d 1a 13 86 bd 00 78 32 39 ee 5a 4e bd
       0.031278864 -0.06546612 0.00017020106 -0.050379686
000190 90 fd 37 3c 5f fc 63 bd 94 60 a2 3c e0 78 8b 3c
       0.011229888 -0.0556606 0.019821443 0.017025411
0001a0 78 85 06 bc 63 7a 9a 3d 60 8a 94 3b 59 ca 32 bd
       -0.008210532 0.07542875 0.004533097 -0.043650005
0001b0 45 cc 91 3d 08 17 54 bc 60 5b 19 bc 2c e7 b3 bd
       0.071190394 -0.012944944 -0.009360164 -0.08784327
0001c0 15 fe 9f bd 21 79 b4 bd 72 6e eb bc 60 69 a5 bd
       -0.07812134 -0.08812166 -0.028739188 -0.08076739
0001d0 d0 7a f4 bc e0 93 d8 bb 00 49 74 ba ae ee 77 3d
       -0.029843718 -0.006609425 -0.0009318739 0.060530357
0001e0 98 a1 80 bd 1e af 34 3d 7c c6 a8 bc 3a ee 6c 3d
       -0.062808216 0.044112317 -0.020602457 0.057844378
0001f0 be de 97 bd ae d5 b3 bd 31 32 af 3d 20 9e 20 bd
       -0.074155316 -0.087809905 0.08554495 -0.0392133
000200 0e 87 b3 bd 48 72 fe 3c 34 1b 8b bc c4 45 f7 3c
       -0.08765994 0.031060353 -0.016980745 0.030184634
000210 26 02 96 bd aa 63 a1 bd 71 b3 b0 3d bc 03 5f 3c
       -0.073246285 -0.078803375 0.08627976 0.01361173
000220 9c ab 00 3d 20 72 dd 3c 74 4e 80 3d b0 a8 05 bc
       0.03141366 0.027031958 0.06264964 -0.008157894
000230 29 34 a3 3d 09 80 a1 bd e0 f2 9e bb a2 24 1c 3d
       0.07968933 -0.07885749 -0.0048507303 0.038120873
000240 78 c4 a9 3d a2 6f f5 3c 50 fa 90 bd 08 cc 59 bc
       0.082894266 0.029960457 -0.07078993 -0.013293274
000250 df 91 b4 3d e8 3b 2c bd ea 1c 82 3d 9d 12 ab 3d
       0.08816885 -0.04204932 0.06353171 0.083531596
000260 e4 cd 0f bd 86 e8 30 3d 18 af 90 bc e0 52 cb 3c
       -0.035108462 0.0431905 -0.017661616 0.024819791
000270 41 b7 ab bd 90 0b 03 3d e9 e5 33 3b 72 76 45 bd
       -0.08384562 0.03199345 0.002745027 -0.04820866
000280 42 59 1b 3d 02 dc 86 bd de 46 1b bd c5 63 04 bd
       0.03792692 -0.06584932 -0.03790938 -0.03232171
000290 28 19 47 bd 1a 5c 27 3d 5b e5 9b 3d 5c 30 00 3d
       -0.048607975 0.04085932 0.076121055 0.03129612
0002a0 ba 78 d1 3c 72 9c 8e bd d4 89 6b bd 9a 0e 70 bd
       0.025570262 -0.06963433 -0.05750449 -0.058607675
0002b0 c3 cc 70 bd 2c 76 b5 bc 5a 54 8a bd 4f d0 50 bd
       -0.058789026 -0.022151075 -0.0675437 -0.05097991
0002c0 64 33 a9 bd f6 4d 86 bd a6 47 39 bd de 2a 98 bd
       -0.08261755 -0.065578386 -0.045234345 -0.07430051
0002d0 04 4c 63 3d 8c 40 a7 3b e4 fc 35 3d d6 7e b4 3d
       0.055492416 0.00510413 0.04443063 0.088132545
0002e0 42 94 a9 bd 62 bb ed bc 32 97 4f bd 32 74 67 3d
       -0.08280231 -0.029020015 -0.0506813 0.056507297
0002f0 da 61 6e bd fe 68 03 bd 9c 7d 87 bd 50 56 4c bd
       -0.058198787 -0.03208255 -0.06615755 -0.049887
000300 2c 42 0f 3d e7 f3 84 3d 20 27 24 bc 00 47 ef b9
       0.034975216 0.06491833 -0.010019094 -0.0004563853
000310 68 1c b7 3c 5e 40 4d 3d 08 a9 92 bd 04 9d 6d bd
       0.022352412 0.050110213 -0.071611464 -0.05801107
000320 e4 99 98 bd cb 4f 9b 3d 2f 6f 06 bd 61 07 88 bd
       -0.07451227 0.07583579 -0.032820877 -0.066420324
000330 78 a6 1c 3d de 69 23 3d 56 ee b1 bd 40 6a 4b bd
       0.038244694 0.039895885 -0.08688037 -0.049661875
000340 34 ea 07 3d 5e 44 1a 3d c8 a8 c9 3c f9 bf 91 3d
       0.033182338 0.037662856 0.024616614 0.07116694
000350 f2 7c 9c 3d c1 5b b4 3d 88 22 3e bc d5 0d a7 3d
       0.07641019 0.08806563 -0.011604913 0.08156935
000360 00 36 66 39 16 b1 3d bd 7e 84 a6 bd c2 2f 32 3d
       0.00021954626 -0.04631146 -0.0813074 0.043502577
000370 c6 4e 38 3c a8 32 95 3c 78 e5 94 bc e0 83 6d bb
       0.01124925 0.018212631 -0.018175825 -0.0036241934
000380 38 43 90 bd d4 f8 46 3d c3 fa ac 3d 8c ff b6 3c
       -0.07044071 0.048577145 0.084462665 0.022338651
000390 e7 c9 a9 3d 90 4a 8d bb 80 27 e0 bb 1b d4 4e bb
       0.08290463 -0.004311867 -0.0068406463 -0.003155953
0003a0 fc 5a d4 3c b2 52 47 bc ee c1 b5 bc f8 23 8d bd
       0.025922291 -0.012165712 -0.0221872 -0.06891626
0003b0 3c 7c 25 3d 40 11 d4 3c 36 6f 5f bd 9e 96 84 3d
       0.040401682 0.025887132 -0.05454942 0.064740404
0003c0 66 e9 0d bd 60 6e ca 3c 7a b9 a5 bd 18 31 9f 3d
       -0.034646414 0.024710834 -0.080920175 0.07773036
0003d0 85 06 4c bd d2 6c dc 3c d1 14 39 bd 86 b2 84 bd
       -0.049810905 0.026907358 -0.045185868 -0.06479363
0003e0 1c 30 19 bd 85 39 63 bd 06 4b 08 3d 67 d9 13 bd
       -0.037399396 -0.055474777 0.033274673 -0.036096003
0003f0 22 6e 68 bd d4 58 84 3d 80 5c 61 bd 63 d5 e8 3b
       -0.056745656 0.06462255 -0.055019855 0.007105516

decoder.lstm.bias_ih_l0 f4 [512]
000000 6e e4 1e 3d 04 47 90 3d d7 a6 54 3c ec d4 a4 bc
       0.038792066 0.07044795 0.012979231 -0.02012106
000010 42 7f c9 bc 80 68 8b ba 7a ba ef 3c 78 85 da bc
       -0.024596814 -0.0010636002 0.029263724 -0.026674971
000020 c0 8b 79 bc 46 48 5d 3d 90 0c c8 bc 28 a2 d0 3c
       -0.015231073 0.054024003 -0.024420053 0.025467947
000030 eb a6 16 bd f4 aa 48 bd ac 7e 1e 3e b6 78 a2 bc
       -0.03678028 -0.04899116 0.15478009 -0.01983295
000040 c0 06 f7 bc 64 f8 cf 3d 14 0f 74 3d 26 82 0d 39
       -0.030154586 0.101547986 0.059584692 0.00013495292
000050 ca 35 2d 3d cc 8d 1c 3d 28 cf 9a 3d 62 f7 76 bd
       0.042287625 0.038221166 0.07559043 -0.060294516
000060 c8 b3 3e 3d d6 c3 75 bd 9a e0 24 3d 2c 85 ec 3c
       0.04655817 -0.060001217 0.04025326 0.028872095
000070 b8 0e ad bd c2 9a ad bd 24 3c 93 3d 58 2a 25 3c
       -0.08450073 -0.08476783 0.07189205 0.010080896
000080 1a bc 90 3d 78 d5 1e bd 4c a0 a0 bd 84 67 3f bd
       0.070671275 -0.0387778 -0.07843074 -0.04672958
000090 e6 5f 35 3c 34 a3 ba 3d 07 10 06 3e 02 56 e9 bc
       0.011070227 0.0911316 0.13092051 -0.028483395
0000a0 76 0d 4c bd fa 36 26 bd 01 59 ab bd 90 25 0a bc
       -0.049817525 -0.040579773 -0.083665855 -0.008431807
0000b0 76 0e b9 3d 94 0b b9 3d f9 86 d6 bc eb 1d a0 bd
       0.09035961 0.090354115 -0.026187407 -0.078182064
0000c0 80 38 6e bc 76 58 66 3d 77 3c 32 bd 4b 40 e2 3c
       -0.014539838 0.056236707 -0.043514695 0.027618548
0000d0 5f 12 07 bd 32 a0 ff 3c 9c 9f 14 3d 76 01 17 bd
       -0.032976504 0.031204317 0.036285028 -0.036866628
0000e0 da 8b 9a bd 65 1a 83 bd 68 08 5c 3d f8 88 06 3c
       -0.07546206 -0.06401519 0.053718954 0.008211367
0000f0 b8 f4 16 ba e4 81 0f 3d 27 95 c9 bd 1a 4c 92 3d
       -0.0005758512 0.035035983 -0.09842902 0.071434215
000100 a0 2e 99 3d 50 5b 86 bd 3e be 5e 3d 3e 28 65 3d
       0.07479596 -0.06560385 0.054380648 0.05594658
000110 ed c6 7c 3d 01 fa 52 3d e8 3a 79 bc 3a 1e 1e bd
       0.061713148 0.051507954 -0.015211798 -0.038603045
000120 c0 14 50 bc f2 33 a4 bd 02 d0 59 bd 7c cf 5c bd
       -0.01270026 -0.0801772 -0.053176887 -0.05390881
000130 23 cf 16 bd ea ee 3c 3d 19 07 4a bd 5c 59 ea ba
       -0.036818635 0.046126284 -0.049323175 -0.0017879414
000140 60 8c 84 3d 2a 8d 55 bd 00 d0 7d 3b be ab 75 3d
       0.06472087 -0.052136578 0.0038728714 0.05997824
000150 24 c2 dc bb 22 20 0c 3d cc d0 29 3d 5e e1 70 bd
       -0.0067370106 0.03421033 0.04145889 -0.058808677
000160 dc 30 2a bd 90 73 a4 3c 18 56 09 bd 14 14 9d bc
       -0.041550502 0.020074636 -0.03352937 -0.019174613
000170 32 cb 6c bc 7a 5d 89 3d df b1 b7 3d d5 8a ce bb
       -0.014452742 0.06707282 0.08969473 -0.006303171
000180 b2 14 62 3d bb 51 81 3d 8f ed a3 3d b3 57 9c 3d
       0.055195518 0.06314417 0.08004295 0.07633915
000190 d1 45 d4 bc 34 1d 4f bd 4d 7a b4 3d bc 24 63 bc
       -0.025912197 -0.05056496 0.088123895 -0.013863739
0001a0 54 cf 92 bc d6 72 b7 bb 70 a6 39 bd ee 99 b1 3d
       -0.017921127 -0.0055984063 -0.045324743 0.08671938
0001b0 16 df 4a 3d 57 9f a6 3d b1 99 a3 bd 2e 87 ac bd
       0.049529158 0.081358604 -0.07988299 -0.08424221
0001c0 b0 42 71 3c e4 66 c7 3b 2c ad 8f 3c b8 58 76 3d
       0.014725372 0.0060852636 0.01753863 0.060143203
0001d0 71 93 9f 3d 96 cb 3f 3d 44 31 ba 3c 47 91 d1 bb
       0.07791794 0.046825014 0.02272857 -0.0063954922
0001e0 40 c1 d9 bc a0 17 ac 3b b6 b6 8c 3d 6d 8b 8c 3c
       -0.026581407 0.0052518398 0.06870787 0.017156327
0001f0 e3 62 41 bd f0 6a ef 3b f6 62 58 3d d8 f9 2b bc
       -0.047213446 0.007306449 0.05282875 -0.010496579
000200 2d 21 8e 3d eb fe 0a bd 80 3d 5c bd 60 85 26 bc
       0.069399215 -0.033934515 -0.05376959 -0.010163635
000210 82 2c b9 3c 57 4f 32 bd 6a aa 47 bd ef 22 87 bd
       0.02260423 -0.043532696 -0.048746504 -0.0659846
000220 32 aa 70 3d d8 29 ff 3c c9 78 a1 3d 00 82 3b 3a
       0.05875606 0.031147882 0.07884366 0.00071528554
000230 c0 e1 d1 3b ae 40 5b bd 24 57 03 3e 3f 98 a9 3d
       0.0064050853 -0.05352848 0.1282621 0.08280992
000240 a8 81 a0 3d 06 1e 13 bd 56 f1 c4 3d aa b3 40 3d
       0.0783723 -0.035917304 0.09616344 0.04704634
000250 8c 4d 17 bd c6 9d 55 3c 12 96 d3 3d 2a 29 9b bc
       -0.03693919 0.013038104 0.10331358 -0.018940527
000260 1f a1 8c 3d d4 35 67 3d 38 51 5e bc 36 e4 7c 3d
       0.06866669 0.05644782 -0.013569169 0.061741076
000270 40 a1 a2 bd 92 19 46 3d 8f 46 35 bc 61 f9 61 bd
       -0.07940912 0.04836423 -0.011064186 -0.055169467
000280 7f 3d 40 3d 02 e3 ee bb 80 81 f2 ba 0a 29 63 3d
       0.046933647 -0.007290245 -0.0018501729 0.05545906
000290 9e a8 91 bd e6 9e 85 bb bd d0 05 bb 7c 64 d9 3c
       -0.07112239 -0.00407778 -0.0020418607 0.026537172
0002a0 4a ad cd 3d aa dc a6 3d 6c 6e 14 bd d8 f6 78 bd
       0.10042818 0.08147557 -0.03623812 -0.060782284
0002b0 4a 85 75 3d 1c c4 64 bc aa 58 2f 3d 29 2d a9 3d
       0.059941567 -0.013962772 0.042809166 0.08260567
0002c0 21 fa c0 3b e4 22 16 3b 14 7e 81 bd 22 69 f9 bc
       0.0058891927 0.002290898 -0.063228756 -0.030445639
0002d0 90 5a cc bb ea 50 a3 bc 2e 9b e5 bc 63 52 c0 3d
       -0.006236382 -0.019936044 -0.028028097 0.09390714
0002e0 80 68 28 3d f6 ff 6b bd 20 f2 8c bb 7a 93 37 3d
       0.041115284 -0.05761715 -0.0043013245 0.04481838
0002f0 50 66 f3 3c b1 9a f8 bc 52 b9 a6 3c 12 38 db 3b
       0.029711872 -0.0303472 0.02035204 0.0066900337
000300 e8 6c b8 3c 64 ac 3c 3d e8 87 74 bd ae 65 18 3b
       0.022512868 0.046062842 -0.059699923 0.0023253965
000310 da e6 8a bd 29 f0 cf 3a 8e 9d a1 3d 87 8d 87 3d
       -0.06782313 0.001586442 0.07891379 0.06618791
000320 ac c2 e4 3c 4f 7d 68 3c c0 bc 58 bb 0c bd 8f 3c
       0.027924858 0.014190032 -0.0033071488 0.0175462
000330 b2 65 c5 bc 56 3d 9b 3d 84 6b c1 bc 8f 70 b0 3d
       -0.024096344 0.07580058 -0.023610838 0.08615219
000340 2c 6d e6 3c 6c 58 b7 bc 74 59 b5 3c 0b 43 5d bd
       0.02812823 -0.02238103 0.022137381 -0.054019015
000350 59 af 91 bd 70 32 33 bd a8 b4 02 bd 7c 41 5b 3c
       -0.07113523 -0.043749273 -0.03191057 0.013382312
000360 26 8a 81 bd 74 10 38 bd 80 0b 86 3d 16 20 81 3d
       -0.06325178 -0.044937566 0.06545162 0.06304948
000370 46 50 df 3d de 7f 0c 3d 89 8e b0 3d 81 a2 90 bb
       0.10903983 0.03430163 0.086209364 -0.004413903
000380 70 c8 1e 3c 8b b4 6c bd 0e dd 75 bd c8 f4 a8 bc
       0.009691343 -0.057789367 -0.060025267 -0.020624533
000390 fc f5 31 bc 4e 96 29 3d b4 de 75 bd a9 ff 8b 3d
       -0.01086187 0.041403107 -0.06002684 0.06835873
0003a0 2b 7f 05 bc 9f f7 a4 bc b4 e5 87 bc 97 20 66 bd
       -0.008147995 -0.020137606 -0.016589023 -0.056183424
0003b0 60 37 4f 3c 32 f1 3b 3d ec eb 08 3d af 3e d7 bd
       0.01264748 0.04588432 0.033428118 -0.10510003
0003c0 66 5f 9f 3d 22 4a 1e 3d 7c f8 2a bd 68 12 ad bd
       0.07781868 0.038644917 -0.04174088 -0.08450776
0003d0 c0 89 6f bc 16 b5 5e 3d 38 29 2d 3c a9 65 9a 3c
       -0.0146202445 0.054371916 0.010568909 0.018847303
0003e0 c7 71 8d bd 87 48 84 3d 52 02 82 bd 3c c3 6b 3d
       -0.06906467 0.06459146 -0.06348099 0.057559237
0003f0 ba 0a 8e bc 87 fd af 3d e7 e8 bb 3c e0 42 a3 3c
       -0.0173391 0.085932784 0.022938205 0.01992935
