model_epoch_500.pt (torch, 559464 bytes, 10 tensors)

encoder.lstm.weight_ih_l0 f4 [512, 5]
00000000: 67ca 17bc 77c1 fa3c cb02 f43b f549 153d
00000010: 5426 ab3c 406c b5bb 6024 eebb f065 753c
00000020: c0e4 ecbc 3a63 573d 8aa6 053e 525f c4bc
00000030: 9c6d 19bc 8d77 38bb 1d9a 86bd 3c29 91bc
00000040: c0de 933d 1801 6f3d deb7 16bd ee4a b1bd
00000050: a3e9 043c b14c ba3c e2ff afbd 5df7 d039
00000060: f0c6 d33c 6e34 1c3d eea0 743d f1e0 a53d
00000070: 00aa fbba dcfb 93bd 4fe1 1a3c a62c c6bb
00000080: f5b0 d93d 39f3 e1bc b2c1 7abd 275d 523d
00000090: 9722 4ebd 832a 51bc 3599 9d3d 0042 923b
000000a0: d323 a33d c75c 113c cf9e 20bd a572 8f3c
000000b0: cd6b 1cbd 58c6 1ebd ca32 b03d 062c 9e3d
000000c0: 8c04 6a3b 3e2a 56bd d6f3 0b3c ece7 783c
000000d0: a016 3b3d 2420 823d e811 81bc 2019 eb3c
000000e0: 782f 9b3c 1916 903d 3067 b13c 55d7 9b3d
000000f0: 62c2 503d bf7d 7abc 11b1 cdbb 2b55 693c
00000100: a7df a43d 7e3d 3a3d 01a0 8b3d 9cee 10bd
00000110: e7b8 9c3d a0f4 b23c 922f 89bc bd50 2e3d
00000120: 9891 cebc 5f15 373d d6b4 353d 0580 95bd
00000130: 30e6 d73c 4b7c 973d 7a51 683d 0867 06bd
00000140: a8fd 653d f6e4 c839 3cef 913d b8b2 19bd
00000150: 9074 6d3c 7053 773d 383d 77bd 68f5 683d
00000160: 189b 3f3d c661 2a3d 78fb f3bc 584b 37bd
00000170: d878 953c ba41 d53d 0f2b acbd 2da8 b03d
00000180: b423 c6bc 31bb 88bd 8b16 d33d 4efd 703d
00000190: f87f a1bd 98cd 61bd e829 723d da8c 9c3a
000001a0: 16f2 473d 6f5b b03d 3a19 423d 82bc 1ebd
000001b0: 6803 093d db27 6bbd 755f a83d c259 d7bc
000001c0: 49b0 953d 0e47 783d aa70 a7bd 7d3f a93d
000001d0: 37cd 413d 8705 41bd df30 573d 2377 9a3d
000001e0: a57f c73d 9e96 35bb b9d3 b63d 2098 4ebd
000001f0: 58c5 58bc b831 b9bd ac09 3d3d 2a15 b5bd
00000200: 2487 0b3d d027 e4bc 9e37 973d f2a4 353d
00000210: 798e 003b 5d04 3bbc c086 61bd 833e 4abd
00000220: 5ced 9ebd aef7 92bd c809 67bc 5001 803c
00000230: 76c4 f0bc 4080 acba 0215 a0bd ffa1 b43d
00000240: b2de 043d 1c68 f6bc a627 b93c 7c1d 9e3d
00000250: ec44 833d d800 57bc ad34 9dbd 8c5a 573d
00000260: 9822 a93c a75a b53d 7b3a 883d 3a98 d33d
00000270: 8859 bebc 14e4 a83d 89c1 39bd ac3e 8b3c
00000280: 4257 8e3a 5069 52bd 52d6 8c3d ec71 423d
00000290: b2ec 63bd 0fdb 203d 5939 c43c 27e8 903d
000002a0: 5d8b 23bd fc0e 93bd b8a2 a5bc 98d7 64bd
000002b0: c618 2c3d 225c b73d f805 8ebc c7ee 8fbd
000002c0: 95a8 48bd 62fb 253c 136e 833d abac 06bd
000002d0: f7d7 ab3d a0e1 88bc 6ed0 81bc 277b 483c
000002e0: e396 933d 92f9 aa3d be7a c53c ea9d 14bc
000002f0: 3e0e 143d 83cc afbd 8307 8d3d f2f5 fa3c
00000300: 2c35 afbc 8375 6cbd c800 68bc 145d 953c
00000310: 8cd8 f53c 92d7 203d 687a 083d 60bf 90bc
00000320: bec9 b03d a618 4f3d d6f6 3e3d 601e 57bd
00000330: 307e 49bc 2ee8 42bd bafb 8ebd e20c 53bd
00000340: 7077 72bd 92c4 773d 2351 aebd 6335 bcbc
00000350: 7d22 9abb 53c6 85bd 30bc 20bc 8279 a6bd
00000360: b8ac c5bc 02d9 36bd b11d 943d 0030 743b
00000370: ae90 893c 62f7 d0bc 5a1c e83c 3eb7 d13c
00000380: d40f aabd c834 8a3d a6d6 90bd 1184 d0bc
00000390: f87c 253d 65bf ab3d ea2e 84bb 3ac7 3f3d
000003a0: 4824 fe3b 7cad af3d 20ce 953b 18db a0bc
000003b0: 5b5b a2bd 93d9 90bd 2823 c3bc b106 b33d
000003c0: b7f2 a63d 67ad b43d cc9a b4bc 1014 873c
000003d0: 0f6f b13d b21e da3c 8c3e 9dbd 5ebb 1e3b
000003e0: 14d4 99bd 2cee e63c ac06 6cbc 9245 62bc
000003f0: efe3 853d 05a5 0a3d 00c5 3e3b 2e2d 323d
-0.009264565 0.03060983 0.007446622 0.036447484 0.0208923 -0.005536586 -0.00726752 0.014977917
-0.02891767 0.052584864 0.13051811 -0.023971234 -0.009364512 -0.002814743 -0.065723635 -0.017719857
0.072202206 0.058350652 -0.036796443 -0.0865687 0.008112344 0.022741647 -0.08593728 0.00039857152
0.025851697 0.03813594 0.059723787 0.08099545 -0.0019200444 -0.07225773 0.009453132 -0.006047803
0.10629455 -0.027581798 -0.06121988 0.05135837 -0.050325956 -0.012766483 0.076952375 0.004463434
0.07965817 0.0088722175 -0.03921395 0.017510721 -0.038188744 -0.038763374 0.08603437 0.077232406
0.0035708277 -0.05228638 0.008542022 0.015192013 0.045675874 0.063537866 -0.015755609 0.028698504
0.018943533 0.07035465 0.021655649 0.07609431 0.050966628 -0.015288769 -0.0062772115 0.014241497
0.08050471 0.0454688 0.06817628 -0.035383806 0.07652455 0.021845162 -0.016746316 0.042557467
-0.025215909 0.044698115 0.04436191 -0.072998084 0.02635488 0.07396754 0.056718327 -0.032813102
0.05615011 0.00038317562 0.071257085 -0.037523955 0.014493123 0.060382307 -0.060361117 0.056874663
0.04677877 0.04159715 -0.029782996 -0.044749588 0.0182461 0.10412927 -0.0840665 0.08625827
-0.024186946 -0.06676329 0.10307034 0.05883532 -0.07885736 -0.05512771 0.059121996 0.0011943833
0.048814856 0.086111896 0.04738734 -0.038753994 0.033450514 -0.057411056 0.08221332 -0.026287917
0.07309014 0.060614638 -0.08175786 0.082640626 0.04731485 -0.047124412 0.05253684 0.07542255
0.09741143 -0.0027708183 0.08927102 -0.050438046 -0.013230644 -0.09042686 0.046151802 -0.08841927
0.034064427 -0.027851015 0.07383655 0.044346757 0.001961617 -0.0114146145 -0.05506015 -0.049376022
-0.077601165 -0.071761474 -0.014101453 0.015625626 -0.029390555 -0.001316078 -0.07816507 0.08819961
0.03243894 -0.03007894 0.022601914 0.077204674 0.0640963 -0.01312276 -0.07676063 0.052576587
0.020646378 0.08855181 0.06651779 0.10331769 -0.023236051 0.082466274 -0.045350585 0.016997658
0.0010859745 -0.051369965 0.06876816 0.047471926 -0.055645652 0.03927141 0.023953127 0.070755295
-0.03992783 -0.071805924 -0.020219192 -0.05586967 0.042015813 0.0895312 -0.01733683 -0.07027965
-0.048988897 0.010130735 0.06417479 -0.032879513 0.083908014 -0.016709149 -0.015846457 0.012236393
0.07206514 0.08348383 0.02410638 -0.009070853 0.036146395 -0.085839294 0.06886198 0.030634854
-0.021387659 -0.057729255 -0.0141603425 0.01823286 0.030010484 0.039268084 0.03331986 -0.01766938
0.08632229 0.050560616 0.04662212 -0.052519202 -0.012298152 -0.047584705 -0.06981607 -0.051525958
-0.059195936 0.0604902 -0.08511569 -0.022974676 -0.0047038184 -0.06531968 -0.009810492 -0.081286445
-0.02413021 -0.04464055 0.07232226 0.0037260056 0.016792621 -0.025508586 0.028333832 0.025600072
-0.083038 0.067483485 -0.07072191 -0.0254536 0.040402383 0.08386115 -0.004033913 0.046820857
0.00775579 0.085780114 0.004571691 -0.019635722 -0.07927581 -0.07072749 -0.023820475 0.08741511
0.08151763 0.08822136 -0.02204647 0.016489059 0.08663761 0.026625965 -0.076779455 0.0024220566
-0.07511154 0.028189741 -0.014405888 -0.013810532 0.065376155 0.03384878 0.002910912 0.043500118

encoder.lstm.weight_hh_l0 f4 [512, 128]
00000000: 368d b23d 5a53 a13c 18fd cabc 5e5a 173d
00000010: 18ae a23c 9092 17bc 0026 6bbb 1c55 22bd
00000020: 1689 6fbd d0f2 33bd 8270 563d 8ea2 6abd
00000030: ac2b a5bd 0e1c a2bd 1ccf 943d d3f0 933d
00000040: c650 c0bc d011 bc39 d53f 983d 389d 4a3d
00000050: 5844 08bc 69a0 9b3d 5f9c 903d 2996 a1bd
00000060: 6cc2 0d3d fa2e 6d3d 527d 68bd 82dd f4bc
00000070: 3e3e 0cbd a0f5 c53b aa23 8abd d4d5 8e3d
00000080: e65b 263d 669e a2bd 1c13 833c c526 a2bd
00000090: 4cc3 82bd fa67 733d 1a48 24bd 682d 5abc
000000a0: b823 143c 7866 1fbd f072 9dbb 26b7 aebd
000000b0: 7e07 7c3d d0d5 3fbd c136 853d 87ac aa3d
000000c0: 7aa1 bb3c 72fc 97bd 16b6 933d 804a ba3d
000000d0: 0ad6 acbd 78d3 be3d ecb1 25bd 4f79 ad3d
000000e0: 9bff 8f3d aae1 55bc e6a6 f83c 1b0b aebd
000000f0: cab4 693d ece7 a6bc 7c61 34bd e0e2 f83c
00000100: 307a 323c ce5f b1bd c006 f73a 1fd9 983d
00000110: c7b1 79bd 2d61 b43d c699 05bc e21c 293d
00000120: 9af3 183d 24b4 b4bd e63b 7f3d a2e7 ab3d
00000130: d8d3 993c 4a0b 213d 9079 c4bc 863b 59bd
00000140: 9cd6 af3c 822b 9bbd 72ee 4fbd d8da df3c
00000150: 22e3 393d bb67 18bd 7949 92bd 5cac 813c
00000160: c890 fd3c e387 8e3d ed00 f03b 37d8 80bb
00000170: ee2e 8abd 9bcf b23d d8b7 7abd 368f 2fbd
00000180: 7f33 03bd b074 c0bc 2042 023c 6824 95bd
00000190: 804d 103b d274 4c3d 8b9f 923d 90cd af3c
000001a0: 80ac 083d 26d5 733d 2081 60bb 94d1 ee3c
000001b0: 41ab a6bd 7888 4ebd 6c24 6b3d 04f7 86bd
000001c0: b7ce 823d a368 b33d f54b 8e3d 7a06 2d3d
000001d0: f093 103d f62f 203d c044 e23b d953 833d
000001e0: c0e2 593c 729c be3c d29c 003d 3a8c 2b3d
000001f0: 97ed 8a3d 7fd1 73bd 9021 bd3c b416 33bd
00000200: 8094 6fbb ca0f 8cbd 68f0 943c 585d a33c
00000210: 9097 e33c aa56 073d 1887 b2bc 84ae b2bc
00000220: 84f7 b5bc e675 143d 909e c23b bb61 af3d
00000230: c021 b3ba 40ef 9c3c 7f31 0bbd 00b6 04bc
00000240: fe0b 023d 45d3 26bd 06e2 a2bd 1679 7a3d
00000250: 866f 113d e838 a33c 206a bb3c a0fe 103b
00000260: 0010 d437 5806 b5bc 69ec 8abd a8a4 65bd
00000270: e65e b3bd d825 12bc e199 893d 8bbd 863d
00000280: 9a8a 303d 2645 3b3d e018 99bb a053 333b
00000290: b031 8bbd 8a32 e7bc 1bcf 5fbd 66b2 743d
000002a0: c1d2 17bd 0ec7 a0bd 3451 d63c e112 973d
000002b0: 9d1a 9e3d 1ccd e33c c87e e93c c0cf af3c
000002c0: 25c8 883d e8db 8bbc 0052 16bc 2b77 97bd
000002d0: 2583 a43d 0f54 7abd db6f 893d 7b8b 21bd
000002e0: c0fb 85bd f220 2f3d 1989 38bd 87fc a7bd
000002f0: 8add 5cbd 6f62 a63d a8f3 53bc bce7 89bd
00000300: 20bd 5fbb 4474 c7bc 1776 97bd 2e85 dbbc
00000310: 6cdc 97bc e81c 55bc 4013 88bd b09b 2a3c
00000320: 8239 6f3d 9c3c f03c 58e7 7dbc 400c a03b
00000330: 98c6 bdbc a2e5 61bd 165f 0a3d 98eb b33c
00000340: b482 2dbd 786e d2bc 8064 d1bc 51c2 9d3d
00000350: 1ffe 87bd 7fde b13d d72e 853d 7cf2 00bd
00000360: 5d8a 913d cca2 ab3c e697 2f3d 6868 f13c
00000370: c136 3ebd 283b 30bd a096 bfbc e0ff be3b
00000380: 4741 65bd 6d45 ac3d 199e a43d 4aee 653d
00000390: b3b4 a3bd c81b 663c e3e4 a93d 350d 8abd
000003a0: 74d8 c0bc 0e2a 263d 661f 733d 5191 3cbd
000003b0: 8b43 8b3d 502a 90bd 5db9 b33d 6284 673d
000003c0: d58e 79bd 8821 42bc 2090 4bbb 2ad0 503d
000003d0: 6357 a53d b4d8 053d 88bb 5cbd c3b3 3bbd
000003e0: b59e a2bd 80ae 133b f7da 0abd 002d 1ebd
000003f0: da52 9bbd dfb1 92bd cd48 a53d c58d a4bd
0.0871834 0.019693065 -0.024778888 0.036951415 0.019858405 -0.009251252 -0.0035880804 -0.039631948
-0.058480345 -0.043932736 0.05235339 -0.05728393 -0.080649704 -0.07915507 0.072660655 0.07223668
-0.023476016 0.00035871426 0.0743405 0.04946634 -0.008317076 0.07598955 0.070610754 -0.07889969
0.034609243 0.05790613 -0.05676014 -0.02989078 -0.034239046 0.0060412437 -0.06745084 0.06974378
0.040614985 -0.07940368 0.016000323 -0.07917551 -0.06384906 0.05942533 -0.040107824 -0.01331649
0.009041719 -0.03891608 -0.0048049614 -0.085310265 0.061530583 -0.046834767 0.06504584 0.08333688
0.022904146 -0.07421197 0.072124645 0.09096241 -0.08439262 0.09317678 -0.040452883 0.084704034
0.07031175 -0.013054291 0.03035302 -0.08498212 0.05705718 -0.02037426 -0.04403828 0.03038162
0.01089339 -0.086608514 0.0018846616 0.074632876 -0.060960557 0.08807597 -0.008154338 0.04128731
0.03734169 -0.088234216 0.062312983 0.0839379 0.018777773 0.039317407 -0.023983747 -0.05303528
0.021464638 -0.07576658 -0.05076451 0.027326033 0.045382626 -0.0372083 -0.0714292 0.015829258
0.030952826 0.06959512 0.007324329 -0.003932025 -0.067472324 0.08731004 -0.061210483 -0.042861186
-0.032031532 -0.023493141 0.007950336 -0.072823346 0.002201885 0.049916096 0.07159337 0.021460325
0.033367634 0.059529446 -0.0034256652 0.029152669 -0.08138133 -0.050423115 0.05740778 -0.06590083
0.06387084 0.08760192 0.069480814 0.042242505 0.035297334 0.03910824 0.0069051683 0.06412477
0.01329869 0.023267958 0.031399556 0.041881777 0.06783598 -0.059525963 0.023087293 -0.043722823
-0.0036557019 -0.06838949 0.01818104 0.01994197 0.027782232 0.033041634 -0.021792933 -0.021811731
-0.022212751 0.03624525 0.0059393123 0.085635625 -0.0013666674 0.019157052 -0.03398275 -0.008100033
0.031749718 -0.040728826 -0.07953267 0.061150633 0.035506748 0.019924596 0.022877753 0.0022124425
2.527982e-05 -0.022097751 -0.06783373 -0.05606523 -0.08758335 -0.008920155 0.06718803 0.06579121
0.04310093 0.045720242 -0.004672155 0.0027363077 -0.067965865 -0.028222341 -0.05464087 0.059740447
-0.037066225 -0.07850467 0.026161768 0.07376648 0.0771992 0.027807765 0.028502837 0.021461368
0.066787995 -0.017072633 -0.009174824 -0.07395776 0.08032826 -0.06111532 0.06710788 -0.03943966
-0.06542158 0.04275603 -0.04505262 -0.08202463 -0.053922214 0.081242435 -0.01293651 -0.06733653
-0.0034139827 -0.024347432 -0.07395571 -0.026796903 -0.018537723 -0.01300738 -0.06644297 0.010413095
0.058404453 0.029325776 -0.015497051 0.004884273 -0.023165986 -0.055150636 0.033782087 0.021962926
-0.042360976 -0.025687441 -0.025560617 0.077030785 -0.066402666 0.08685016 0.065030746 -0.03148125
0.07106469 0.020951651 0.04286947 0.02946873 -0.046438936 -0.043025166 -0.023387253 0.0058288425
-0.055970456 0.084116794 0.08037967 0.056135453 -0.0799345 0.0140447095 0.0829561 -0.067408
-0.023540713 0.04056745 0.059356116 -0.046037022 0.06799992 -0.070393205 0.087755896 0.056522734
-0.06092723 -0.011848815 -0.0031061247 0.05097977 0.08073308 0.032677367 -0.05388978 -0.04582573
-0.07940427 0.002253443 -0.033900227 -0.038617134 -0.07584162 -0.071628325 0.08070526 -0.08034853

encoder.lstm.bias_ih_l0 f4 [512]
00000000: 3e7c 1d3d 5055 173c 42ce 333d 719e 5d3d
00000010: 2c4e 833d e82a bbbc 1e14 813d ae40 643d
00000020: f449 4b3d 3091 593c 86ca abbd 9265 603d
00000030: 4c97 abbc e432 0fbd f37e 7c3d dcea 7c3d
00000040: dc2f 4b3d af58 6e3d 9838 cf3d 901b 9838
00000050: b435 19bd ab85 c3bb 76d4 5d3d f47a 97bd
00000060: 2bd4 a7bc c853 163d b38a 243d febc 80bd
00000070: e1bf 88bd 246f 6abc 6fd6 1b3d a63d 9bbd
00000080: fc21 ce3d 119f d83d b673 c23d d615 793d
00000090: dc9c e63d 1cd0 543d 46bb 37bd 5390 c73c
000000a0: 3cf5 1abd 5a9f 4cbd 8645 783d a7c4 22bd
000000b0: f2ee 083d 817e 1cbc 0c06 9f3d 795a 10bd
000000c0: a328 a23d 6e86 23bd eb42 6ebd 08f5 0d3c
000000d0: 2e36 8cbd 3094 843d 0131 863d 82fa 423d
000000e0: 1c23 893d d36a afbc 7ee0 7f3d 42c5 e4bc
000000f0: 3443 b73c 4cba 6ebd 1f09 c83d 8e2b 6c3d
00000100: ed14 25bd a548 a6bc 2071 acbc e39b 56bd
00000110: 3a2b 68bd 4a2d 4f3d d647 a63c 24a7 98bc
00000120: 09c4 a43c 7cf1 96bd 5694 313d a435 99bc
00000130: a043 5abc 7e40 b3bd e8d5 5b3d c850 4cbc
00000140: 5cb5 5ebd 9477 a2bd e4f8 60bd ee86 d03d
00000150: 8f64 cd3d 12e6 7c3d 7606 90bd ca42 b4bc
00000160: 8f21 44bd b939 7cbc 36f7 3f3d 1813 17bc
00000170: 361d 57bc f836 f5bc b0aa 01be e988 afbd
00000180: 4609 6abd a769 23bd 652a bc3c f66e 7a3d
00000190: 6aee 6a3d 19ba e03c 7efb b1bd b640 21bc
000001a0: 447e 743d 62ee 76bd 3da0 acbd 0ac9 2a3d
000001b0: 746f 60bc 8379 873d e1b9 443c a562 833c
000001c0: 20d8 b23d 8049 083a 1835 af3d 5c77 b0bd
000001d0: c09f 7e3c 6d97 7a3d 3b74 b4bd aee3 f63c
000001e0: e274 a43c 58c4 cc3c b01e 813d 29aa 833d
000001f0: bc15 713d 74ac 823c 2aa5 c3bc dc5e 67bd
00000200: 40a2 d2bc afb7 8a3d d3e4 b4bd 6e19 523d
00000210: d2db a9bc e258 053d 9aa6 6bbd b0f6 7e3d
00000220: 07fd 23bd c91d 3ebd 40f9 dcbc 2e84 6fbd
00000230: cb6f 0ebd 3247 263d f602 f13c 90c5 aebb
00000240: fe9e 8abc 529f 873d 0052 64ba 55d6 af3d
00000250: b4cc 3c3d 3812 8cbc c6ac 103d a926 a23d
00000260: 7851 92bd a0fe 173c 18c5 76bd 222d 28bd
00000270: ce21 5f3d 3052 d83b 29b8 c9ba 6c79 46bd
00000280: 7abb 333d 1076 f73b 00b0 90b9 06e1 1e3d
00000290: bbec c8bb cae0 4d3d 1c0b 823c 4eab 543d
000002a0: c049 8abb e4e5 7cbd 0ca7 9abd c7d4 b4bd
000002b0: 5832 57bc a262 bb3d 769a 1ebd 8ab6 2bbd
000002c0: 3fd8 40bd 62a4 993d d488 9f3d 7692 663d
000002d0: 7577 873d b474 a2bc 14ee 30bd 7f7f a6bd
000002e0: 6048 9abd a265 dc3c 91a3 08bd ce2f a2bd
000002f0: d846 2b3c d013 3cbc 925f 35bd 18eb a8bc
00000300: b07c 533c 6089 063b 2ad7 89bd 9d56 6bbd
00000310: 20e3 92bd eef4 183d b34c 59bc 8818 a23c
00000320: bc8e f83b aca7 bdbc 085a 75bd 8a04 84bd
00000330: 80f4 88bb c086 d7bc 013a 1cbd 88f0 c6bb
00000340: 94fa 42bc 5174 7bbd c983 25bc f144 0dbd
00000350: 033a 9c3d b82a 44bc 78b1 6b3c 96c0 753d
00000360: 85aa 863d 45ab 883d 1abd 013d 3615 b4bd
00000370: f2af 313d 54b1 d13c 2425 71bd 87a6 aebd
00000380: a8c6 f43c 0000 68bb 086c 193c 329a aabd
00000390: 85c3 99bd e0bb 4bbc a840 a0bd bc37 043d
000003a0: f823 a63d e1bc 8f3d 496e 933d 1254 9dbd
000003b0: 5668 2b3d 6340 ac3d e3d0 ba3c e8f0 923c
000003c0: b13d a03d 2e55 2c3d 063f 7b3d 4704 54bd
000003d0: a0aa babc 6aa8 8cbd 5518 ecbc 4895 15bc
000003e0: 0015 a8bc 0674 3a3d 3a3b a43d 2104 a33d
000003f0: 0724 3ebd a0b3 b13c 78a0 5dbd 2945 1abd
0.038448565 0.009236649 0.043897875 0.05410618 0.064113945 -0.022847608 0.06302665 0.055725746
0.049631074 0.013279244 -0.08388238 0.054784365 -0.020946167 -0.034960642 0.061644506 0.061747417
0.04960619 0.058190044 0.10118216 7.253059e-05 -0.03740473 -0.005966862 0.054157697 -0.07396498
-0.020486912 0.036700994 0.040171336 -0.062860474 -0.06677223 -0.014308725 0.038046297 -0.07580118
0.10065076 0.105772145 0.09494726 0.06081184 0.11260387 0.05195628 -0.044856332 0.024360811
-0.03783153 -0.049956657 0.060613178 -0.039738324 0.033431 -0.009551645 0.07764825 -0.03524253
0.07917907 -0.039923124 -0.058169287 0.008664377 -0.068462715 0.06473577 0.065523155 0.047602184
0.0669615 -0.021413242 0.06246995 -0.027926091 0.022370912 -0.058283135 0.09767365 0.057658724
-0.04030316 -0.020298311 -0.021050036 -0.05239476 -0.05668185 0.0505803 0.020297926 -0.018634386
0.020113008 -0.07370278 0.043354355 -0.018702336 -0.013321787 -0.08752535 0.053670794 -0.012470432
-0.054372177 -0.07932964 -0.05492486 0.10181986 0.10028946 0.06174285 -0.07032482 -0.022004504
-0.047883566 -0.0153946215 0.046866618 -0.009220861 -0.013129523 -0.029933438 -0.12662768 -0.085710354
-0.05713775 -0.03989568 0.022969434 0.061140977 0.057356276 0.027432488 -0.086905465 -0.009842088
0.05969073 -0.060285933 -0.084290005 0.041695632 -0.0136984475 0.066149734 0.012007208 0.016038248
0.08732629 0.00051989406 0.08555049 -0.08616516 0.015541017 0.061179567 -0.08811232 0.030137863
0.020075265 0.024995968 0.06304681 0.0642894 0.05885862 0.015951373 -0.023882467 -0.05648695
-0.025712132 0.06773316 -0.08832707 0.051293783 -0.020734701 0.03255547 -0.05753193 0.06224698
-0.040036228 -0.046415124 -0.02697432 -0.058475666 -0.034774583 0.04059524 0.029420357 -0.00533361
-0.016921517 0.06622185 -0.0008709729 0.085858025 0.046093658 -0.017098531 0.03532102 0.0791753
-0.07144445 0.009277016 -0.060246557 -0.041058667 0.054475598 0.0066015944 -0.0015389967 -0.04845564
0.043879963 0.007551916 -0.0002759695 0.038788818 -0.006131736 0.050263204 0.015874438 0.05192118
-0.0042202175 -0.06174268 -0.07551393 -0.088296466 -0.0131345615 0.09149672 -0.038721524 -0.04192213
-0.04708123 0.07502057 0.0778977 0.05629202 0.066145815 -0.019831039 -0.0431958 -0.08129787
-0.07533336 0.026903931 -0.033359114 -0.07919274 0.010453902 -0.011479333 -0.044280596 -0.020619914
0.012908146 0.002052866 -0.067304924 -0.057455648 -0.07172227 0.03734296 -0.013262915 0.019787088
0.0075853746 -0.023151241 -0.059900314 -0.06446178 -0.0041795373 -0.026309371 -0.038141254 -0.006071154
-0.011900563 -0.061390225 -0.010102221 -0.034489576 0.07628252 -0.011973076 0.014385574 0.059998117
0.06575493 0.06673292 0.031674482 -0.08793108 0.043380685 0.025597252 -0.05887331 -0.08527856
0.029879883 -0.003540039 0.009364136 -0.08330192 -0.075079955 -0.01243493 -0.07824832 0.032279715
0.08112329 0.07018448 0.071987696 -0.07682051 0.04184755 0.08410718 0.022804683 0.017937139
0.07824267 0.04207342 0.0613394 -0.05176189 -0.022786438 -0.0686806 -0.028820196 -0.00912983
-0.020517826 0.045520805 0.08019109 0.07959772 -0.046421077 0.021692097 -0.054108113 -0.037663613

encoder.lstm.bias_hh_l0 f4 [512]
00000000: 4249 dab9 f5c9 823d db22 b03d cd70 533d
00000010: 1997 393d a109 aa3d 1db2 473c 5d82 bf3c
00000020: 212c 8b3d c655 ba3d c472 8d3c 1467 98bc
00000030: 64b2 8a3d a0c6 7bbc f2f0 f73c 9f64 66bb
00000040: 75a9 ae3d 7510 153d 327c 243d ad6c 7b3d
00000050: 2634 2d3d 43c2 83bd ce5f 1bbd 8519 f33b
00000060: 027e 8c3d d456 a6bc ec40 aabd 2949 863d
00000070: 68df 133d 7cec a4bc 7ba5 133d 3efc 53bd
00000080: d646 bc3d 1cef 593d 9859 953d 7646 2d3d
00000090: ee93 cc3d 3ec1 7bbd f2bf 083d ce03 803b
000000a0: b626 dcbc 672e 953d 83aa 78bc 4f8c 21bd
000000b0: 6ebb aa3d fe1d 9ebd 18dc 8abc 98a8 8d3c
000000c0: f211 1f3d aa13 83bd e58f 353d 6f70 8e3d
000000d0: 2062 a33d ea72 013c 32ae 113d 4c02 003d
000000e0: d43a 7e3d 640b 17bd 7847 9a3c 1ede 5b3d
000000f0: e29b 2d3d 6216 213d 3d82 d33d 4bb2 ae3d
00000100: 440c ef3d f96f 9a3d 480e 643c 5aac 333d
00000110: 0c74 3e3c ebe8 a63d 38c2 143d 6c11 82bd
00000120: 99b9 b83d 4007 063b ba1d e6bc 8c72 cb3c
00000130: 7603 a6bd 3727 7cbc dc88 37bd 1825 e13c
00000140: cd32 5dbc 9c57 733d cee8 003d d0dd 3f3c
00000150: 5293 6e3d 483b fdbc 5bf5 7c3c 7094 41bc
00000160: a2da d03b c0d6 a03d 68bf 643c 5183 b33d
00000170: 137b b03d 4a20 a2bd fae5 eabc d07e 053d
00000180: 5042 f03c baf2 94bd 5bad 83bd c41d dfbc
00000190: c9ee 84bd 823d a5bd a26c 82bd ea5f 4d3c
000001a0: e4b4 e83b b63e 91bd 22e4 3bbd c228 623d
000001b0: fa6f 92bd cbb7 ad3d 5498 1c3d 32ba 773c
000001c0: fef0 8dbd ce75 223d b8da a2bd e02c a0bb
000001d0: 0069 bc3b a233 61bc 0500 903d 3d8e 67bb
000001e0: 864b d43c 8e67 123d cc90 a3bc b1bc ab3d
000001f0: b6a9 81bc a415 b23d e46e dd3d af0b 9c3b
00000200: ec13 02bd ce32 533d 6962 4abd 3ef1 12bd
00000210: 72e5 fbbc aa45 5f3d d870 bd3c 2328 c8bc
00000220: 22b2 413d 5469 923c d7d0 4ebd 3e8f 03bd
00000230: e1cc 3f3d c1b8 8cbd 9a39 c13d a058 a0bd
00000240: a8ce 04bb 2eb9 843b c80f adbd 9451 70bd
00000250: c5b6 cc3c 1b91 833d 7e16 abbd 4ff4 a83d
00000260: e455 c7bc 5b2c abbd 6faf a63d cd07 b13d
00000270: 72de 5cbd 60d3 123b 3841 9fbd 161d af3d
00000280: 44b3 d0bc 3d2d 873d debd fabc ca48 423d
00000290: 15ab c03d b17e 9abd b64a 683d b0ad 183c
000002a0: ba74 6ebd be09 9cbd 922f 7b3d 1e83 333d
000002b0: 9c7a 8dbc f064 6cbc 0c06 86bb 5018 18bd
000002c0: 0c09 be3d f822 6dbc 8927 b0ba f75b a43d
000002d0: e0c5 27bb 9a02 a33b 37a3 803d 6dcc 953d
000002e0: 2705 5cbd 763c 4f3d 6ab3 223d 1cb7 833c
000002f0: c404 833c e49c 8ebd f703 3d3c 804a a5bb
00000300: 2799 923d 9e87 4e3d 0ea6 703d 147e 50bd
00000310: 4871 40bc b2f5 3a3d de97 cc3c 9e38 9abd
00000320: 4090 dcbb 6da5 8a3d 2c15 d23c 5e53 a5bd
00000330: 608b a83c af67 7bbd 7da0 40bd 7a9b 9abd
00000340: 98a0 d7bc da9a 653d 4c32 cdbc c8a1 aabd
00000350: 4167 983d 8f42 85bd 80cb 6a3a 8cce abbc
00000360: 6353 8c3d 54e0 a9bb 48be bcbc 38dd 56bc
00000370: 7ab4 1f3d be60 80bd ae56 623d c180 a83d
00000380: 5a38 b43d 0b50 a33d ac2c b7bc b4b5 37bd
00000390: 46f0 6cbd 9d93 21bd fbf0 20bd a0e7 dbbb
000003a0: 4a4a a7bc b807 093d 3430 98bd 15be 803d
000003b0: f2e6 453d 7010 52bc c577 4fbd e8ae 8ebc
000003c0: 002c c23c cad4 b13d c5ed 38bd aa69 463d
000003d0: 006a 1fbb 220d 073d 1546 b73d 420b 33bd
000003e0: d100 37bd 88da 3bbd 1c5f abbc 7952 aa3d
000003f0: 4db7 45bd 58f4 e43c 7f08 833d b293 913d
-0.00041634782 0.063861765 0.08600398 0.051621247 0.045310114 0.08302618 0.012188462 0.023377592
0.06795526 0.09098391 0.017266639 -0.018603839 0.067723066 -0.01536718 0.030266259 -0.003515519
0.08528415 0.036392648 0.040157504 0.06138294 0.04228606 -0.06433537 -0.037933163 0.0074188136
0.068599716 -0.020305075 -0.08313164 0.06556923 0.03610173 -0.020132296 0.036046486 -0.05175423
0.091931984 0.053206548 0.07292479 0.042303525 0.09989153 -0.061463587 0.03338618 0.0039067036
-0.026873928 0.07284241 -0.015177372 -0.03944045 0.083365306 -0.07720564 -0.016950652 0.017292306
0.038835473 -0.06400235 0.04432668 0.06955039 0.079777 0.007900933 0.035566516 0.03125219
0.06206782 -0.036876097 0.018832907 0.053678624 0.04238499 0.039327987 0.10327575 0.085301004
0.11672261 0.07540888 0.013919421 0.04386554 0.011624347 0.08149894 0.036318034 -0.06350979
0.09019775 0.0020451099 -0.028090347 0.024834894 -0.08106129 -0.015390209 -0.044808254 0.027483508
-0.013500881 0.059409723 0.03147202 0.011710599 0.058245964 -0.030912057 0.015439357 -0.011815175
0.0063737193 0.0785346 0.01396165 0.08765281 0.086172245 -0.07916315 -0.028674114 0.03259164
0.029328495 -0.07272859 -0.06429549 -0.027235873 -0.06490857 -0.08068372 -0.06368376 0.012535075
0.007101642 -0.07092039 -0.04587186 0.05521465 -0.07150264 0.08482321 0.03823121 0.015120076
-0.06930731 0.03966313 -0.079518735 -0.004888162 0.0057498217 -0.01374522 0.07031254 -0.0035332583
0.025914919 0.03574329 -0.019966505 0.083855994 -0.015827995 0.08695534 0.10812166 0.004762135
-0.03175728 0.051562123 -0.049410257 -0.035874598 -0.030749056 0.054509796 0.023125097 -0.024433201
0.04728902 0.01787249 -0.050492134 -0.03211903 0.046826247 -0.068711765 0.09434815 -0.07829404
-0.0020264778 0.0040503955 -0.08450276 -0.05867155 0.024989495 0.06424161 -0.083538994 0.08249723
-0.024332948 -0.083580695 0.0813893 0.08644066 -0.053923078 0.0022403821 -0.07776111 0.085504696
-0.025476106 0.066004254 -0.030608114 0.0474327 0.09407631 -0.07543696 0.056711875 0.009318754
-0.058216788 -0.07619046 0.061324663 0.043826215 -0.017270379 -0.014428362 -0.0040900763 -0.03713256
0.09279069 -0.014473669 -0.0013439517 0.080253534 -0.002560012 0.0049746754 0.06281131 0.07314382
-0.05371585 0.05059477 0.039721884 0.016078524 0.015993483 -0.06963518 0.01153659 -0.0050442815
0.07158118 0.050422303 0.058752112 -0.050901487 -0.011745758 0.04564447 0.02497476 -0.0753033
-0.006731063 0.06769834 0.025644861 -0.08072542 0.020574272 -0.061378177 -0.047028054 -0.07549186
-0.026321694 0.05605588 -0.025048397 -0.083316386 0.07441569 -0.06506836 0.00089567155 -0.020972513
0.06851842 -0.0051842127 -0.023039952 -0.013114266 0.038990475 -0.06268452 0.055258445 0.08227683
0.08799811 0.07974251 -0.022360168 -0.04485102 -0.05784633 -0.039447416 -0.039292317 -0.0067109615
-0.020421166 0.033454627 -0.07431069 0.06286255 0.04831595 -0.012821302 -0.05065133 -0.017417386
0.023702621 0.086831644 -0.04514863 0.048440613 -0.0024324656 0.03297151 0.08948914 -0.04371191
-0.044678513 -0.045862705 -0.020919375 0.08316512 -0.048270512 0.027948543 0.06398105 0.07108249

decoder.lstm.weight_ih_l0 f4 [512, 5]
00000000: 1311 403d 62a1 db3c abda 55bd c9d8 a3bd
00000010: 208f 02bd 80b4 debb 16b0 2d3d b362 a63d
00000020: 4068 6bbc 8418 aabc c2c7 a03d a01f 91bd
00000030: 17a3 a1bc e8b1 ba3d 0fa4 86bd 61cc de3d
00000040: 9e09 223c c068 27bd 4255 093d 590b b4bd
00000050: 441b 353d 3d93 06bc bfd8 963d 713f d23c
00000060: 40fa 933b e04a 8b3c 3011 8ebd 849a ad3d
00000070: 5ef2 c83d 287e 49bc e37d b5bc 795e 193d
00000080: d256 b53d d1c9 e73c 7e03 253d 692f 1d3b
00000090: 4c6d 0cbd aecb b6bc fac8 e73d 58e2 6fbd
000000a0: b077 ba3d 0e6d 5fbc df8f 323d 9c5d 1b3c
000000b0: 72a1 a3bd 1a79 e2bd f1d1 df3c 8917 49bd
000000c0: d3cb 91bc f44b f03c ab4f 64bd c468 ba3d
000000d0: 7741 24bc f3c2 513d c82d d7bc 7f6e d93d
000000e0: 2ed8 32bd 21bc 843d de5a 223b 8304 71bd
000000f0: f28f d8bc 89fd 8ebd e912 3c3d b662 41bc
00000100: ddba 0bbd b220 8a3c 3ea8 d63d 2202 22bd
00000110: 3c7a 493d 269d febc ac9f 5a3d 31b2 c53d
00000120: 54ad 2ebd 043a d8bc d47d 9bbc 6bb8 943d
00000130: b874 a53c 4b2b b23d 4957 893d 4a00 703d
00000140: 69c6 7abd c1b7 adbc fde2 133d dfb1 d4bc
00000150: c063 7fbb a006 91bb 5eae 4b3d 157b b03d
00000160: c619 3b3d 47d1 83bd 9e76 773d c897 16bd
00000170: e7aa 853d ba45 3a3d 207c dbbb 0f1b ad3d
00000180: 702e 06bc 3ac8 61bd b01d 233d 003d 18bc
00000190: f2b6 fa3d fa91 463b 62dc b8bc f615 7ebc
000001a0: 25c1 923d d0e7 b2bd bfdd 9bbc fc30 30bc
000001b0: 4920 2bbd 88bb b9bc 025e 5e3d 1fe4 26bd
000001c0: aadb 333d c380 963d 7264 1b3d bf34 1c3d
000001d0: e570 1ebd 0b8e 0f3d 6c43 933d cac7 433d
000001e0: 149c 9d3d 1628 933d 8c57 51bd f619 14bc
000001f0: 0837 16bd 3f35 95bb be29 8c3d d1d7 01bb
00000200: 3cc6 c63c 3611 f5bc f465 6ebd aea7 ddbc
00000210: e8bf 9dbd 62f0 1c3c 55f5 803d a707 a53d
00000220: 652e 8cbd 9829 de3c 9315 98bd d5a1 b1bd
00000230: 587e 74bc de2a f8bc c6ad 253d cc87 953c
00000240: c05a 15bc 92d4 063e 0e7f fe3d 421e 963c
00000250: 3ada 953c c084 22bd 58dd 46bd e02b fb3c
00000260: a92f 8c3d e3d8 17bd a0eb f7bc 78da 6b3d
00000270: ea17 e9bb a45b 9e3c 5c0d 063d caf5 443d
00000280: 80d9 3bbc 4631 acbc 7ad2 b43d 8811 913d
00000290: 1f91 a13d a451 b93d 806b 8d3d e17c 0ebd
000002a0: 413f 4abd a01b 40bb af2f 4abd de6d 083d
000002b0: a045 b2bd 6036 0fbb c666 293d be53 a7bd
000002c0: e68c 353d 658e 97bb 1abf 59bb b96f 913d
000002d0: f250 4c3c 50cb 4ebd 86ad c03d 9427 66bc
000002e0: dcf9 99bc 2871 29bc 6cc5 b23d 7c76 d43c
000002f0: 046e ed3c 6027 cebb d900 25bd eb12 5b3d
00000300: 58f6 cbbd b902 313d f05c 133c 5aae 8fbd
00000310: 5a5a 7fbd 1c05 a33d dc3c adbd 90d6 13bd
00000320: 6edc ccbb 661d 2f3d beb2 4fbd 0e1b 8a3d
00000330: 2c2d b43c b087 babd 0223 6a3c c35c 22bd
00000340: ffa7 8a3c ee2a 73bd 62d2 a3bd 6821 32bd
00000350: 4c5a 1a3d 70f3 a7bd 9ba9 ac3d abe2 99bd
00000360: f49f 5ebd 74da 6dbd da3f 1f3d 421c f1bc
00000370: c994 a73d 2a2a 2a3c ccab b63c 61a4 24bb
00000380: 4743 9dbd 4f59 5bbd 956b 8fbc 07d0 65bd
00000390: 552c 5b3d 0a2a 4d3d 0e47 b2bd 46cb c3bc
000003a0: 1c2d 42bd 869b a23c 986c fb3c b51b 103c
000003b0: 116a a2bd 1b79 893d c31e 973c 1aac 743d
000003c0: 4890 8b3d de72 c33d bebb 5f3c c35f 2dbd
000003d0: 1849 743c 4e82 1fbd e281 0d3d ba1a 64bc
000003e0: 76c7 98bd 750e a23d fee2 1cbd 5456 693d
000003f0: 3a46 6c3a 8cb2 9abd 20a8 b23c d852 503c
0.046891283 0.026810352 -0.05221049 -0.08000333 -0.031874776 -0.0067964196 0.042404257 0.08124294
-0.014368117 -0.020763643 0.07850601 -0.0708611 -0.019731088 0.09115964 -0.065742604 0.10878826
0.009889988 -0.04087138 0.033528574 -0.08791227 0.044215456 -0.008213815 0.0736556 0.025665017
0.004515916 0.017003477 -0.06936872 0.08476737 0.09811853 -0.012298144 -0.022154754 0.03744361
0.0885445 0.028294476 0.040286534 0.0023984557 -0.03428392 -0.022313919 0.1131763 -0.058565468
0.0910486 -0.0136368405 0.043594237 0.009482767 -0.079897776 -0.110582545 0.027321788 -0.04909471
-0.017797386 0.029333092 -0.05574004 0.09102014 -0.010025374 0.05121131 -0.026266947 0.106167786
-0.043663196 0.06481195 0.00247734 -0.058842193 -0.026435826 -0.06981952 0.04591647 -0.01180332
-0.034113754 0.016861293 0.104813084 -0.039552815 0.049188837 -0.031080794 0.05337493 0.09653128
-0.042645767 -0.026394852 -0.018980898 0.072617374 0.020197257 0.08699664 0.067061014 0.058594026
-0.061224375 -0.021205785 0.036105145 -0.025963722 -0.0038969368 -0.0044258386 0.049726836 0.08617226
0.045678876 -0.06436401 0.060415857 -0.036765844 0.06526738 0.045476653 -0.0066981465 0.08452427
-0.0081897825 -0.05512259 0.039823234 -0.009291887 0.12241925 0.003029941 -0.022566024 -0.015508166
0.07165746 -0.08735621 -0.019026635 -0.010753866 -0.041778836 -0.02267243 0.05428887 -0.040744897
0.04391066 0.07348778 0.03793759 0.03813624 -0.038681883 0.035047572 0.07190594 0.047797956
0.07695785 0.0718538 -0.05110888 -0.009039393 -0.036673576 -0.0045534666 0.06843899 -0.0019812474
0.024264447 -0.029915433 -0.0582027 -0.027057495 -0.07702619 0.009578796 0.06296793 0.080581
-0.068447866 0.027119443 -0.0742599 -0.08673445 -0.014922701 -0.030293878 0.040448926 0.01825323
-0.009115875 0.13167027 0.124265775 0.018324975 0.018292535 -0.03967738 -0.048550934 0.03066057
0.06845028 -0.037072074 -0.030263722 0.057581395 -0.0071134465 0.019330807 0.032727584 0.048085965
-0.01146543 -0.02101959 0.08829208 0.07083422 0.07889008 0.09048775 0.069052696 -0.034787063
-0.04937673 -0.002931334 -0.04936188 0.033307903 -0.08704686 -0.0021852478 0.041357778 -0.081702694
0.044323824 -0.004625129 -0.0033225478 0.071013875 0.012470471 -0.050486863 0.09408097 -0.014047522
-0.0187959 -0.01034192 0.087290615 0.025935404 0.028983124 -0.006291315 -0.04028401 0.05348484
-0.09959096 0.043215487 0.008994326 -0.07015677 -0.062342025 0.07959959 -0.08458874 -0.036093295
-0.006251863 0.042752646 -0.05070757 0.067434415 0.021994196 -0.091079116 0.014290573 -0.039639246
0.01692581 -0.059367113 -0.07999112 -0.04348889 0.03768377 -0.08200729 0.08430787 -0.075139366
-0.054351762 -0.05806966 0.038879253 -0.02943242 0.081826754 0.010386029 0.022298716 -0.0025122392
-0.07678848 -0.05355197 -0.017507354 -0.056106593 0.053509075 0.05008892 -0.08704959 -0.02390064
-0.0474063 0.01984955 0.03069143 0.008795668 -0.07930387 0.06712552 0.018447286 0.05973444
0.06814629 0.095433936 0.013655601 -0.042327654 0.014910005 -0.038942628 0.034547694 -0.013922388
-0.07459919 0.07912914 -0.038302414 0.056967095 0.000901315 -0.07553586 0.021808684 0.012715064

decoder.lstm.weight_hh_l0 f4 [512, 128]
00000000: 4ed3 933c f8f7 d83d 1081 a0bd 39f1 35bd
00000010: 3466 7dbb e2aa c1bd 049d af3d fcfd cb3d
00000020: f661 2a3d 8ced 703d 3914 b33d 9fcf 4e3d
00000030: 9857 6ebd 0ae0 4fbd 1356 3cbd 3967 3f3d
00000040: 105c 1b3d 6e27 bfbc 1c8b c2bd 7bcc 173d
00000050: 1d17 7ebc 3058 4d3d 79ae ac3d 8008 c0bc
00000060: d10f 243d 0ef2 553d 60a8 8ebc a80b b6bc
00000070: 01d0 20bd 7a4b f1bb 6c19 913d 0645 babc
00000080: e255 be3c d8ff 073d a259 673d 868f 573d
00000090: ea35 fb3b 8676 9ebd cc1b f13c 96d4 82bd
000000a0: be2d 8d3c ba71 67bd d92a 83bd da2f b83c
000000b0: 8eb4 563c 08e3 3bbd a06b e13d 9e0e 2f3c
000000c0: 8fd4 173d c78a 433d 08b2 55bd cc82 f2bc
000000d0: 3c53 7f3d 2e6b 26bd f2b2 1b3d a698 aabd
000000e0: 2a7b 183d 2e3f 8c3d c862 21bd 3c6c c73b
000000f0: 72ad 6bbd 6e6d 7a3d 1969 743d 3906 d9bd
00000100: 9b3b 7a3d fe73 703c da65 50bd e45f 65bd
00000110: 6c4e 64bd 0b0a d33c 5c15 8bbd cb35 b9bd
00000120: 30a6 83bd fabf 18bb e94c 32bd 8f98 db3c
00000130: 8f49 a53d c57b d03d f80f 353d 03a0 483d
00000140: 03f2 c4bd 2229 9cbd ba6b 3b3d 0cbc 5bbd
00000150: 4314 a2bd df96 89bd 788d c23c f2dd 1bbd
00000160: d84a 763c 0384 3e3d bdd4 793d bd06 843d
00000170: e61c 263d c95a c6bc 2ef5 683d 492d fe3c
00000180: d442 2c3d 3c21 5e3d 01a4 9e3d 9226 a5bc
00000190: bf3b 063d 69ee b23d 8559 413d 165b b83c
000001a0: 603c 623d 02f5 193d e180 b1bd 70a8 3e3d
000001b0: e872 ac3c 5812 b4bd f8cd 99bd a27a 233d
000001c0: 7415 273d e776 b9bc c8c2 023b 61c5 20bc
000001d0: 90b2 59bc eb82 10bd 7988 e63c 1e17 bb3b
000001e0: 30c7 4abd 1a1e 633d 0107 913c 4716 bcbd
000001f0: 9c6b b23b 58c9 7a3d a824 19bd e46b 9f3d
00000200: f055 f73c 695f 9d3d 309f 86bd 52f5 0d3d
00000210: 601c 6f3c f88c 643c e09f 1ebb 76ea 6c3d
00000220: 0497 ea3c 12ed 6fbd ad07 a9bd d6d1 99bd
00000230: 230f 09bd a6d1 26bd 001e 523b 8464 79bd
00000240: 6ed0 413d ff1b 86bd 80e5 57bc 6876 b03c
00000250: 6e10 373d 945a 96bc 8a2f 57bd f5ad 46bd
00000260: fffd a7bd 30fc d53c 16fd 653d bbf6 ae3d
00000270: 0082 fa3a 6ef5 203d 786b 91bc a62f 96bd
00000280: 00ae 19ba d057 d13b a652 763d 10f3 0a3d
00000290: 73c9 b43d 8efc 213d 51a4 00bd c7ba 8a3d
000002a0: 6871 223c 2a1a 7a3d 342b 8d3c a1f1 53bd
000002b0: 8dcd 943d 82e7 80bd fc21 973c d009 85bd
000002c0: 2ce1 f93c e573 863d 5f6d a13d 84f8 80bd
000002d0: 0022 54b9 edcc 823d 9dc0 9f3d 57e1 a03d
000002e0: eb01 98bd 0df0 a63d b8ab 67bd c3c6 a93d
000002f0: e766 80bd c08b 263b a00e 8f3b c184 9fbd
00000300: 8645 6c3d e417 43bd 58a0 c53c 8ac3 533d
00000310: 98b2 a6bd 3606 afbd 95a7 a73d c584 1ebd
00000320: 791b 36bd 98d6 8d3c 7085 23bc 0f23 43bd
00000330: 0bc5 973d b3cc a9bd ff1b 933d d093 36bc
00000340: 3ea2 5abd 8259 5b3d adf4 b13d ea7c 133d
00000350: 605d aabb 0995 af3d a4ec b5bc d8f6 adbd
00000360: 5884 51bc 294f 993d 7984 8e3d 2992 953d
00000370: 90ef afbd 0333 833d 7408 ad3c 98f9 20bc
00000380: 089b f03c 4097 c23b ec48 acbc 682d db3c
00000390: afa7 a63d c62f 6b3d 2e44 233d 009e 6439
000003a0: cefd 2c3d 0c75 61bd b22f 323d d96c 6cbd
000003b0: b89d ccbc 8228 95bd 9de4 a13d da05 463d
000003c0: 0409 8ebc e6fe 6e3d 3107 8e3d 9845 073d
000003d0: d7c7 49bd 624d 193d 4075 69bc 1c72 973c
000003e0: 08c1 6ebc 408f 34bd a824 44bc b6b5 55bd
000003f0: 1a6b a7bd 46ae 2d3d da73 a5bd c037 9b3b
0.018045094 0.10594171 -0.07837117 -0.0444195 -0.0038665654 -0.094564214 0.0857487 0.09960553
0.04159733 0.058820292 0.087440915 0.05049097 -0.058189005 -0.05075077 -0.045980524 0.0467293
0.037929595 -0.023334231 -0.09499189 0.037060242 -0.01550844 0.05013293 0.084317155 -0.023441553
0.040054146 0.052232794 -0.017414272 -0.022222355 -0.039260868 -0.007363734 0.07084927 -0.022737991
0.023234311 0.033202976 0.056481965 0.05262711 0.007666339 -0.0773745 0.0294322 -0.06388204
0.017233726 -0.056504942 -0.06404657 0.022483755 0.013104571 -0.04587081 0.11006856 0.010684637
0.037067946 0.04773977 -0.052171737 -0.029603384 0.062335238 -0.04062956 0.038012452 -0.08329897
0.037226833 0.06847988 -0.039400846 0.0060859006 -0.057538457 0.061139517 0.05967054 -0.1059689
0.061092 0.014676092 -0.050878383 -0.05599965 -0.05573885 0.025761625 -0.06791183 -0.09043463
-0.06428182 -0.0023307786 -0.04353038 0.026806144 0.08070671 0.10179857 0.044204682 0.048980724
-0.096164726 -0.07625033 0.045757033 -0.053646132 -0.07914021 -0.067182295 0.023749098 -0.03805346
0.015032493 0.046512615 0.0609939 0.06446598 0.040554903 -0.024213212 0.056874447 0.031027453
0.04205592 0.054230914 0.07746125 -0.020159993 0.032771822 0.087368794 0.047204513 0.02250437
0.05523336 0.037587173 -0.0866716 0.046547353 0.021050885 -0.08792561 -0.075099885 0.039911874
0.040791944 -0.022639705 0.0019952524 -0.009812684 -0.0132872015 -0.035281103 0.028141247 0.005709543
-0.049506366 0.05544863 0.017703535 -0.091839366 0.005444957 0.061227173 -0.037388474 0.077842504
0.030192345 0.07684214 -0.06573331 0.034657784 0.0145941675 0.013949625 -0.002420418 0.057840787
0.028636463 -0.058575697 -0.08253417 -0.07510726 -0.0334617 -0.04072728 0.0032061338 -0.060886875
0.047317915 -0.065483086 -0.013177276 0.021540835 0.044693403 -0.018353738 -0.05253557 -0.048505742
-0.08202743 0.026121229 0.056149565 0.08543154 0.0019112229 0.03929656 -0.01775144 -0.07333307
-0.0005862415 0.006388642 0.060137413 0.03392321 0.08827486 0.039547496 -0.031406704 0.06773906
0.0099147335 0.06106011 0.017232515 -0.051744107 0.07265768 -0.062941566 0.018448822 -0.06496012
0.030502878 0.06565074 0.07882189 -0.062974006 -0.00020230561 0.06386743 0.0780041 0.0785548
-0.07422241 0.08151255 -0.056560248 0.08289864 -0.06269627 0.0025412887 0.004365757 -0.07788993
0.05768349 -0.047630206 0.02412431 0.051700152 -0.08139533 -0.085461065 0.081862606 -0.038700838
-0.044459794 0.01731424 -0.009980544 -0.047640856 0.0741063 -0.082909964 0.07183074 -0.01114364
-0.053377382 0.05355216 0.08689246 0.0360078 -0.0051991194 0.08573348 -0.022207566 -0.08494347
-0.012787901 0.07485802 0.06958861 0.073032685 -0.08590615 0.06406214 0.021122195 -0.009825133
0.0293708 0.0059384406 -0.021030866 0.02675505 0.08137452 0.057418607 0.039859943 0.00021802634
0.042234235 -0.055043265 0.043502517 -0.057720993 -0.02497755 -0.07283117 0.07904933 0.048345424
-0.017338283 0.05834856 0.069349654 0.033025354 -0.049262848 0.037427314 -0.014249146 0.018487029
-0.014572389 -0.044081926 -0.01197163 -0.052175246 -0.08174725 0.04240253 -0.080787376 0.0047368705

decoder.lstm.bias_ih_l0 f4 [512]
00000000: e0f6 a73c cbc4 8b3d 2dc4 e2bb 4431 91bb
00000010: 9f9c d9bb 58fe e8bb e66b 283d dbc1 833d
00000020: d21c 98bd 3af4 9a3d a271 afbc f7fa a8bd
00000030: 2f79 82bd 8546 7f3d 3496 42bc cc8f 093d
00000040: 6290 4a3d 9630 47bd ddd4 80bd e1f9 843d
00000050: 7a20 c53d ba40 b7bc bcaf ed3c f716 3e3d
00000060: f723 4ebd 9479 1d3b aedf 24bd e454 7ebd
00000070: 1e98 52bd b652 e0ba e8eb e73c 4e3f cfbc
00000080: e023 e13c e8f0 eebc c072 1cbb 0c3b 503d
00000090: 5a8d a33d 8893 b93c ca84 7bbd 7406 95bd
000000a0: e923 b73d b43b 32bc 3629 0bbd c7b3 9c3d
000000b0: 1e1d 6e3c 7850 573d 7858 80bd 6823 423c
000000c0: 4e13 8b3d f069 52bd e66f af3c e0bb f63b
000000d0: 2957 47bd b659 91bd 40d7 5dbc ba4f e2bc
000000e0: 8b60 b13d b3c4 893d 9db2 833d 1868 d23c
000000f0: e891 f2bc 1598 9b3d b8bc a93d caab 873d
00000100: ca1c 6536 a83d f53c 93d4 8ebd 38d3 3dbc
00000110: 3883 b1bd caf2 4d3c c090 d93c 7426 b7bc
00000120: a72b a4bd 48e9 153c a07e 30bc 512c 06bd
00000130: 9d39 8e3d eaaf 82bd 0728 993d 61e2 9c3d
00000140: f6bd 483c b67f 25bd f696 ca3c 7443 99bb
00000150: 90e9 aebd a6c2 a43d f9cd a63d 4181 56bd
00000160: 57b1 43bd 9ac0 29bb 3876 b3bd c4da 553d
00000170: 0ab7 d4bc b6bb 663d 2dea c3bc 386d a0bd
00000180: 3527 bf3d 7e3c 5e3d 3d9e 893d c6d3 8bbd
00000190: c6aa 093d 800c b2bd 0424 1ebd ce1d 56bc
000001a0: fc61 86bd 3bc6 ad3d 8d9d 7f3d 4ccf 203e
000001b0: 595a 03bd a23d 6dbd 3a53 463d a4b5 af3d
000001c0: 860c 28bc 04db 20bd b2ba aabd 868d acbd
000001d0: 8a99 a9bd 1f31 afbd c422 983d 4a43 913d
000001e0: 381b 5b3c 007b 2d3c 367a 3abd d1e5 333d
000001f0: 69dd c93a 06b0 9f3d ac3b 963d 7a23 6f3c
00000200: 8a6c 443d d2fc 693d 62ab 99bd fe3f c53d
00000210: 4f0c 3bbd 63b7 b4bd b7d2 063d 466e c83d
00000220: 4db0 3a3c a70b cd3d 307c 1cbd dc68 a3bd
00000230: 540d 9c3c 853f 903c 8a9c 80bc 0439 b73c
00000240: 9ba7 5f3d 27fd 84bd 3e4c 0f3d de84 c4bc
00000250: ce51 de3d 52d0 483c 005e 71bd 0e9b b73d
00000260: 9273 aa3d 4df0 02bc 41e6 86bd f7fd 163d
00000270: 3490 ce3c 5390 823d 2b90 953d 3201 a93c
00000280: 3da0 82bc 6838 df3d c4fe 813c f41f 26bc
00000290: 2be2 3f3d 13c0 06bb bcd5 88bd 5c14 63bd
000002a0: e221 8dbd 22a6 3dbc 2730 b3bd c6ce 063d
000002b0: fe1d 3ab9 9224 453d da2f 023d 5547 93bd
000002c0: 349e d4b9 b476 ac3d 8a65 833d 0cfe 99bc
000002d0: 7444 81bc 4654 01bd d36f 24bd ce26 49bd
000002e0: 1006 cc3d d0b2 13bd 11ee 97bd 0009 863c
000002f0: 0cfd 8ebc 4228 733d 15a9 15bd 86b0 b13c
00000300: c3c1 a53d e217 a2bd a7c8 e039 6dec 823d
00000310: 6e16 3a3d 701c 853d deb8 f3bc 4189 893d
00000320: a0db e63c 3a2f 483d 3b09 03bd 20d3 83bb
00000330: 4bc8 a23d 2469 813d c2a1 863d d688 febc
00000340: 99d5 c2bc 8e36 95bd 145a d93c 232d 763d
00000350: 5588 a2bd e828 9b3d d10c 8f3d 6dcd b2bd
00000360: b42f 963d 3eb0 463d 9d46 afbd 18f7 933c
00000370: 78e6 ae3b 40aa 8c3d a449 f7bc a5fc 44bd
00000380: dc9d 833d f45f 9b3c cd0f 8a3d 5cef b73c
00000390: b013 d4bb 481a 71bd 262e 4e3d 9be2 15bb
000003a0: 0483 af3d 3b9f a03d 9331 8a3d 44ff d23c
000003b0: 706c 58bc a8ba f7bc d8d7 7abd 9ad3 1c3d
000003c0: 4b3d 04bd 98c6 7c3b f8a7 8cbb d22e 633d
000003d0: 15b4 02bd 4fb8 163b 8ce8 b23c 1922 893d
000003e0: 652e f53d 50ff df3c 0244 d43c d56e fe3c
000003f0: 2dda 49bd 3945 3dbd a222 e7bc fac6 043d
0.020503461 0.06824645 -0.0069203586 -0.0044309217 -0.006640985 -0.0071103983 0.041118525 0.06433459
-0.07427372 0.07566114 -0.021416489 -0.08250993 -0.0637077 0.062323112 -0.0118766315 0.0335844
0.0494541 -0.04863032 -0.062906004 0.06492973 0.09625335 -0.022369731 0.02901446 0.04640862
-0.050327267 0.0024028765 -0.04025238 -0.062092677 -0.0514146 -0.0017114494 0.028310731 -0.02529874
0.027482927 -0.029167607 -0.0023872107 0.05083756 0.07985945 0.022653356 -0.061405934 -0.072766215
0.08942396 -0.010878492 -0.03397485 0.07651477 0.014533309 0.052566975 -0.06266874 0.011849262
0.067907915 -0.05137056 0.021415662 0.0075297207 -0.048667107 -0.07097189 -0.013540089 -0.027625907
0.08660992 0.067269705 0.06430552 0.025684401 -0.02961059 0.07597367 0.08287948 0.06624563
3.4140417e-06 0.029936627 -0.06974139 -0.011586003 -0.08667606 0.012570092 0.02655828 -0.022357203
-0.080161385 0.009149857 -0.010772377 -0.032757107 0.069445826 -0.06381209 0.07478338 0.07660366
0.0122523215 -0.040404998 0.024730187 -0.0046772305 -0.08540642 0.08044939 0.08144755 -0.05236936
-0.047776546 -0.0025902153 -0.08762783 0.052210584 -0.025966186 0.05633136 -0.023915375 -0.07833332
0.0933365 0.05425691 0.06719635 -0.06827502 0.033610128 -0.086937904 -0.038608566 -0.013068629
-0.06561658 0.08485075 0.06240611 0.15704077 -0.032068584 -0.057920106 0.048419215 0.08579567
-0.010256892 -0.03927137 -0.083363906 -0.08425431 -0.082812384 -0.08554291 0.07428506 0.070929125
0.013373189 0.0105884075 -0.045526706 0.043920342 0.0015401068 0.07797246 0.073356 0.014595861
0.047955073 0.057125874 -0.07503392 0.09631346 -0.045666035 -0.08824041 0.032915797 0.09786658
0.011394572 0.10011988 -0.038204372 -0.07978985 0.019049324 0.017608413 -0.015699644 0.022366054
0.0546032 -0.064935975 0.03498482 -0.023989137 0.10855447 0.012256699 -0.058927536 0.08965121
0.083228245 -0.0079918625 -0.06586886 0.036863293 0.025215246 0.06375184 0.073028885 0.020630453
-0.015945548 0.108994305 0.015868552 -0.010139454 0.04684655 -0.0020561262 -0.066813916 -0.055439338
-0.06891228 -0.011575254 -0.08749419 0.03291204 -0.00017749515 0.04813058 0.031783916 -0.0719134
-0.00040553662 0.08421078 0.064158514 -0.018797897 -0.015779711 -0.03157451 -0.040145706 -0.049109273
0.09962094 -0.0360592 -0.074184544 0.016361713 -0.017454647 0.059364565 -0.036538202 0.021690618
0.08093598 -0.079147115 0.00042874107 0.06392751 0.045431547 0.06499565 -0.029751237 0.06715632
0.028180897 0.048873164 -0.031991225 -0.004022971 0.07948359 0.06318882 0.065738216 -0.031071108
-0.023783492 -0.07285796 0.02653221 0.06010164 -0.079361595 0.075761616 0.069848664 -0.08730588
0.073333174 0.04850792 -0.0855839 0.01806216 0.0053375326 0.0686841 -0.030186482 -0.048092503
0.06426594 0.018966652 0.06741295 0.022453003 -0.0064720735 -0.058862954 0.05033698 -0.0022870663
0.08569911 0.07842871 0.06747737 0.025756486 -0.013209447 -0.030240372 -0.061241 0.038287736
-0.032285016 0.003857052 -0.0042924844 0.055464573 -0.03191002 0.002299804 0.021839403 0.06695957
0.1197174 0.027343422 0.025911335 0.031058708 -0.049280334 -0.046208594 -0.028214756 0.03241632
