model_epoch_1000.pt (torch, 559478 bytes, 10 tensors)

encoder.lstm.weight_ih_l0 f4 [512, 5]
-0.05549051 -0.03289455 -0.053712796 -0.05628815 -0.06830022 0.0375349 0.06177315 -0.050694972
0.022964625 -0.035254028 0.036376417 -0.082825534 -0.030181695 -0.027386695 -0.06595647 -0.037060365
0.05942429 0.05438123 0.08445201 0.0033657625 0.0046446375 0.013454566 -0.012006378 0.111942135
-0.0733976 0.06775825 0.07295291 0.032096453 -0.039786562 0.025066473 -0.014564861 0.08291206
0.0134604145 0.0244198 0.079637356 -0.02457903 -0.056212455 0.0017707702 -0.08039282 -0.037923016
-0.05339154 0.06669519 -0.09546814 0.060387686 -0.0043863356 0.06606452 0.06964746 0.05467995
-0.058257375 -0.021961704 -0.012233228 0.04802516 0.069270775 0.0033625015 0.025006033 -0.003476856
0.07335733 -0.023391347 0.06446937 -0.059125908 -0.07209012 -0.04813425 -0.05732692 0.057084583
0.08159175 0.08453671 0.1023856 -0.040444195 -0.063735686 -0.04888852 -0.060704816 0.09884135
0.02389338 0.07040735 0.06975194 -0.036116846 0.002407433 0.05462873 -0.028768307 0.025435746
0.0276938 -0.013508789 0.051071458 0.057226904 0.024694562 0.027660184 0.015390996 -0.045838416
-0.0003545477 0.012437843 -0.027087454 -0.026334561 0.062769696 -0.0015403973 0.024431497 -0.062730886
-0.013511086 0.004502981 -0.08413259 0.08625833 0.09572777 0.038507666 0.017251413 -0.017201934
-0.0070708394 -0.04391303 0.016214164 -0.08609934 0.03848751 -0.07987243 0.04732628 0.056527093
-0.052990146 0.08225657 -0.03630247 -0.06353074 -0.006382279 -0.033186927 0.071335375 -0.053678457
-0.10208026 0.018737074 0.020521276 0.012053169 0.036212005 0.034022644 -0.056069322 0.05752758
0.069509074 -0.014760666 0.0003891386 0.0712879 -0.019666389 0.07547827 0.08346266 0.031012803
-0.04556907 -0.08149194 0.0015316741 -0.061962955 0.0419771 0.07397016 0.07073235 -0.0081718415
0.086746596 -0.043675046 0.03404374 0.04322898 0.005151174 -0.05538826 -0.03318929 0.07617827
-0.025725573 0.0018524856 -0.075680315 -0.04855501 0.064938545 -0.026541507 0.07507132 -0.006389834
-0.018707113 0.066713996 0.03533544 0.013835342 0.016876802 0.011986183 -0.034710642 -0.034815494
-0.040369328 -0.011331178 0.07801299 0.025968738 -0.015615657 0.0010778466 0.05736076 0.14029408
0.0070749335 0.0091387145 0.13210332 -0.038163055 -0.06343819 0.0344332 -0.037766986 -0.069760025
0.0739624 -0.054071 -0.023423873 -0.07639756 -0.04631569 0.039604075 -0.053657558 -0.02883347
-0.03629261 0.059075054 0.07535418 -0.03095005 -0.012912042 0.03833768 0.07272969 -0.0107873455
0.021762125 0.012750961 0.052381657 0.050324954 0.03350798 0.076863416 0.07883584 -0.075975046
0.05915644 -0.06864691 0.03210653 0.088237286 0.06260058 -0.074799985 0.017407425 0.09750193
0.018169504 0.0067205946 0.14890772 -0.06995446 0.07759189 -0.0014887974 0.00021880865 -0.01924467
0.05353854 -0.016984215 0.012143009 -0.0028641338 0.07687986 0.07191578 0.05937971 0.049408518
0.22132209 0.053071372 0.0050391406 -0.04156692 0.0020685047 -0.08738114 -0.04204364 0.03465443
-0.013924145 -0.07202158 -0.013143026 -0.05165767 -0.020673692 0.010082311 0.07407184 0.028916799
-0.0077220877 0.08341997 0.040562503 -0.07975705 0.05467146 -0.071335614 0.035854794 0.06297662
00000000: 044a 63bd 70bc 06bd f301 5cbd 678e 66bd
00000010: fce0 8bbd 32be 193d d805 7d3d 88a5 4fbd
00000020: 4f20 bc3c 8766 10bd 70ff 143d 6fa0 a9bd
00000030: 9a3f f7bc 105a e0bc 3014 87bd 9ccc 17bd
00000040: e266 733d dabe 5e3d 2df5 ac3d 2094 5c3b
00000050: 0b32 983b 8a70 5c3c 66b6 44bc eb41 e53d
00000060: 7b51 96bd d6c4 8a3d 5668 953d 9277 033d
00000070: 3cf7 22bd 3458 cd3c 74a1 6ebc cccd a93d
00000080: 1289 5c3c 080c c83c e918 a33d f659 c9bc
00000090: 083f 66bd 3019 e83a fea4 a4bd 2a55 1bbd
000000a0: 16b1 5abd 7d97 883d cd84 c3bd 1459 773d
000000b0: 40bb 8fbb d64c 873d 54a3 8e3d 15f8 5f3d
000000c0: 499f 6ebd 08e9 b3bc e16d 48bc 08b6 443d
000000d0: d6dd 8d3d 6a5d 5c3b 74d9 cc3c f7db 63bb
000000e0: 5e3c 963d 369f bfbc 8408 843d 022e 72bd
000000f0: fca3 93bd 6b28 45bd a2cf 6abd 86d1 693d
00000100: 9319 a73d 9521 ad3d 8baf d13d d0a8 25bd
00000110: db87 82bd 543f 48bd 9da5 78bd 556d ca3d
00000120: 0dbc c33c bb31 903d 1bda 8e3d 42ef 13bd
00000130: 06c6 1d3b 60c2 5f3d 83ab ebbc a05e d03c
00000140: 1cde e23c f853 5dbc 4e30 513d c266 6a3d
00000150: 404c ca3c 9c97 e23c 842a 7c3c 10c1 3bbd
00000160: 96e2 b9b9 18c8 4b3c 82e6 ddbc 94bb d7bc
00000170: 668d 803d 28e7 c9ba 9024 c83c 0d79 80bd
00000180: 9a5d 5dbc be8d 933b b54d acbd 35a8 b03d
00000190: ec0c c43d 37ba 1d3d d652 8d3c 12eb 8cbc
000001a0: 80b2 e7bb 26de 33bd 91d3 843c da54 b0bd
000001b0: 14a5 1d3d 2894 a3bd 34d9 413d f488 673d
000001c0: 320c 59bd 2276 a83d e6b1 14bd 681c 82bd
000001d0: 7022 d1bb 04ef 07bd 4818 923d f1dd 5bbd
000001e0: 750f d1bd 7e7e 993c 3c1c a83c a87a 453c
000001f0: 0a53 143d 545b 0b3d f2a8 65bd 0aa2 6b3d
00000200: c65a 8e3d b8d6 71bc 4c05 cc39 64ff 913d
00000210: 681b a1bc 5a94 9a3d 79ee aa3d 900e fe3c
00000220: a2a6 3abd 3fe5 a6bd 74c2 c83a decc 7dbd
00000230: 2ef0 2b3d ab7d 973d 1fdc 903d 30e3 05bc
00000240: 33a8 b13d 9be4 32bd 7371 0b3d df10 313d
00000250: 2ecb a83b cdde 62bd 7ef1 07bd 5a03 9c3d
00000260: 70be d2bc 1acf f23a 48fe 9abd 9ee1 46bd
00000270: 80fe 843d 936d d9bc febe 993d d061 d1bb
00000280: a93f 99bc 59a1 883d e5bb 103d a1ad 623c
00000290: 3841 8a3c b261 443c bf2c 0ebd b19a 0ebd
000002a0: 4f5a 25bd 68a6 39bc 46c5 9f3d 64bc d43c
000002b0: d0d8 7fbc 8846 8d3a 1ef3 6a3d 40a9 0f3e
000002c0: d8d4 e73b 8cba 153c 1846 073e dd50 1cbd
000002d0: e2eb 81bd d409 0d3d 8eb1 1abd 58de 8ebd
000002e0: 9979 973d 8e79 5dbd 6ce3 bfbc 5376 9cbd
000002f0: 85b5 3dbd e237 223d 07c8 5bbd 2b34 ecbc
00000300: 8fa7 14bd aff8 713d 4b53 9a3d f68a fdbc
00000310: 088d 53bc f907 1d3d 4ef3 943d 68bd 30bc
00000320: 7c46 b23c 68e9 503c 268e 563d 8a21 4e3d
00000330: aa3f 093d 916a 9d3d af74 a13d ce98 9bbd
00000340: 064e 723d c096 8cbd 2382 033d c0b5 b43d
00000350: bc34 803d bc30 99bd 049a 8e3c 18af c73d
00000360: 36d8 943c 6f38 dc3b 447b 183e 4944 8fbd
00000370: 7fe8 9e3d c023 c3ba 0070 6539 00a7 9dbc
00000380: 3a4b 5b3d 7b22 8bbc 79f3 463c 31b4 3bbb
00000390: 3073 9d3d 9548 933d 2438 733d 9660 4a3d
000003a0: 42a2 623e 5e61 593d 601f a53b 1342 2abd
000003b0: c08f 073b e2f4 b2bd f435 2cbd cef1 0d3d
000003c0: 1922 64bc 0d80 93bd d955 57bc fe96 53bd
000003d0: e05b a9bc 4730 253c fab2 973d ece2 ec3c
000003e0: 9109 fdbb 17d8 aa3d de24 263d aa57 a3bd
000003f0: 2eef 5f3d 6818 92bd 7adc 123d e3f9 803d

encoder.lstm.weight_hh_l0 f4 [512, 128]
0.08492135 0.03887575 0.042792626 0.076363675 -0.028768301 0.041947596 -0.03588703 0.0491798
0.08408358 0.013108693 -0.028015696 0.072252534 0.06531557 -0.061840385 -0.023776911 -0.057698116
-0.017242014 -0.040951952 0.010500416 0.023277074 0.004058078 0.009012587 -0.012652896 0.026622333
0.021233812 0.07118302 -0.08373168 0.061946176 -0.0618171 -0.06040056 0.041203268 0.06221991
0.04566615 -0.07083097 0.004046887 -0.063187756 0.079638235 0.0022188947 -0.030734207 -0.037666447
0.018362895 -0.032609016 -0.07412979 -0.039951902 0.062556006 0.06867582 -0.008075483 -0.08806688
-0.08137292 0.078870066 0.020193681 -0.029873285 -0.031992473 0.031256907 -0.023010015 -0.070886165
-0.045687202 0.08561138 0.055848204 -0.06987102 -0.07272817 -0.034688603 0.011153594 0.07399403
0.07772473 -0.07689526 -0.026282754 0.08565975 -0.0067644864 0.07083068 -0.055040803 -0.04480092
0.01741103 -0.017326266 -0.015475415 0.06814968 -0.0153776705 0.021458067 0.07281651 0.00031484663
0.039466076 0.034541562 -0.028888933 0.055149905 0.03637983 -0.009158984 -0.07427902 0.06857509
-0.020434797 -0.08784073 -0.07096818 -0.032272168 0.043679394 0.023295581 0.08300861 0.037971802
-0.0162348 0.037874512 0.006964296 -0.071830906 -0.036482744 0.07093652 -0.033027925 0.036701955
-0.011877373 -0.025360398 0.027396105 -0.055178296 0.036759727 0.057498 0.041532658 -0.047937572
0.044989564 -0.010222718 0.032875612 -0.027256262 0.011232242 -0.061203174 0.08124144 0.0012009814
-0.058354072 0.08565565 0.056364514 -0.053464003 0.028267324 -0.05452368 0.042049326 0.025217116
-0.027597155 0.041398294 0.06433009 -0.065710224 -0.044533677 -0.05221598 -0.0122336 -0.017759621
-0.069572434 -0.048382863 -0.07615976 0.018462196 0.0018463902 -0.084819406 -0.014914063 0.004745585
-0.070699856 -0.021051034 0.04624457 -0.076397 0.025144465 0.08613131 -0.028377682 -0.07456989
0.049398743 -0.02417802 -0.08182463 0.028231643 0.017257795 0.02849362 -0.048408024 0.05687014
-0.045507215 -0.059011508 -0.07691942 0.007893041 -0.012948051 0.10724512 -0.022566564 0.057569437
0.06570952 -0.07010322 0.020642273 -0.051350065 0.010829176 0.044432655 0.0221669 -0.0608903
0.059334554 -0.046984166 -0.07127258 -0.0316385 -0.06811342 -0.03468326 0.01886873 -0.0083917305
-0.050868705 0.025349736 0.011219062 -0.02176169 -0.019487426 0.04188233 -0.028889507 -0.029835027
0.07482662 -0.04899235 -0.08543201 0.0872928 -0.01730737 0.015271477 0.031542554 0.0023628399
0.017927445 -0.025735494 0.06736853 0.068138815 -0.02400732 -0.0019122139 0.0024271354 0.023265965
0.0049704537 -0.068949945 0.029034227 -0.031503208 -0.038746372 -0.019147646 0.026615646 0.07049378
-0.021496028 0.09357518 0.077161826 0.018229716 -0.056395613 -0.011196867 0.007800594 -0.062339194
0.06014937 0.033403642 -0.040044036 0.081509985 0.09582363 -0.07293632 0.028069548 0.062425785
0.08726288 0.05141879 -0.012651272 0.065933846 0.00056717655 0.0001001209 -0.033848904 -0.00064887106
0.02924981 -0.06983264 0.06396393 -0.011088848 -0.018158179 -0.076074526 -0.045124054 -0.033944644
-0.012066968 0.0035669447 -0.039730206 -0.004793465 -0.10216756 0.017809048 -0.03832081 0.037175104
00000000: 3feb ad3d 2e3c 1f3d 5247 2f3d 8f64 9c3d
00000010: 80ab ebbc 3ed1 2b3d 47fe 12bd c270 493d
00000020: 0334 ac3d d8c5 563c 2c81 e5bc 23f9 933d
00000030: 2bc4 853d 584c 7dbd ccc7 c2bc dc54 6cbd
00000040: 203f 8dbc 3cbd 27bd f009 2c3c 90af be3c
00000050: a0f9 843b 88a9 133c 184e 4fbc 1417 da3c
00000060: 88f2 ad3c 67c8 913d 847b abbd 46bb 7d3d
00000070: ed33 7dbd 9466 77bd c2c4 283d 4eda 7e3d
00000080: 6e0c 3b3d d40f 91bd c09b 843b 9568 81bd
00000090: 5f19 a33d e06a 113b 4ec6 fbbc 2248 1abd
000000a0: c86d 963c 0891 05bd 5cd1 97bd 9ba4 23bd
000000b0: 5d1d 803d e9a5 8c3d 084f 04bc 695c b4bd
000000c0: d8a6 a6bd a186 a13d 386d a53c d2b8 f4bc
000000d0: 8a0a 03bd 3e07 003d 807f bcbc c42c 91bd
000000e0: 8122 3bbd 0555 af3d 16c1 643d 8a18 8fbd
000000f0: 82f2 94bd a315 0ebd 90bd 363c 2f8a 973d
00000100: 252e 9f3d 437b 9dbd ee4e d7bc 616e af3d
00000110: a0a8 ddbb ad0f 913d 7772 61bd 2b81 37bd
00000120: 94a1 8e3c d0ef 8dbc 988c 7dbc 0f92 8b3d
00000130: a0f2 7bbc d4c8 af3c d320 953d 0012 a539
00000140: 2ea7 213d 747b 0d3d 7ca8 ecbc dee4 613d
00000150: 0403 153d 900f 16bc 991f 98bd 1971 8c3d
00000160: e066 a7bc d7e5 b3bd c457 91bd d22f 04bd
00000170: 2ae9 323d 60d6 be3c 6b00 aa3d 5288 1b3d
00000180: d8fe 84bc 4e22 1b3d c034 e43b 151c 93bd
00000190: ee6e 15bd 2b47 913d 4a48 07bd ca54 163d
000001a0: 5099 42bc 9cc0 cfbc cc6d e03c a302 62bd
000001b0: 5e91 163d 0683 6b3d 261e 2a3d 305a 44bd
000001c0: fa46 383d 307d 27bc 94a8 063d 8648 dfbc
000001d0: 7007 383c 2eb0 7abd e961 a63d 406a 9d3a
000001e0: ae04 6fbd 3b6c af3d 7ade 663d 12fd 5abd
000001f0: e090 e73c 3954 5fbd ea3b 2c3d 2094 ce3c
00000200: 6e13 e2bc 4291 293d 7fbf 833d 1593 86bd
00000210: f268 36bd 6ce0 55bd 706f 48bc a07c 91bc
00000220: fe7b 8ebd 1c2d 46bd a6f9 9bbd 083e 973c
00000230: 9302 f23a ccb5 adbd 1d5a 74bc da80 9b3b
00000240: 16cb 90bd 3873 acbc f26a 3d3d 0876 9cbd
00000250: c4fb cd3c 9d65 b03d 5078 e8bc 19b8 98bd
00000260: 5656 4a3d fc10 c6bc ac93 a7bd 0c46 e73c
00000270: 3860 8d3c 746b e93c 7e47 46bd aaf0 683d
00000280: c665 3abd 0db6 71bd ee87 9dbd d051 013c
00000290: 1024 54bc 54a3 db3d 84dd b8bc eecd 6b3d
000002a0: b692 863d 4792 8fbd fc19 a93c 7254 52bd
000002b0: db6c 313c 04ff 353d 5c97 b53c 1b68 79bd
000002c0: ca08 733d 7872 40bd 5cf7 91bd 5f97 01bd
000002d0: 0c7f 8bbd 0910 0ebd 9892 9a3c 787d 09bc
000002e0: b45b 50bd 40aa cf3c 28d0 373c 9245 b2bc
000002f0: 18a4 9fbc ce8c 2b3d b0a9 ecbc 9668 f4bc
00000300: b33e 993d 34ac 48bd faf6 aebd 91c6 b23d
00000310: 30c8 8dbc 3835 7a3c c432 013d e0d9 1a3b
00000320: 94dc 923c 3ed3 d2bc 83f8 893d 5d8c 8b3d
00000330: 00ab c4bc 40a3 faba 9310 1f3b 4498 be3c
00000340: 30df a23b a135 8dbd 30d9 ed3c 8209 01bd
00000350: 84b4 1ebd 86db 9cbc 0e09 da3c 0b5f 903d
00000360: 7018 b0bc 58a4 bf3d 0507 9e3d 7c56 953c
00000370: 16ff 66bd 1073 37bc 209c ff3b 6257 7fbd
00000380: 305f 763d 42d2 083d 3705 24bd b5ee a63d
00000390: 2e3f c43d a35f 95bd 1cf2 e53c 2eb2 7f3d
000003a0: e1b6 b23d 829c 523d 4847 4fbc 5308 873d
000003b0: 93ae 143a 00f8 d138 26a5 0abd 0019 2aba
000003c0: 4c9d ef3c 6a04 8fbd 85ff 823d 00ae 35bc
000003d0: 76c0 94bc f6cc 9bbd 00d4 38bd 8a09 0bbd
000003e0: 88b4 45bc 67c3 693b 24bc 22bd 8012 9dbb
000003f0: 3a3d d1bd 48e4 913c 48f6 1cbd ec44 183d

encoder.lstm.bias_ih_l0 f4 [512]
0.077756815 0.11179979 -0.013980359 0.037460424 0.00974286 -0.04457777 0.032292195 -0.05968862
-0.06369084 -0.028769165 0.052638017 0.03145122 -0.08806627 -0.019118054 -0.034336008 0.012076871
-0.08698995 -0.033613667 -0.025329446 0.045851707 0.0039418186 -0.06980327 0.080737874 0.007806457
-0.07574494 0.059573457 0.057507835 0.038299456 -0.045080364 -0.079495475 -0.019025238 0.057660453
0.013193402 -0.059121013 0.087789066 0.12019183 -0.031357434 0.014271207 -0.026562154 0.07779156
-0.008411638 0.0037317052 -0.022026386 -0.06191896 0.004593171 0.06482988 0.106725805 0.06917954
0.05749421 -0.008480043 -0.06529756 -0.007751882 0.08763746 -0.051000226 0.1399715 -0.045877527
-0.012577478 -0.07801023 0.0067142174 0.039390795 -0.07711616 -0.07233724 0.056998603 -0.034408472
-0.042039577 0.066499025 0.048012145 -0.02560383 -0.031723514 0.053615507 -0.05561976 -0.040332194
-0.014972247 -0.01377546 0.0820306 -0.07953574 -0.03789884 -0.039038014 -0.057207998 0.04748372
0.07948898 0.05246859 0.06672887 -0.035526447 0.01701397 -0.021607984 0.036929164 0.07150625
0.08073703 0.0037361153 -0.021218443 0.086997345 0.02324127 0.045009416 -0.016626958 -0.06340609
0.080492675 0.005192116 -0.01582274 0.08117259 -0.037804537 -0.08298236 -0.0051226323 -0.07716124
0.00062635506 -0.034755502 0.12049358 -0.011690676 0.07530935 0.0699459 0.028066419 0.1078219
0.021675617 0.0776576 -0.06407952 -0.06408885 -0.04456374 0.0041055707 0.03389296 0.07648677
0.06578747 -0.0070872456 0.017380917 -0.045283295 -0.018043756 -0.058362134 0.015493035 0.050012834
0.081326045 0.0040869713 0.010924861 0.018668514 -0.010304958 0.054658286 -0.087234646 0.07183502
-0.0030832961 -0.055029444 -0.09030697 -0.029545162 0.06918322 0.013471007 0.019346694 -0.033285078
0.0578062 -0.009083606 0.063810244 0.037911616 -0.018838085 -0.016347528 -0.05497361 -0.069982335
0.07069043 -0.0037648603 0.0380828 0.002556786 -0.045515686 0.059038244 0.047184102 0.0029197633
0.07162115 -0.07587372 0.034748606 0.07356683 -0.024474218 -0.059750974 -0.07388472 -0.083036676
-0.08466699 0.070267506 -0.068234354 0.07965233 -0.08043168 -0.013464905 0.08497513 0.06677062
-0.04326123 0.06054765 -0.038559645 0.016492188 -0.087719426 0.0296463 0.026790127 0.035229504
0.07468242 -0.051458005 0.07578715 0.019545173 0.08800144 -0.05195873 -0.028144363 0.057279848
-0.022446759 -0.03715217 0.061448194 0.07245106 0.050918855 0.01721976 0.045771487 0.06780148
0.019812904 0.01770404 -0.043273896 -0.017337896 0.07872214 0.059429742 -0.010842662 -0.061693396
-0.05971245 0.055636935 0.06884486 0.076787464 -0.035089538 -0.03627153 0.040378325 0.087457664
-0.011420593 -0.030836126 0.074795805 -0.055901535 0.061486237 -0.003960684 0.01615633 -0.017379366
0.059889846 -0.013660209 0.071196176 0.0241623 -0.012420038 -0.027998423 0.06583922 0.042433612
0.0399455 -0.061024 0.019785382 -0.054990195 0.09477998 0.0026001558 0.0064260354 -0.08692421
0.014053412 -0.029797528 0.049548768 0.025449062 0.010014301 0.039829947 0.007441229 -0.030053727
0.012074664 -0.0030185804 0.084742606 0.04361362 -0.06413661 -0.059356365 -0.044917308 -0.020107344
00000000: f73e 9f3d 4af7 e43d e00d 65bc 1a70 193d
00000010: 84a0 1f3c 2e97 36bd d244 043d 0e7c 74bd
00000020: 5870 82bd 50ad ebbc f69a 573d ffd2 003d
00000030: 175c b4bd 779d 9cbc eaa3 0cbd 11de 453c
00000040: c927 b2bd 7cae 09bd b37f cfbc 00cf 3b3d
00000050: 5f2a 813b 04f5 8ebd e659 a53d 4fcd ff3b
00000060: 2a20 9bbd 4c03 743d 568d 6b3d e4df 1c3d
00000070: 30a6 38bd 86ce a2bd d1da 9bbc 5e2d 6c3d
00000080: 2429 583c e028 72bd c1ca b33d 2227 f63d
00000090: a770 00bd c8d1 693c e098 d9bc 2e51 9f3d
000000a0: f8d0 09bc a08f 743b ae70 b4bc bc9e 7dbd
000000b0: 5082 963b 87c5 843d 0f93 da3d 01ae 8d3d
000000c0: 0c7f 6b3d e1ef 0abc baba 85bd 8003 febb
000000d0: 457b b33d 9de5 50bd b054 0f3e 13ea 3bbd
000000e0: c411 4ebc d4c3 9fbd f002 dc3b 3e58 213d
000000f0: 14ef 9dbd 8c25 94bd 5e77 693d e6ef 0cbd
00000100: b131 2cbd a430 883d 62a8 443d 20bf d1bc
00000110: 84f0 01bd ef9b 5b3d 8cd1 63bd 5f33 25bd
00000120: 284e 75bc 78b2 61bc a9ff a73d a2e3 a2bd
00000130: d03b 1bbd 53e6 1fbd ef52 6abd 4a7e 423d
00000140: 1ecb a23d 4ee9 563d 25a9 883d 2e84 11bd
00000150: e260 8b3c 3a03 b1bc 0943 173d de71 923d
00000160: 7559 a53d 9dd9 743b 4dd2 adbc aa2b b23d
00000170: 7a64 be3c cb5b 383d 4235 88bc 0ddb 81bd
00000180: 58d9 a43d a022 aa3b b19e 81bc d13d a63d
00000190: eed8 1abd a8f2 a9bd c1db a7bb b606 9ebd
000001a0: fa31 243a c95b 0ebd 57c5 f63d 408a 3fbc
000001b0: ca3b 9a3d cc3f 8f3d 8ceb e53c bad1 dc3d
000001c0: 1091 b13c f30a 9f3d 203c 83bd 0441 83bd
000001d0: 7888 36bd 0688 863b 58d3 0a3d 18a5 9c3d
000001e0: 95bb 863d 203c e8bb 6d62 8e3c fa7a 39bd
000001f0: 80d0 93bc 220d 6fbd 80d6 7d3c 42da 4c3d
00000200: 458e a63d 00ec 853b 30fe 323c b6ee 983c
00000210: 20d6 28bc 5ee1 5f3d 14a8 b2bd 3d1e 933d
00000220: 2011 4abb 8e66 61bd dcf2 b8bd b208 f2bc
00000230: efaf 8d3d 80b5 5c3c f57c 9e3c ef55 08bd
00000240: 32c6 6c3d 68d3 14bc f2ae 823d 3649 1b3d
00000250: 5452 9abc 40eb 85bc 022c 61bd e652 8fbd
00000260: 25c6 903d e0bb 76bb b6fc 1b3d c08f 273b
00000270: a86e 3abd 16d2 713d 1e44 413d 8059 3f3b
00000280: 1cae 923d ae63 9bbd 8e54 0e3d 35aa 963d
00000290: 287e c8bc 70bd 74bd df50 97bd 220f aabd
000002a0: e365 adbd 69e8 8f3d 74be 8bbd c320 a33d
000002b0: 5db9 a4bd e89b 5cbc 7107 ae3d 09bf 883d
000002c0: b032 31bd d000 783d b8f0 1dbd a01a 873c
000002d0: 3ea6 b3bd ccdc f23c f876 db3c d04c 103d
000002e0: 19f3 983d a1c5 52bd 4b36 9b3d 331d a03c
000002f0: 193a b43d add2 54bd 028f e6bc 469e 6a3d
00000300: 44e2 b7bc e02c 18bd 1ab1 7b3d 3961 943d
00000310: 4a90 503d 7410 8d3c e27a 3b3d 81db 8a3d
00000320: ac4e a23c 1008 913c f83f 31bd 3408 8ebc
00000330: 1339 a13d 9a6c 733d 6ca5 31bc 37b2 7cbd
00000340: 0b95 74bd 8ee3 633d 89fe 8c3d bf42 9d3d
00000350: 0cba 0fbd 7591 14bd be63 253d 011d b33d
00000360: 701d 3bbc 0b9c fcbc 8b2e 993d 02f9 64bd
00000370: fed8 7b3d a0c8 81bb 485a 843c 2c5f 8ebc
00000380: 0e4f 753d 12cf 5fbc 4dcf 913d 04f0 c53c
00000390: 6a7d 4bbc f35c e5bc b7d6 863d dece 2d3d
000003a0: e59d 233d 4df4 79bd f414 a23c 663d 61bd
000003b0: 021c c23d 6067 2a3b 7e91 d23b 5205 b2bd
000003c0: 4840 663c f219 f4bc a6f3 4a3d 8d7a d03c
000003d0: 0613 243c ba24 233d 8ed5 f33b 3c33 f6bc
000003e0: d0d4 453c 60d3 45bb 888d ad3d 32a4 323d
000003f0: 0e5a 83bd a91f 73bd 36fb 37bd 28b8 a4bc

encoder.lstm.bias_hh_l0 f4 [512]
0.03869476 0.08574054 0.015407257 0.018988363 0.09675915 -0.035208337 0.07444877 -0.080483936
-0.02374544 0.007157351 -0.031680994 0.09364915 -0.0048142374 -0.011341803 -0.04167319 0.025153574
-0.03029624 0.03535527 -0.03813076 0.065233886 0.061749723 -0.0022966182 -0.031987034 -0.055714156
0.04771123 -0.0011388254 -0.052279852 -0.102897584 -0.0520347 -0.04828474 5.501072e-05 -0.014892455
-0.06456355 -0.062325284 -0.033424556 0.008473601 -0.032337602 0.029793568 -0.08461657 -0.04658003
-0.038683977 -0.081950255 -0.058886584 0.043805264 0.029969461 0.0009272571 0.086043306 -0.056136463
0.008556981 0.03413605 -0.01088871 -0.04547175 -0.06771854 -0.050029024 0.10371331 0.08745811
0.024697639 0.036273465 0.08756088 -0.088035345 0.086566836 -0.04296197 0.0023610592 0.0797108
-0.00931979 -0.08245911 0.04142382 0.067645565 0.08730995 0.03571253 -0.035441894 0.052473105
0.0004247072 -0.07467581 -0.07288932 -0.038138136 -0.04481949 -0.008141754 -0.083521746 0.0011307448
0.06929691 0.06992064 0.04841135 -0.04175403 -0.06809041 -0.0011239866 0.0027704746 0.021366317
-0.016692355 0.020953592 -0.06301321 -0.04936824 0.031514496 0.04021175 -0.04540073 -0.019805796
0.024294578 0.09353228 0.052202117 -0.03146708 0.041183308 0.02442729 -0.011561253 0.036071673
-0.031850744 -0.057176266 0.08213463 -0.044036254 0.031188684 -0.056517024 -0.00075413496 -0.049338773
0.07740545 0.06559109 -0.033288445 -0.08500157 0.050151348 0.07358758 0.06896102 -0.033765204
-0.024801292 0.019976288 -0.07182748 0.066743895 -0.0909552 0.056323677 0.04468268 0.07606571
-0.041090436 0.038076423 0.0008478388 0.06720671 0.041311838 -0.042569533 0.06174733 -0.031576198
-0.032205682 -0.007861897 0.048289806 -0.08643604 -0.036610566 -0.008830763 0.035890445 -0.08636774
0.05852876 -0.059562758 -0.042230908 0.013875142 0.007694036 0.055951096 0.0031287596 -0.009114243
-0.0010723571 0.07195709 0.05060797 -0.010225534 -0.05032576 -0.008940935 -0.062900744 -0.008847833
-0.072127 0.037417196 -0.06444234 -0.046967898 -0.049220428 0.011734083 0.025780566 0.016661733
-0.006086722 0.04156191 0.0775719 -0.03719157 -0.072725505 -0.058868207 0.039549656 -0.006367191
-0.041551176 0.022751525 0.06668637 0.06756941 -0.06514509 0.046047382 0.014676385 -0.085900605
-0.06614074 -0.050302263 -0.06557295 -0.03238134 0.0035725578 -0.052517004 -0.0028089941 -0.07741253
-0.04157485 -0.023294382 0.027024288 0.08493667 -0.03245417 -0.055417806 0.07843942 0.045518912
-0.009775132 0.06809055 -0.009418063 -0.021605246 0.026070789 -0.05948074 0.03961016 0.033794828
0.051311653 -0.0735067 0.08358615 0.011481874 -0.06382404 0.08688281 0.062494062 0.0008623153
-0.004620336 0.072746634 -0.0008730069 0.07390716 -0.00955648 0.056430854 -0.018245146 0.07598326
0.025507297 0.024058815 0.017597191 0.02136705 0.03456423 0.06641723 0.059263505 0.079049505
0.06834689 0.040172286 -0.044116024 0.08691595 0.047184728 0.027380154 -0.04146202 -0.03174668
-0.0421247 0.0055448413 0.029538438 -0.07792492 0.0026290338 0.010263599 0.049661033 -0.022995234
-0.046542186 -0.07296399 -0.007040736 0.0060563087 0.06424554 -0.038568486 0.042472206 0.030450553
00000000: 667e 1e3d bc98 af3d b86e 7c3c 7c8d 9b3c
00000010: a929 c63d 9e36 10bd 9978 983d c3d4 a4bd
00000020: cc85 c2bc 3688 ea3b eec3 01bd 20cb bf3d
00000030: c0c0 9dbb f8d2 39bc 82b1 2abd de0e ce3c
00000040: d22f f8bc b0d0 103d 002f 1cbd 5899 853d
00000050: 47ed 7c3d dc82 16bb d604 03bd 8734 64bd
00000060: da6c 433d a444 95ba 6623 56bd f8bb d2bd
00000070: 5622 55bd 38c6 45bd 50bb 6638 7cff 73bc
00000080: e539 84bd cc48 7fbd 30e8 08bd dcd4 0a3c
00000090: 6f74 04bd a411 f43c 744b adbd b4ca 3ebd
000000a0: 1773 1ebd 89d5 a7bd 0f33 71bd 266d 333d
000000b0: 8482 f53c 2c13 733a 7937 b03d 59ef 65bd
000000c0: 9432 0c3c 3ed2 0b3d 8f66 32bc 9640 3abd
000000d0: 05b0 8abd 3ceb 4cbd a567 d43d 3d1d b33d
000000e0: b452 ca3c 7c93 143d 1e53 b33d e04b b4bd
000000f0: f449 b13d e4f8 2fbd 00bc 1a3b 6a3f a33d
00000100: 08b2 18bc 52e0 a8bd 06ac 293d c289 8a3d
00000110: 8fcf b23d 4d47 123d 852b 11bd 0aee 563d
00000120: 3cab de39 a2ef 98bd ff46 95bd bc36 1cbd
00000130: a494 37bd fe64 05bc 730d abbd 8035 943a
00000140: 8aeb 8d3d 8d32 8f3d fb4a 463d 4606 2bbd
00000150: fc72 8bbd bb52 93ba da90 353b 6a08 af3c
00000160: 68be 88bc dea6 ab3c 120d 81bd 5a36 4abd
00000170: 5815 013d 13b5 243d 1ef6 39bd c43f a2bc
00000180: 6c05 c73c da8d bf3d e3d1 553d a0e3 00bd
00000190: d4af 283d bd1b c83c 696b 3dbc e4bf 133d
000001a0: ed75 02bd a931 6abd 3336 a83d 5c5f 34bd
000001b0: 697f ff3c 657e 67bd 24b1 45ba 7417 4abd
000001c0: c086 9e3d 9f54 863d 7759 08bd 4e15 aebd
000001d0: 806b 4d3d 16b5 963d 6f3b 8d3d 624d 0abd
000001e0: 142c cbbc 50a5 a33c 491a 93bd 06b1 883d
000001f0: b846 babd a8b3 663d 3005 373d 57c8 9b3d
00000200: 724e 28bd 06f6 1b3d 8041 5e3a aca3 893d
00000210: 9a36 293d 645d 2ebd c5ea 7c3d 0b56 01bd
00000220: 1bea 03bd 30cf 00bc 88cb 453d 6105 b1bd
00000230: f6f4 15bd e8ae 10bc dc01 133d 92e1 b0bd
00000240: dabb 6f3d 14f8 73bd 51fa 2cbd 9054 633c
00000250: 401e fc3b fa2c 653d e00b 4d3b e853 15bc
00000260: 558e 8cba 3d5e 933d 4e4a 4f3d 0089 27bc
00000270: 6222 4ebd 007d 12bc 1bd2 80bd 80f6 10bc
00000280: 52b7 93bd c642 193d 58fa 83bd 6961 40bd
00000290: 5c9b 49bd 5040 403c c431 d33c 307e 883c
000002a0: 2073 c7bb d23c 2a3d 04de 9e3d 3056 18bd
000002b0: 1cf1 94bd ca1f 71bd d2fe 213d dfa3 d0bb
000002c0: 9131 2abd 6861 ba3c dd92 883d d561 8a3d
000002d0: ca6a 85bd 2e9c 3c3d 3875 703c a8ec afbd
000002e0: cc74 87bd bf09 4ebd 1c4b 86bd 4ca2 04bd
000002f0: 9321 6a3b 121c 57bd 1a17 38bb 768a 9ebd
00000300: 644a 2abd dcd3 bebc 0a62 dd3c 47f3 ad3d
00000310: aaee 04bd c8fd 62bd d9a4 a03d 0a72 3a3d
00000320: e027 20bc 0f73 8b3d 384e 1abc 7cfd b0bc
00000330: 6892 d53c 14a2 73bd 433e 223d 726c 0a3d
00000340: 2b2c 523d ae8a 96bd 372f ab3d 781e 3c3c
00000350: 2eb6 82bd 9def b13d c6f9 7f3d 000d 623a
00000360: 3066 97bb 30fc 943d 80da 64ba a35c 973d
00000370: c892 1cbc 0a24 673d d876 95bc 1d9d 9b3d
00000380: aef4 d03c fe16 c53c fc27 903c f409 af3c
00000390: 3993 0d3d c205 883d 4abe 723d b5e4 a13d
000003a0: 74f9 8b3d b28b 243d 01b3 34bd fd00 b23d
000003b0: c644 413d 584c e03c 14d4 29bd cf08 02bd
000003c0: f38a 2cbd 80b1 b53b 98fa f13c 1a97 9fbd
000003d0: de4b 2c3b a828 283c 5e69 4b3d 8060 bcbc
000003e0: 05a3 3ebd 256e 95bd f9b5 e6bb 0074 c63b
000003f0: 2a93 833d fdf9 1dbd 56f7 2d3d 7073 f93c

decoder.lstm.weight_ih_l0 f4 [512, 5]
-0.011948481 0.03011936 -0.072894186 -0.021239184 -0.05187632 -0.07421169 -0.07555888 -0.08027852
-0.0017084684 0.009253822 0.032456428 -0.039062716 -0.0672822 -0.03592284 -0.04646259 -0.060246382
0.05615106 -0.028378088 -0.02336317 -0.058210254 0.04622624 0.030302614 0.07923769 0.05762466
-0.03772008 0.08154042 0.045761995 0.07924314 -0.07135643 -0.010597289 0.051379643 0.004028678
0.026347458 -0.02854763 0.07330986 -0.037656743 0.008729481 0.011932828 0.06582108 0.010114528
-0.08626971 0.053738207 0.07220064 0.016204406 -0.051821593 0.024592713 0.011308343 0.088030316
-0.051415518 -0.07972737 0.014834179 0.094098516 -0.06326429 0.06210138 -0.0058915913 -0.046767063
-0.0013798705 0.07035811 0.09461442 0.042700745 0.07981763 0.025805138 0.012854196 0.016498022
-0.08042146 -0.052039824 0.02258478 0.032118976 0.05064013 0.0029894337 -0.04645339 -0.07820104
-0.000473238 -0.033434395 -0.07335018 0.010333945 0.064535975 -0.014294471 0.005824897 -0.044742495
-0.08096183 -0.00503809 0.023726434 -0.048886087 0.05737508 -0.03375776 -0.0098968 -0.047387872
-0.03718433 -0.009650566 -0.045527045 -0.015058681 -0.025719441 -0.026726719 0.06413903 0.07004044
0.097239174 -0.06668147 -0.029024975 0.08709238 0.0066117495 0.06282245 0.06618991 0.09218509
-0.033767905 0.073501565 0.07519717 -0.019888835 0.0064506 -0.010116383 -0.030335635 0.08651658
0.048126698 -0.056404248 0.009781219 0.0022313287 -0.04095895 -0.08037193 0.0045878114 0.034818135
-0.06195831 -0.02976355 0.07311876 0.058798816 0.01780168 0.06568572 -0.07401106 -0.07010248
-0.07205565 0.0352178 -0.03521945 0.038624402 0.002699612 -0.05809992 0.077076636 -0.057278387
-0.04117135 0.016519845 -0.017907143 -0.057916872 0.050274774 0.06482958 -0.025824115 0.03518168
0.013237432 0.018592473 0.0803096 -0.045184985 0.05819071 0.0636769 0.0769813 -0.018111534
-0.024259292 0.04852011 -0.00802654 0.018045869 0.12160181 -0.038473856 -0.01623346 -0.03799964
0.039401285 -0.095398225 -0.030589992 -0.00775701 0.08035294 -0.034924477 -0.011474568 -0.010486778
-0.009963203 0.035281643 0.08957043 -0.029188246 0.07260579 0.00094651093 -0.065682776 0.18926872
0.110287055 0.08431062 0.039107554 0.027788416 0.013260854 -0.013171047 -0.017747492 -0.032988615
0.042083494 0.04763343 0.0454802 -0.035099894 0.08312715 0.009895459 -0.03577652 0.07691018
-0.072785586 -0.030718373 -0.02119919 -0.01222091 0.099945605 -0.037831075 0.08008771 0.07592743
-0.037310578 0.021253508 0.0013540909 0.0159025 -0.05379744 -0.05002018 0.09147896 0.066451564
0.021185407 -0.03853698 0.0020554096 0.010631422 -0.0060526696 0.096870944 0.03307628 0.07864649
-0.048271965 0.027056234 0.020643706 0.06335456 0.07104344 -0.06636235 0.0778741 0.071570255
-0.058818497 -0.026430678 -0.022289842 -0.035802513 -0.010423623 -0.005093828 -0.06063524 -0.097745344
0.05127959 -0.04520431 0.055724807 0.063713275 0.06664821 -0.062333725 0.08029441 -0.04778614
0.069323026 0.06797079 0.0004491806 0.05619044 -0.038407747 0.0579466 -0.080803744 -0.07879957
-0.070880555 -0.08630653 0.029862419 0.01609508 0.07756106 -0.021205321 0.06630585 -0.05949252
00000000: 90c3 43bc e0bc f63c 8c49 95bd ccfd adbc
00000010: 447c 54bd 4cfc 97bd 9dbe 9abd 1169 a4bd
00000020: b0ee dfba 589d 173c 08f1 043d 3a00 20bd
00000030: 40cb 89bd d423 13bd 8f4f 3ebd e9c4 76bd
00000040: a7fe 653d 2a79 e8bc 1e64 bfbc e06d 6ebd
00000050: ba57 3d3d 303d f83c 5f47 a23d d607 6c3d
00000060: 5f80 1abd aafe a63d ee70 3b3d 3a4a a23d
00000070: 5223 92bd 40a0 2dbc 7673 523d 0003 843b
00000080: a0d6 d73c b8dc e9bc 7b23 963d f53d 1abd
00000090: 1906 0f3c e981 433c 34cd 863d 68b7 253c
000000a0: 2cae b0bd 981c 5c3d eedd 933d 1abf 843c
000000b0: e142 54bd a876 c93c a146 393c 3d49 b43d
000000c0: 1499 52bd 1a48 a3bd 0e0b 733c b9b6 c03d
000000d0: b590 81bd 045e 7e3d 400e c1bb d28e 3fbd
000000e0: c5dc b4ba ea17 903d 34c5 c13d fae6 2e3d
000000f0: 6d77 a33d 4c65 d33c 689a 523c dc26 873c
00000100: 02b4 a4bd b627 55bd b703 b93c 308f 033d
00000110: 066c 4f3d 60ea 433b e945 3ebd de27 a0bd
00000120: ee1c f8b9 81f2 08bd 9f38 96bd b54f 293c
00000130: 702b 843d 5b33 6abc c7de be3b e843 37bd
00000140: 51cf a5bd 9016 a5bb f05d c23c c73c 48bd
00000150: 2202 6b3d 9445 0abd 3026 22bc c919 42bd
00000160: 994e 18bd 681d 1ebc 917a 3abd b0b8 76bc
00000170: 94b1 d2bc fef1 dabc 535b 833d 5d71 8f3d
00000180: 5525 c73d 4b90 88bd c9c5 edbc 7d5d b23d
00000190: 60a7 d83b 0fa9 803d 938e 873d 89cb bc3d
000001a0: 3750 0abd fd87 963d f900 9a3d e9ed a2bc
000001b0: 8e5f d33b 30bf 25bc 7082 f8bc 9b2f b13d
000001c0: 8020 453d 2408 67bd 6841 203c 7c3b 123b
000001d0: 92c4 27bd 0a9a a4bd 5a55 963b 769d 0e3d
000001e0: ffc7 7dbd b0d2 f3bc 4abf 953d 07d7 703d
000001f0: d4d4 913c 3c86 863d 1c93 97bd e491 8fbd
00000200: ea91 93bd 8a40 103d 4542 10bd 9f34 1e3d
00000210: f9eb 303b 2ffa 6dbd 5bda 9d3d be9c 6abd
00000220: 4aa3 28bd a054 873c 00b2 92bc 3e3a 6dbd
00000230: ecec 4d3d 5fc5 843d 188d d3bc aa1a 103d
00000240: d0e1 583c 3e4f 983c 5c79 a43d e413 39bd
00000250: 6259 6e3d 0969 823d 5fa8 9d3d a45e 94bc
00000260: 6cbb c6bc 06bd 463d c081 03bc eed4 933c
00000270: 5f0a f93d c396 1dbd 08fc 84bc 83a5 1bbd
00000280: 3e63 213d 2560 c3bd dd97 fabc 842e febb
00000290: 1590 a43d f80c 0fbd d4ff 3bbc bcd0 2bbc
000002a0: b43c 23bc 7c83 103d b470 b73d 301c efbc
000002b0: 58b2 943d 461f 783a b184 86bd a9cf 413e
000002c0: 2ede e13d 0cab ac3d 3e2f 203d 88a4 e33c
000002d0: 0e44 593c 60cb 57bc 3063 91bc 121f 07bd
000002e0: be5f 2c3d 461b 433d 7249 3a3d e8c4 0fbd
000002f0: 913e aa3d 9020 223c 668a 12bd 1683 9d3d
00000300: 9c10 95bd 19a5 fbbc eca9 adbc 363a 48bc
00000310: 48b0 cc3d c2f4 1abd 0605 a43d d77f 9b3d
00000320: fad2 18bd d61b ae3c c07b b13a f645 823c
00000330: b45a 5cbd f6e1 4cbd 5259 bb3d c217 883d
00000340: 058d ad3c f4d8 1dbd 0db4 063b 6a2f 2e3c
00000350: 7955 c6bb 4664 c63d fe7a 073d 6911 a13d
00000360: d3b8 45bd 09a5 dd3c fd1c a93c 09c0 813d
00000370: 397f 913d fce8 87bd 757c 9f3d 6d93 923d
00000380: aaeb 70bd 2685 d8bc 3099 b6bc a8a5 12bd
00000390: d8c7 2abc 20ea a6bb a85c 78bd b62e c8bd
000003a0: 8c0a 523d 2828 39bd b23f 643d 1b7c 823d
000003b0: db7e 883d a651 7fbd 6571 a43d 66bb 43bd
000003c0: 3bf9 8d3d 4534 8b3d 0080 eb39 f227 663d
000003d0: 7151 1dbd 6a59 6d3d 6f7c a5bd ab61 a1bd
000003e0: d329 91bd 7ac1 b0bd 08a2 f43c d4d9 833c
000003f0: 55d8 9e3d c8b6 adbc 5dcb 873d 6eae 73bd

decoder.lstm.weight_hh_l0 f4 [512, 128]
-0.049254335 -0.052642412 0.06782017 0.038439564 -0.06151084 -0.04275131 0.006500624 0.051128857
-0.05633649 -0.03417004 -0.03258767 -0.035655357 0.081112035 0.07315325 -0.077267945 -0.05079985
0.036142386 -0.08542705 0.022616073 -0.037391726 0.04268118 0.036804073 0.012791 0.010088734
0.060539402 0.0672574 -0.057262182 -0.007891998 0.039836206 -0.011842065 -0.018882297 -0.023614988
0.070132844 -0.036946684 -0.004540555 -0.01265458 0.051231436 0.06831286 -0.08831155 -0.02293408
0.07717138 -0.015021272 -0.071758024 0.028837867 0.007423401 -0.008830145 0.032023385 -0.03833671
0.05885794 -0.0871224 0.032166652 -0.019612558 0.011656575 -0.053959493 0.07223729 0.057328217
-0.0100386515 0.012919366 0.009394415 -0.017081134 -0.06160608 -0.021386154 0.05997043 -0.011571102
0.038455047 -0.019278854 -0.000841707 -0.03291264 -0.048449025 -0.07376215 -0.059041444 -0.07586622
0.06814342 -0.028804336 -0.04357416 -0.010271706 -0.049903046 0.05044032 -0.04866314 -0.06395114
0.06329066 -0.049319778 0.046855368 -0.018285304 0.038087882 -0.01865334 -0.039563857 0.04231233
0.02964373 -0.0070865676 0.071075894 0.05574555 0.0043023378 0.020945825 -0.084374525 -0.0013748407
-0.07048528 -0.012255229 0.013495199 -0.06808433 0.071456425 -0.08338093 0.0366245 0.0830305
0.07627135 0.003718719 0.056471072 0.051793285 -0.046376158 0.041302495 -0.055306505 0.034608334
0.061575852 0.059830524 -0.077915885 0.01750283 -0.08608011 0.002954118 0.028299324 0.056564383
0.083021216 -0.058044765 0.014528766 0.01215671 -0.08124294 0.023945197 -0.0646207 -0.028895047
0.059761368 0.07218247 -0.08810118 0.058863185 0.081568025 -0.03964874 0.07732121 0.044204436
0.08453674 0.013893843 0.025118858 -0.04468435 0.08130988 0.061868228 0.028655723 -0.048948757
-0.011996828 0.04644256 -0.0355711 -0.03165947 0.022839189 -0.05176887 -0.018609732 -0.07825497
0.05038605 -0.020462781 -0.0848434 0.044576935 -0.006968774 0.010243833 -0.021596111 -0.07901459
0.0685373 -0.080278195 -0.0059882104 0.05898256 0.057592534 0.085477896 0.0113124475 0.019066729
-0.0304472 0.058231123 0.085270055 -0.03147594 0.029122092 0.019916557 -0.016307734 -0.088316925
0.080748804 -0.06704572 0.027270727 -0.08838413 0.037814178 0.047833942 0.060665734 0.025766991
-0.04696059 -0.08067085 -0.08745035 0.028578356 -0.087923475 0.055239074 -0.087805666 0.046314187
0.07644505 0.083940335 0.052555747 -0.018878713 -0.069437176 0.05181817 -0.062968194 0.021836273
-0.052832916 0.017793126 0.08590909 0.023838311 -0.08490888 -0.056969758 -0.011023454 0.049305372
0.053906582 0.018712185 0.0030841827 0.014171533 -0.034085516 0.06957988 0.04582443 0.019895218
0.057107754 0.0027216226 -0.08242741 -0.082520336 -0.020606741 -0.06179044 -0.044245213 0.025732271
-0.012133174 -0.01649376 -0.010422535 -0.052210566 0.077688284 0.01322367 -0.051973764 0.050452523
0.0534432 -0.074598014 0.03487227 -0.05369105 0.031495325 -0.07995328 0.07007546 0.079982154
0.04854346 0.0052804723 -0.032139774 0.01817979 -0.03234484 0.02896794 -0.035505768 0.045250095
0.040496342 0.07192493 -0.05860866 0.016563341 -0.020138778 -0.07937461 -0.000790067 -0.07811989
00000000: eabe 49bd 929f 57bd 4de5 8a3d ce72 1d3d
00000010: caf2 7bbd ff1b 2fbd 3003 d53b 7e6c 513d
00000020: 17c1 66bd e2f5 0bbd a67a 05bd 5a0b 12bd
00000030: 111e a63d 5fd1 953d a83e 9ebd 8113 50bd
00000040: 0a0a 143d 61f4 aebd 5845 b93c 1128 19bd
00000050: 76d2 2e3d debf 163d 5891 513c 384b 253c
00000060: 2af8 773d 3fbe 893d c08b 6abd 704d 01bc
00000070: 4a2b 233d 3805 42bc 0caf 9abc 3874 c1bc
00000080: cfa1 8f3d 6855 17bd f0c8 94bb 2855 4fbc
00000090: 0ed8 513d 9de7 8b3d b0dc b4bd 40e0 bbbc
000000a0: 070c 9e3d c81b 76bc dff5 92bd 643d ec3c
000000b0: 0040 f33b 50ac 10bc f42a 033d f406 1dbd
000000c0: 0615 713d 3b6d b2bd 2ec1 033d 84aa a0bc
000000d0: 38fb 3e3c a104 5dbd 25f1 933d fed0 6a3d
000000e0: 2879 24bc c0ab 533c 08eb 193c bced 8bbc
000000f0: a856 7cbd 0432 afbc 8ea3 753d b894 3dbc
00000100: 0a83 1d3d b0ee 9dbc 00a6 5cba 68cf 06bd
00000110: 7c72 46bd 9c10 97bd 71d5 71bd c05f 9bbd
00000120: c78e 8b3d 12f7 ebbc d27a 32bd a84a 28bc
00000130: 2367 4cbd 829a 4e3d 0053 47bd d1f8 82bd
00000140: 899e 813d 8903 4abd 6aeb 3f3d 10cb 95bc
00000150: 0a02 1c3d e4ce 98bc b60d 22bd b24f 2d3d
00000160: 68d7 f23c 7036 e8bb 3d90 913d 7255 643d
00000170: a0fa 8c3b 9496 ab3c 8dcc acbd 0034 b4ba
00000180: 965a 90bd 28ca 48bc f81a 5d3c cc6f 8bbd
00000190: bf57 923d 9fc3 aabd 9203 163d e50b aa3d
000001a0: 2734 9c3d c0b5 733b 364e 673d 3225 543d
000001b0: edf4 3dbd ce2c 293d 1389 62bd 78c1 0d3d
000001c0: f636 7c3d da10 753d 5d92 9fbd 1862 8f3c
000001d0: c54a b0bd e099 413b fcd3 e73c 0eb0 673d
000001e0: 0707 aa3d 59c0 6dbd 100a 6e3c f02c 473c
000001f0: b362 a6bd b828 c43c dc57 84bd 4eb5 ecbc
00000200: 56c8 743d 67d4 933d 646e b4bd 861a 713d
00000210: 230d a73d b866 22bd 955a 9e3d b60f 353d
00000220: 9921 ad3d 00a3 633c 10c6 cd3c f006 37bd
00000230: cb85 a63d 8a69 7d3d 68bf ea3c 7e7e 48bd
00000240: 588e 44bc 8e3a 3e3d 00b3 11bd 5cad 01bd
00000250: 4019 bb3c 980b 54bd 7073 98bc 2444 a0bd
00000260: 9a61 4e3d 90a1 a7bc 60c2 adbd 4e96 363d
00000270: 505a e4bb c0d5 273c 54ea b0bc 67d2 a1bd
00000280: 495d 8c3d e568 a4bd c038 c4bb b297 713d
00000290: 26e6 6b3d 090f af3d d857 393c d431 9c3c
000002a0: 686c f9bc c283 6e3d 11a2 ae3d eaec 00bd
000002b0: 7491 ee3c 0c28 a33c cc97 85bc 81df b4bd
000002c0: a15f a53d 444f 89bd dc66 df3c bd02 b5bd
000002d0: 0ae3 1a3d 86ed 433d a27c 783d 4c15 d33c
000002e0: bf59 40bd c236 a5bd 2b19 b3bd 281d ea3c
000002f0: 3911 b4bd 5e42 623d 75d3 b3bd f2b3 3d3d
00000300: 398f 9c3d e9e8 ab3d b244 573d 88a7 9abc
00000310: 1435 8ebd 4a3f 543d 78f5 80bd fce1 b23c
00000320: 5467 58bd e4c2 913c 1bf1 af3d 9048 c33c
00000330: b5e4 adbd 1f59 69bd b89b 34bc 6ef4 493d
00000340: 26cd 5c3d 4c4a 993c 0020 4a3b b82f 683c
00000350: 419d 0bbd e57f 8e3d 66b2 3b3d 4cfb a23c
00000360: d2e9 693d 405d 323b b4cf a8bd 6c00 a9bd
00000370: 78cf a8bc f917 7dbd 783a 35bd 7ccc d23c
00000380: 38ca 46bc ec1d 87bc 48c3 2abc bfda 55bd
00000390: 091b 9f3d 18a8 583c 71e2 54bd 4ea7 4e3d
000003a0: 42e7 5a3d d8c6 98bd 3ad6 0e3d 25eb 5bbd
000003b0: 3e01 013d 8cbe a3bd b983 8f3d afcd a33d
000003c0: 82d5 463d d007 ad3b ffa4 03bd c8ed 943c
000003d0: 067c 04bd 2c4e ed3c 7f6e 11bd 2a58 393d
000003e0: 7edf 253d 614d 933d a20f 70bd d8af 873c
000003f0: 14fa a4bc 288f a2bd 801c 4fba 52fd 9fbd

decoder.lstm.bias_ih_l0 f4 [512]
0.016407259 -0.08347909 0.03984184 -0.0726977 0.0054721013 -0.07793319 0.026343614 0.08236025
-0.034813993 -0.008985695 -0.06048304 -0.03066445 -0.047785085 -0.03902747 -0.03023126 0.0881971
-0.049540564 -0.019288465 -0.058110178 -0.029817889 -0.023470912 -0.009922337 0.09933561 -0.04796658
0.08532284 -0.036435895 -0.08436388 0.07521744 -0.0027612336 -0.02186945 -0.080956765 0.0003890422
0.04787521 -0.0038501546 -0.033314217 0.061888102 0.057297282 -0.080749705 -0.015833352 -0.050895654
0.0036780774 -0.012258384 -0.017051956 -0.019690467 -0.06178926 -0.086084254 -0.03563054 0.07400518
0.05737663 -0.08282305 -0.036340352 -0.044670895 -0.05395229 -0.0878444 0.017197927 0.036302783
0.034639716 -0.05995247 -0.018761875 0.007606767 0.08723916 -0.09523103 0.077915706 -0.08414114
-0.0643697 0.02263768 -0.084644735 0.051390707 -0.0085172355 0.05848737 -0.02425234 -0.0673393
-0.059547618 -0.044165656 0.049600907 0.074495524 -0.041257456 0.022072308 0.023248263 0.08280938
0.08665479 -0.03251029 -0.04903145 -0.069193535 -0.038118653 -0.02646778 -0.034782667 -0.03928104
-0.056161642 0.044559576 0.06680736 -0.024703912 -0.06511974 -0.055428073 0.0029385313 0.04173199
0.085219055 -0.017477378 -0.039069004 0.07066736 -0.08806673 0.0055655837 -0.043961726 -0.033299506
-0.0019815639 -0.06837489 0.011881762 0.011234872 -0.0041121873 0.0042807804 0.032274764 0.046920523
0.065765314 0.05907645 -0.03385178 -0.024869993 0.03982938 0.061088778 -0.024097826 0.06742644
-0.017030805 -0.05174652 -0.07674028 0.042935826 -0.015442401 -0.04265143 -0.038474694 -0.06885958
-0.054030288 -0.08150328 -0.03851282 0.07567154 -0.06463894 -0.044564094 -0.07624484 -0.003712371
-0.06522194 0.053018175 -0.05882266 -0.05923202 -0.025982637 -0.06616143 0.023464872 -0.005932798
0.083928265 -0.030430805 0.07453703 -0.05836907 0.04853622 -0.04075045 0.058211215 0.08643932
0.038309045 0.056626104 0.0112718195 0.0011611804 0.039510693 0.07558788 0.046637647 -0.081385866
0.05724223 -0.0671918 0.009433333 0.121907115 -0.06370119 -0.043269716 0.055660076 0.019958489
0.058620833 -0.037421547 -0.045893174 0.14771038 0.010619037 0.072396554 -0.037852943 -0.08460184
0.07838266 -0.07051593 0.023842156 0.01159291 0.05463923 0.003839705 0.047703996 0.051197592
-0.06805015 0.020295933 -0.013033643 -0.03859939 -0.0025360738 -0.07341234 -0.07415969 -0.0023219958
-0.029164242 0.04134073 0.010864891 0.058390424 -0.058785178 -0.08783175 -0.08310858 -0.06558556
0.08344852 -0.0071303174 -0.032884456 -0.013708495 0.04879318 0.06781804 -0.00094971835 0.029657535
-0.057001516 -0.05120371 0.15288952 -0.06153678 0.02292468 0.03110431 0.09579552 0.022779569
-0.033344164 0.0721067 -0.01995881 -0.062211826 0.06203112 0.07242341 0.013383493 -0.06364338
0.07048827 0.032185495 0.049588524 0.022791516 -0.062034205 -0.006495755 0.04318908 -0.014517568
-0.020584922 -0.06289661 0.055567276 0.032440417 -0.045742348 -0.050315574 0.04463832 -0.05431435
-0.07150251 0.051642172 0.035935096 -0.04147245 -0.067975804 0.08138063 0.06754226 -0.014589174
0.0043949336 0.07193359 0.0136167705 -0.063770905 -0.018310785 0.017293308 -0.07144721 -0.05158127
00000000: 8468 863c 16f7 aabd 3231 233d 88e2 94bd
00000010: 504f b33b 709b 9fbd 90ce d73c 7eac a83d
00000020: 1e99 0ebd bd38 13bc 10bd 77bd 0334 fbbc
00000030: 4bba 43bd 45db 1fbd 8ca7 f7bc aea0 b43d
00000040: 0ceb 4abd d802 9ebc f004 6ebd a544 f4bc
00000050: 1246 c0bc 4c91 22bc 7870 cb3d 9b78 44bd
00000060: bebd ae3d ce3d 15bd f8c6 acbd 9a0b 9a3d
00000070: d0f5 34bb 9027 b3bc a9cc a5bd 5cf8 cb39
00000080: cc18 443d e052 7cbb 7d74 08bd 617e 7d3d
00000090: 8eb0 6a3d 1a60 a5bd f2b4 81bc f677 50bd
000000a0: e60b 713b 64d7 48bc 8bb0 8bbc e74d a1bc
000000b0: bc16 7dbd f14c b0bd 54f1 11bd 0790 973d
000000c0: c203 6b3d 229f a9bd 9fd9 14bd d4f8 36bd
000000d0: 14fd 5cbd c4e7 b3bd abe2 8c3c 3ab2 143d
000000e0: 60e2 0d3d b990 75bd 81b2 99bc 3042 f93b
000000f0: 72aa b23d 7c08 c3bd 4592 9f3d 3152 acbd
00000100: 43d4 83bd a872 b93c 385a adbd 107f 523d
00000110: e08b 0bbc 7490 6f3d d8ac c6bc 30e9 89bd
00000120: 34e8 73bd 0ce7 34bd 522a 4b3d 1c91 983d
00000130: 94fd 28bd fcd0 b43c 2473 be3c f797 a93d
00000140: 1178 b13d 8329 05bd 34d5 48bd 57b5 8dbd
00000150: 4e22 1cbd f5d2 d8bc 4578 0ebd 28e5 20bd
00000160: c009 66bd 1a84 363d 4cd2 883d dc5f cabc
00000170: 805d 85bd 8c08 63bd 6094 403b 2aef 2a3d
00000180: 5487 ae3d b82c 8fbc d206 20bd 0dba 903d
00000190: 545c b4bd 805f b63b 3611 34bd 1065 08bd
000001a0: 20dd 01bb 2208 8cbd b9ab 423c 7812 383c
000001b0: 87bf 86bb ca45 8c3b 8b32 043d bc2f 403d
000001c0: f7af 863d 26fa 713d 2aa8 0abd 28bc cbbc
000001d0: 2224 233d 3a38 7a3d ce68 c5bc e016 8a3d
000001e0: 3084 8bbc 29f4 53bd 022a 9dbd 7add 2f3d
000001f0: 2002 7dbc 44b3 2ebd a497 1dbd 4006 8dbd
00000200: dd4e 5dbd 31eb a6bd 9ebf 1dbd aef9 9a3d
00000210: 6c61 84bd d788 36bd 4126 9cbd 404b 73bb
00000220: 1593 85bd 9629 593d 08f0 70bd 469d 72bd
00000230: 8ad9 d4bc a57f 87bd 6739 c03c eb67 c2bb
00000240: 95e2 ab3d 064a f9bc dfa6 983d 6814 6fbd
00000250: eacd 463d f2e9 26bd e26e 6e3d 1907 b13d
00000260: f2e9 1c3d c6f0 673d 70ad 383c c032 983a
00000270: f7d5 213d d2cd 9a3d 1e07 3f3d a2ad a6bd
00000280: d476 6a3d db9b 89bd 448e 1a3c 70aa f93d
00000290: c575 82bd 963b 31bd d2fb 633d fc7f a33c
000002a0: 661c 703d 5647 19bd 7bfa 3bbd 6441 173e
000002b0: 78fb 2d3c a544 943d b00b 1bbd bb43 adbd
000002c0: 1787 a03d a86a 90bd a050 c33c 30f0 3d3c
000002d0: 63cd 5f3d 8fa3 7b3b 4465 433d 91b4 513d
000002e0: e15d 8bbd a843 a63c 108b 55bc 651a 1ebd
000002f0: 4234 26bb 3559 96bd 09e1 97bd a02c 18bb
00000300: d9e9 eebc e654 293d a802 323c cc2a 6f3d
00000310: bac8 70bd 22e1 b3bd d534 aabd b951 86bd
00000320: 0fe7 aa3d 70a5 e9bb dab1 06bd 9899 60bc
00000330: 5cdb 473d 2fe4 8a3d 85f6 78ba 5cf4 f23c
00000340: 6c7a 69bd fbba 51bd 128f 1c3e fe0d 7cbd
00000350: 8acc bb3c 77ce fe3c 7130 c43d 389c ba3c
00000360: e493 08bd adac 933d a980 a3bc d4d1 7ebd
00000370: 5814 7e3d ba52 943d 7046 5b3c 7657 82bd
00000380: 275c 903d f0d4 033d 561d 4b3d 46b5 ba3c
00000390: 9417 7ebd 58da d4bb 08e7 303d 18db 6dbc
000003a0: b6a1 a8bc f0cf 80bd 839a 633d 3ee0 043d
000003b0: 545c 3bbd b417 4ebd acd6 363d b978 5ebd
000003c0: e86f 92bd be86 533d ae30 133d 04df 29bd
000003d0: e636 8bbd e3aa a63d 9953 8a3d 6e07 6fbc
000003e0: 6003 903b eb51 933d e018 5f3c 529a 82bd
000003f0: 8000 96bc b2aa 8d3c ea52 92bd e246 53bd
