history/checkpoint/save.pt (torch, 147889 bytes, 19 tensors)

rnn.weight_ih_l0 f4 [128, 5]
0	0x3dc84692	0.09779085
1	0x3e0d7a69	0.13816227
2	0xbdeb28a4	-0.11482361
3	0x3dc33936	0.095323965
4	0x3dc0128e	0.09378539
5	0x3e1dbb55	0.15403493
6	0xbdc3b092	-0.095551625
7	0xbd977d53	-0.073969506
8	0x3d115444	0.035480753
9	0x3e07c569	0.132589
10	0x3e09c26a	0.1345307
11	0xbcc33f36	-0.023833852
12	0x3db843c8	0.08997303
13	0xbe1145b7	-0.1418675
14	0x3daad69d	0.083417155
15	0x3d269ff9	0.040679906
16	0x3d380312	0.044924803
17	0x3cdd8fc3	0.02704609
18	0xbd453f1b	-0.048155885
19	0xbc2de154	-0.010612804
20	0xbe11b38e	-0.14228651
21	0xbe2a9735	-0.16659243
22	0xbdfcb880	-0.12339878
23	0xbdfd005a	-0.12353583
24	0xbdcebc8e	-0.10094558
25	0x3e30cd55	0.17265828
26	0x3e17aca3	0.1481195
27	0xbdcc0885	-0.099625625
28	0xbd81f497	-0.0634548
29	0x3dcdbc72	0.10045709
30	0x3d251a90	0.040308535
31	0x3cc9afc8	0.024619952
32	0x3da3814a	0.07983644
33	0xbd2e16ec	-0.04250233
34	0x3da712f2	0.081579104
35	0x3d044c90	0.03229958
36	0x3e155fc9	0.1458732
37	0xbe1ded7b	-0.15422623
38	0x3dc9d482	0.09854986
39	0x3dcba1c6	0.09942965
40	0xbdf17fbc	-0.117919415
41	0xbe3394af	-0.17537187
42	0x3d116bf4	0.035503343
43	0xbd9b5360	-0.07584262
44	0x3e013d51	0.12621047
45	0xbe30322c	-0.17206639
46	0xbe20408b	-0.15649621
47	0x3e24f6ae	0.16109726
48	0x3d2e716a	0.04258863
49	0xbdd2683e	-0.10273789
50	0xbe01c29d	-0.12671895
51	0xbd83304b	-0.064056955
52	0x3e30734c	0.17231482
53	0x3dfc525c	0.12320396
54	0x3cee053e	0.029055234
55	0xbcf2543f	-0.029581187
56	0xbcf49541	-0.029856326
57	0x3dff4118	0.124635875
58	0xbd3532fe	-0.044238083
59	0x3dceca0e	0.100971326
60	0x3e54b316	0.20771441
61	0xbd8c0f35	-0.06838838
62	0xbc4cb1a3	-0.012493524
63	0x3d59e0fb	0.053193074
64	0xbdfcdd0e	-0.1234685
65	0xbdbbbbb4	-0.09166661
66	0x3e120361	0.14259101
67	0xbd022fd0	-0.03178388
68	0xbe01e228	-0.12683928
69	0x3de616e2	0.11234833
70	0xbd00189c	-0.03127347
71	0xbe233a1c	-0.15940136
72	0xbd27f1cc	-0.04100208
73	0xbe135970	-0.14389586
74	0x3d8ac61a	0.06776066
75	0xbd652ee8	-0.055952936
76	0x3e0d949b	0.1382622
77	0x3e160161	0.14648964
78	0xbd27bb2c	-0.040949985
79	0xbcc60a18	-0.024174735
80	0xbd1fdcff	-0.039029118
81	0x3e012d6c	0.12614983
82	0xbdf17a75	-0.11790935
83	0x3d98789f	0.07444882
84	0x3d90ae9f	0.07064556
85	0x3dfbd2d4	0.12296072
86	0xbd7d3341	-0.061816458
87	0xbdfe3b16	-0.124136135
88	0x3d83dd4d	0.06438694
89	0xbd4ba635	-0.049719054
90	0xbd0a9cc7	-0.03384092
91	0xbdc1fbaa	-0.09471829
92	0x3d8199ee	0.06328188
93	0x3e3af820	0.18258715
94	0x3c395ef1	0.01131414
95	0x3cb62790	0.022235662
96	0xbe03f934	-0.12888032
97	0x3d1eb840	0.038749933
98	0xbe09bd39	-0.13451089
99	0xbdbce35d	-0.092230536
100	0xbdae2e11	-0.0850488
101	0xbdba9524	-0.091104776
102	0xbe27d786	-0.1639081
103	0xbe34eeb0	-0.17669177
104	0xbc0147a0	-0.007890612
105	0xbc296680	-0.010339379
106	0xbdbbb9f6	-0.091663286
107	0xbe32c4bd	-0.17457862
108	0x3cca81a0	0.024720013
109	0xbdeaf593	-0.11472621
110	0xbd030414	-0.03198631
111	0x3ddf278a	0.10896213
112	0xbdfd69fa	-0.12373729
113	0x3e1e9a81	0.15488626
114	0x3d7221e8	0.059114367
115	0x3d682974	0.056680158
116	0x3e0d5bed	0.13804598
117	0x3df7712e	0.12082134
118	0xbda26aeb	-0.07930549
119	0xbd104818	-0.035225004
120	0x3dca2f8e	0.098723516
121	0x3e282959	0.16422023
122	0xbcb18f10	-0.021674663
123	0x3db2f106	0.08737378
124	0x3b460300	0.003021419
125	0xbd8a46e9	-0.06751806
126	0xbd7f3d13	-0.062314104
127	0xbd91f50b	-0.07126816
128	0x3d8c3e45	0.068478145
129	0xbc9508d3	-0.018192684
130	0x3d92c22c	0.071659416
131	0x3db7ac01	0.08968354
132	0x3c5038a6	0.012708819
133	0xbe2d2f88	-0.16912663
134	0x3e0938a4	0.13400513
135	0xbd075bbf	-0.03304648
136	0xbdbc8c61	-0.09206463
137	0x3d968a3e	0.07350586
138	0xbde0fb95	-0.109854855
139	0x3d76f7b9	0.06029484
140	0x3da24126	0.07922582
141	0xbd97bf54	-0.0740954
142	0xbca53b08	-0.02016975
143	0x3d4de5b0	0.050267875
144	0xbe290aee	-0.16508076
145	0x3e0dd81d	0.13851972
146	0x3dba77b2	0.09104861
147	0x3e1903fb	0.14942925
148	0x3d320020	0.04345715
149	0x3e25a777	0.16177164
150	0xbc0508c0	-0.008119762
151	0x3dae62ca	0.08514936
152	0x3dd7d36a	0.10538371
153	0xbd230370	-0.0397982
154	0x3dfe83aa	0.12427457
155	0x3b599355	0.003319939
156	0x3e0fa515	0.14027818
157	0xbde10ccf	-0.10988771
158	0x3e418356	0.18897757
159	0xbe069aca	-0.13144985
160	0x3cce7a68	0.025204852
161	0x3d82527e	0.063633904
162	0x3da27de6	0.079341695
163	0x3e079c73	0.13243274
164	0xbbf68740	-0.0075234473
165	0xbdead933	-0.11467209
166	0xbae8f102	-0.0017772021
167	0x3dde58c2	0.10856773
168	0x3e2d92e4	0.16950566
169	0xbcae7d60	-0.021300018
170	0x3e23fa07	0.16013347
171	0xbdff799e	-0.124743685
172	0x3e124ecb	0.1428787
173	0x3d9b566e	0.075848445
174	0x3e150201	0.14551546
175	0x3e23c8ad	0.1599452
176	0xbc9f5380	-0.019448996
177	0x3dc62222	0.09674479
178	0xbddcc27e	-0.10779284
179	0x3e1712c5	0.14753254
180	0xbcff04f8	-0.031130299
181	0x3daf1912	0.08549704
182	0x3dbbf702	0.091779724
183	0xbe12110b	-0.14264314
184	0x3bf25b80	0.0073961616
185	0x3b2b08dc	0.002609781
186	0x3e070cd9	0.13188495
187	0xbd889e7e	-0.06670855
188	0xbdca61bc	-0.098819226
189	0x3d6a1a18	0.05715379
190	0x3dfcd98e	0.12346183
191	0x3cff91e8	0.031197503
192	0x3e1994c9	0.14998163
193	0xbd9b45b5	-0.07581655
194	0x3da90abe	0.08254002
195	0xbe077365	-0.13227613
196	0xbda3fbd6	-0.08007018
197	0x3ceaeca0	0.028677285
198	0xbcad3f18	-0.02114825
199	0xbe15b690	-0.14620423
200	0x3d41b290	0.04728943
201	0x3ddf093e	0.10890435
202	0xbc22c930	-0.009935662
203	0xbd86fd18	-0.065912426
204	0x3e2c3fa1	0.16821148
205	0xbda70204	-0.08154681
206	0xbc5a5620	-0.013326198
207	0x3d913f2e	0.07092129
208	0xbc8babd0	-0.0170497
209	0xbd57204e	-0.052521043
210	0x3ca7c0f8	0.020477757
211	0xbdf11220	-0.11771035
212	0xbe05a858	-0.130525
213	0x3d085dc4	0.033292547
214	0xbe347eb8	-0.17626464
215	0xbdebe257	-0.1151778
216	0x3df4f052	0.119599
217	0x3dded84e	0.108811006
218	0x3d63cefb	0.055617314
219	0xbd87b473	-0.06626215
220	0xbd86dccb	-0.06585082
221	0xbdbad171	-0.09121979
222	0x3e03a164	0.12854534
223	0x3dfd8143	0.1237817
224	0xbd1a4502	-0.037663467
225	0x3dc7aae6	0.09749393
226	0xbe33b4cc	-0.17549437
227	0xbddf373e	-0.108992085
228	0xbdcd5649	-0.10026223
229	0x3ca36d50	0.019949585
230	0x3ddc3a46	0.10753302
231	0xbd836ad9	-0.06416864
232	0x3e2c85b7	0.16847883
233	0xbc418b90	-0.011813059
234	0x3dbdb796	0.09263532
235	0xba504500	-0.0007944852
236	0x3e05ec47	0.13078414
237	0x3d5942a0	0.053042054
238	0x3e127bb7	0.14305006
239	0x3d9b5ee2	0.07586457
240	0x3c50a6c4	0.0127350725
241	0x3dbc1ed3	0.09185567
242	0xbe0cbafd	-0.13743205
243	0x3d47a1dc	0.048738346
244	0x3d2dd409	0.04243854
245	0xbe0a8b98	-0.13529813
246	0xbe37867a	-0.17922392
247	0x3e032d3b	0.12810223
248	0x3cfdea43	0.030995494
249	0x3e0f7aaf	0.14011644
250	0xbd7c3d57	-0.061581936
251	0x3dde54e7	0.108560376
252	0xbd8b7361	-0.06809116
253	0xbd8cbf56	-0.06872432
254	0x3e259bd9	0.16172732
255	0xbdb28b65	-0.08717994

rnn.weight_hh_l0 f4 [128, 32]
0	0x3e1b4735	0.15163882
1	0x3cc4c660	0.024020374
2	0xbd8a5615	-0.067547
3	0xbd12b3f8	-0.035816163
4	0xbda94af3	-0.082662486
5	0x3d01c730	0.0316841
6	0x3db73796	0.08946149
7	0xbd952632	-0.07282676
8	0xbe327387	-0.17426883
9	0x3d9b22ce	0.07574998
10	0x3db3b54a	0.087748125
11	0x3e2d0ee7	0.16900216
12	0x3cbf6a48	0.023366109
13	0x3dd24362	0.102667585
14	0x3e34f995	0.17673333
15	0xbe0370d7	-0.12836014
16	0xbde759b2	-0.11296405
17	0x3e1ca1db	0.15296118
18	0x3e0f319d	0.1398377
19	0x3a204700	0.00061140954
20	0xbc69c6a0	-0.014268547
21	0x3d2f4544	0.042790666
22	0xbe0504c5	-0.129901
23	0x3e0deb5d	0.13859315
24	0x3da2dad2	0.07951893
25	0xba0b7b00	-0.00053207576
26	0x3d9f977e	0.07792567
27	0xbd9a2e1a	-0.075283244
28	0xbdfe7f4b	-0.12426623
29	0x3e07324b	0.13202779
30	0x3d259ccc	0.040432736
31	0xbd8fdd29	-0.07024605
32	0x3dc9bd6a	0.09850581
33	0x3ddb41da	0.107059196
34	0xbe1c72b6	-0.15278134
35	0x3e0881f7	0.13330828
36	0x3d2c4c8c	0.04206519
37	0x3d46416c	0.048402235
38	0xbdaa1a11	-0.08305753
39	0x3dfee85e	0.12446664
40	0xbe1502c2	-0.14551833
41	0xbdecfba1	-0.11571432
42	0x3d105824	0.035240307
43	0xbbd304a0	-0.0064397603
44	0x3e0a95a9	0.13533653
45	0xbe238800	-0.15969849
46	0x3d699620	0.057027936
47	0xbdb68735	-0.089125074
48	0xbdcae545	-0.09907011
49	0xbd959ea0	-0.07305646
50	0xbc5a9c50	-0.013342932
51	0x3c587a40	0.01321274
52	0xbe318e92	-0.17339543
53	0xbd953e4b	-0.07287272
54	0xbe0e1aca	-0.13877407
55	0xbe078e16	-0.13237795
56	0xbd933607	-0.07188039
57	0x3d8f703c	0.07003829
58	0x3ddf942e	0.10916935
59	0x3e1de5cd	0.15419693
60	0x3c9bfaf8	0.01904057
61	0x3ca96d18	0.020681903
62	0xbe2ef41f	-0.17085312
63	0xbdc12134	-0.09430161
64	0x3e07f0a0	0.13275385
65	0x3d1bc51f	0.038029786
66	0xbd40b41a	-0.04704676
67	0xbc497b84	-0.012297515
68	0xbe34b4d9	-0.17647113
69	0xbdc60946	-0.096697375
70	0xbdaa8d3e	-0.08327721
71	0xbe0f8bbb	-0.14018147
72	0x3e00d051	0.12579466
73	0x3ce9f3e8	0.028558686
74	0xbd9fc666	-0.078015134
75	0x3e17ab33	0.14811401
76	0xbe2d1215	-0.16901429
77	0xbddfaee3	-0.10922029
78	0xbd96b5f4	-0.073589236
79	0x3d9d493d	0.07679985
80	0x3dc941be	0.098269925
81	0xbdf53dab	-0.11974653
82	0x3ddb4587	0.10706621
83	0x3d291238	0.04127714
84	0xbe0d6f66	-0.13812026
85	0x3b9e8c40	0.0048384964
86	0xbe1cb79f	-0.15304421
87	0x3de80fd1	0.11331142
88	0x3dc00f87	0.093779616
89	0xbd66ae22	-0.05631841
90	0xbe1eade9	-0.15496029
91	0x3e1231d5	0.14276822
92	0xbd9cb154	-0.0765101
93	0x3dfeac72	0.12435235
94	0x3dfa6f03	0.12228205
95	0xbd32d53c	-0.043660387
96	0xbcd777ba	-0.026302207
97	0x3e0f51b3	0.1399601
98	0xbe392ebc	-0.18084234
99	0xbdc8c0dd	-0.09802411
100	0x3dde9c86	0.10869698
101	0x3e328d7f	0.17436789
102	0xbe2cc443	-0.16871743
103	0xbe07a92d	-0.13248129
104	0xbe19af10	-0.15008187
105	0xbe0d54fd	-0.13801952
106	0xbde07c63	-0.10961225
107	0x3dd67160	0.10470843
108	0xbdcb5d37	-0.09929889
109	0xbdaced01	-0.084436424
110	0xbdd90632	-0.10596885
111	0xbd03cdde	-0.032178752
112	0xbd33307c	-0.04374741
113	0x3e14ce4d	0.14531823
114	0xbdf48d47	-0.11941009
115	0xbe15894f	-0.1460316
116	0x3c3e7920	0.011625558
117	0xbd90d670	-0.07072151
118	0xbd9b6708	-0.07588011
119	0xbe0c0b2e	-0.1367614
120	0x3d7111cc	0.058854863
121	0xbdd01381	-0.1015997
122	0x3dcd2e39	0.10018582
123	0x3b3843c0	0.0028116554
124	0x3b3a1640	0.002839461
125	0x3d72c040	0.059265375
126	0xbdda37be	-0.10655163
127	0xbdf5c4b8	-0.12000412
128	0x3dda8996	0.10670774
129	0x3c978f78	0.018501028
130	0x3de064c2	0.10956718
131	0x3d306130	0.043061435
132	0x3dadd792	0.084883824
133	0x3e250c79	0.16118039
134	0x3e237f4f	0.15966533
135	0x3d1e62a8	0.038668305
136	0x3d13a884	0.03604938
137	0xbe20ba14	-0.15695983
138	0x3e247b5d	0.16062684
139	0xbcedf158	-0.029045746
140	0xbd3166e8	-0.04331103
141	0x3b625080	0.0034532845
142	0x3e0e62d7	0.13904892
143	0x3cc69538	0.024241075
144	0x3e0e4b7b	0.13895981
145	0x3e24bf31	0.16088559
146	0xbbfb5500	-0.007670045
147	0x3dbf7442	0.09348346
148	0x3d9db2ee	0.07700144
149	0xbbdb22a0	-0.006687477
150	0xbdba765c	-0.091046065
151	0x3e17dd15	0.1483043
152	0x3e162425	0.14662226
153	0x3d37e324	0.044894353
154	0xbda5022c	-0.08057055
155	0x3c886070	0.016647547
156	0x3dd8308e	0.10556136
157	0x3d1175dc	0.03551279
158	0xbdb6b076	-0.08920376
159	0x3ab90b00	0.0014117658
160	0xbc858ee0	-0.01630348
161	0xbdd8356f	-0.10557067
162	0x3dae95de	0.08524679
163	0xbddbda76	-0.107350275
164	0x3ddb97ba	0.10722299
165	0x3e01b4b3	0.12666588
166	0xbd71841c	-0.05896388
167	0xbd6ceb82	-0.057841785
168	0x3da0b9e6	0.07847957
169	0xbe2ca7a7	-0.1686083
170	0x3e0203cb	0.1269676
171	0x3dffb2fa	0.12485309
172	0xbdbcfd46	-0.092279956
173	0xbdb6e157	-0.08929699
174	0x3d7a5150	0.061112702
175	0x3e068fc1	0.13140775
176	0x3da7bec2	0.08190681
177	0x3d251218	0.04030046
178	0x3ca78268	0.020447925
179	0xbe232dfa	-0.15935507
180	0x3e281333	0.16413574
181	0xbe265220	-0.16242266
182	0xbca06cb0	-0.019583076
183	0xbcfdc4f0	-0.030977696
184	0xbcdd56c0	-0.027018905
185	0x3da77882	0.08177282
186	0x3d2cbea8	0.04217401
187	0x3dd0ba46	0.10191779
188	0x3da0ae92	0.07845797
189	0x3daba6f6	0.08381455
190	0x3e19747f	0.14985846
191	0xbc9fa5f8	-0.01948832
192	0xbd87d3c7	-0.0663219
193	0xbdaba718	-0.0838148
194	0x3e1dc689	0.15407766
195	0xb851d000	-5.0023198e-05
196	0x3dcb9182	0.09939863
197	0xbe0e3c6e	-0.1389024
198	0xbdcab4ad	-0.098977424
199	0x3e0364a9	0.12831368
200	0xbe0b479b	-0.13601534
201	0xbde6b9c1	-0.112658985
202	0x3d8430a6	0.064545915
203	0xbaf4ca80	-0.0018676072
204	0x3d8f794a	0.07005556
205	0xbe0dc715	-0.13845475
206	0xbe32f31b	-0.1747555
207	0xbcca46d0	-0.02469197
208	0x3e2fd1c3	0.17169861
209	0xbdfd8a20	-0.12379861
210	0xbdc1e4a7	-0.0946744
211	0x3d93ed62	0.072230116
212	0xbd18170c	-0.037131354
213	0xbdb159a8	-0.08659679
214	0x3e03d85f	0.12875508
215	0x3bd63840	0.0065374672
216	0x3e1b2b4f	0.1515324
217	0x3d856296	0.065129444
218	0xbd07e6bc	-0.03317903
219	0xbdbd8e54	-0.092556626
220	0x3c02a890	0.007974759
221	0x3d9187de	0.07105993
222	0xbdf54a57	-0.1197707
223	0xbe23badf	-0.15989254
224	0x3bba0740	0.005677134
225	0xbd2334e4	-0.039845362
226	0x3cac5a68	0.021039203
227	0xbe09c562	-0.13454202
228	0xbcd33a08	-0.025784507
229	0xbd5a3fd2	-0.05328352
230	0x3d04adc8	0.032392293
231	0xbcc4f290	-0.024041444
232	0xbc287d30	-0.010283753
233	0x3e103685	0.14083298
234	0xbd34af60	-0.044112563
235	0xbe0b00de	-0.1357455
236	0x3e2a37cf	0.16622852
237	0x3e0ceff7	0.13763414
238	0xbdd98495	-0.10620991
239	0xbd107f8c	-0.03527789
240	0xbe1cce3a	-0.15313044
241	0xbc515f90	-0.0127791315
242	0xbe0db543	-0.13838677
243	0xbda030a0	-0.078217745
244	0xbd172c0c	-0.03690724
245	0x3bcf65a0	0.0063292533
246	0xbe034458	-0.1281904
247	0xbd472ad0	-0.048624814
248	0xbdb3f122	-0.08786227
249	0xbc2d7550	-0.0105870515
250	0x3d45a124	0.04824938
251	0xbdf94d23	-0.12172916
252	0x3e12f199	0.14349975
253	0xbcba6990	-0.022755414
254	0x3c85d998	0.016339108
255	0x3d2ef314	0.042712286

rnn.bias_ih_l0 f4 [128]
0	0xbd72d48a	-0.059284724
1	0xbd988fd1	-0.07449306
2	0x3e10de1d	0.1414723
3	0xbdeb0996	-0.11476438
4	0xbe0c9794	-0.13729697
5	0x3e26e7d1	0.16299368
6	0xbe12978c	-0.14315623
7	0x3e320693	0.1738532
8	0x3c081de0	0.008307904
9	0x3bf5d64e	0.0075023538
10	0x3e16d1bb	0.14728443
11	0x3da08c7a	0.07839294
12	0x3e4ab57f	0.19795798
13	0xbcd56508	-0.026049152
14	0x3e055dcf	0.13024066
15	0x3da48556	0.08033244
16	0xbe0ff685	-0.14058883
17	0xbd05bd20	-0.032651067
18	0x3e0e94a7	0.13923894
19	0x3d2b2f80	0.041793346
20	0x3e25c87d	0.16189761
21	0x3e246ba3	0.16056685
22	0x3c007360	0.007840008
23	0x3db2514a	0.08706911
24	0x3d6f4be4	0.058421984
25	0xbe2be04c	-0.16784781
26	0xbdc7f7e1	-0.09764076
27	0xbb5a9740	-0.0033354312
28	0xbdc3e518	-0.095651805
29	0xbbee0ec0	-0.007264942
30	0xbe1e11f0	-0.1543653
31	0x3d808334	0.06275025
32	0xbcc6a688	-0.02424933
33	0x3e337382	0.17524531
34	0xbe01f7e2	-0.12692216
35	0xbd24892c	-0.04016988
36	0xbe1d83d0	-0.15382314
37	0xbdc27a85	-0.09496025
38	0xbe30870d	-0.17239018
39	0x3e12fd5d	0.14354463
40	0xbd8eba32	-0.06969108
41	0xbc0419f0	-0.008062825
42	0x3d8975bc	0.06711909
43	0xbdaaee67	-0.08346253
44	0x3e13dd86	0.14439973
45	0xbe300d23	-0.17192511
46	0x3dc46a52	0.095905915
47	0xbc8d3508	-0.017237201
48	0xbde96af6	-0.11397354
49	0xbe1d8969	-0.15384449
50	0x3dd042d0	0.101689935
51	0xbe21e45d	-0.1580977
52	0x3c7ba350	0.015358761
53	0xbcb7f458	-0.02245538
54	0xbe31603e	-0.1732187
55	0xbd7b1424	-0.061298504
56	0xbe014f4e	-0.12627909
57	0xbd1e68d0	-0.038674176
58	0x3e4a7323	0.19770484
59	0xbd21b098	-0.039475054
60	0xbe2a7ecc	-0.16649932
61	0x3e16a657	0.14711891
62	0x3d55f490	0.052235186
63	0xbdb7797a	-0.08958717
64	0x3e0da16b	0.13831107
65	0xbd57e2d4	-0.052706555
66	0xbe1cdd55	-0.15318806
67	0xbddbbd5c	-0.10729477
68	0xbe0e6e20	-0.13909197
69	0x3d748650	0.059698403
70	0xbd76cd1c	-0.0602542
71	0xbdf19222	-0.11795451
72	0x3e2c8f07	0.16851436
73	0x3bd820c0	0.006595701
74	0x3de3e42e	0.11127506
75	0xbbc6125b	-0.0060446686
76	0xbe1e0c35	-0.15434344
77	0xbdc0064b	-0.093762
78	0xbd74d49e	-0.05977308
79	0xbe2c07e8	-0.16799891
80	0x3e314ce6	0.1731449
81	0x3e1108a1	0.14163448
82	0x3cc61bd0	0.024183184
83	0xbd17e410	-0.03708273
84	0x3cb986b8	0.022647247
85	0x3c651580	0.013982177
86	0x3c93eaf0	0.018056363
87	0x3e16bcf8	0.14720523
88	0x3d561068	0.05226174
89	0x3e26db75	0.16294654
90	0x3e08993e	0.13339707
91	0xbc3ae7d0	-0.0114078075
92	0x3d5a9140	0.053361177
93	0x3d2d1d58	0.042264313
94	0xbcce6770	-0.025195807
95	0x3d8ebe92	0.06969942
96	0x3e1f9b96	0.15586695
97	0x3c32ad00	0.010905504
98	0xbc400ae3	-0.011721346
99	0xbc2a1a3e	-0.010382233
100	0xbcfcc188	-0.030854002
101	0xbd5330ac	-0.05156009
102	0xbd8cc05c	-0.06872627
103	0x3dce09e2	0.10060479
104	0xbcbf5900	-0.023357868
105	0x3de3d2ea	0.11124213
106	0x3d1ea4b9	0.03873131
107	0xbe0d4906	-0.13797387
108	0xbdca8969	-0.0988949
109	0x3e1a5d21	0.15074588
110	0xbd9ab052	-0.07553162
111	0xbc0bb9a0	-0.008528143
112	0xbe043539	-0.12910928
113	0xbe283bdc	-0.16429085
114	0x3d2b39b0	0.041803062
115	0x3d3d2b88	0.046184093
116	0xbcc1ed38	-0.023672685
117	0x3dcd273e	0.100172505
118	0x3dd1238e	0.1021186
119	0x3d87a5dc	0.06623432
120	0x3c911137	0.017708404
121	0x3d7d7ecc	0.0618885
122	0x3d9b86d9	0.075940795
123	0x3c9d20a8	0.01918061
124	0x3e0b9f7d	0.13635059
125	0x3e1c027b	0.15235321
126	0x3e33de19	0.17565192
127	0x3e3c63b4	0.18397409

rnn.bias_hh_l0 f4 [128]
0	0xbb474300	-0.0030404925
1	0x3e04782d	0.12936468
2	0xbce27b61	-0.027646722
3	0x3e2bf11f	0.16791199
4	0xbe1c8c12	-0.15287808
5	0x3b91aca0	0.0044456273
6	0xbcb64910	-0.022251636
7	0x3d026e44	0.03184344
8	0xbc2fa070	-0.010719404
9	0x3e032bb3	0.12809639
10	0x3dc1c032	0.094604865
11	0xbd563d07	-0.052304294
12	0xbe041b7d	-0.12901111
13	0xba1b0b00	-0.000591442
14	0x3c9983d0	0.01873961
15	0xbe3134cd	-0.17305298
16	0x3ce07687	0.027400268
17	0x3e1e29d1	0.15445639
18	0x3e1264f1	0.14296319
19	0x3e17a883	0.14810376
20	0xbc80efc0	-0.015739322
21	0xbe14d3d4	-0.14533931
22	0xbc24ce80	-0.010058999
23	0xbc172870	-0.00922595
24	0xbc81b090	-0.015831262
25	0xbe289e6f	-0.16466688
26	0x3e00bc3d	0.12571807
27	0x3e0bc5a5	0.13649614
28	0x3d89447e	0.06702517
29	0x3d8cad8c	0.06869039
30	0xbdf39d07	-0.11895185
31	0x3e13b8e1	0.14425994
32	0xbd0348d0	-0.03205186
33	0x3d212b0c	0.039347693
34	0x3c909008	0.017646804
35	0xbd70daf0	-0.058802545
36	0x3d81e292	0.06342043
37	0xbc8ee179	-0.017441498
38	0xbdd33a3f	-0.10313844
39	0x3dc17d72	0.09447755
40	0xbd9089fe	-0.0705757
41	0xbd3d466c	-0.046209738
42	0xbd0043e0	-0.03131473
43	0x3cc9b574	0.024622656
44	0x3e432e9e	0.19060752
45	0x3dc95176	0.098299906
46	0x3dc4e97a	0.096148446
47	0xbd749670	-0.05971378
48	0xbe178149	-0.14795412
49	0xbda4530c	-0.080236524
50	0x3e278cb8	0.16362274
51	0xbe0ae54e	-0.13564035
52	0x3e11289d	0.14175649
53	0xbd66dd66	-0.056363486
54	0x3da2be56	0.0794646
55	0x3de37b96	0.111075565
56	0x3d13c82a	0.036079563
57	0xbd9e1988	-0.077197134
58	0x3ddad906	0.10685925
59	0x3d5d6a9c	0.05405675
60	0x3dded606	0.108806655
61	0xbb104a80	-0.0022017062
62	0xbdea8182	-0.11450483
63	0x3ddf687c	0.10908601
64	0x3dab3f0a	0.08361633
65	0x3e3419fd	0.17588039
66	0x3e335d47	0.17516051
67	0xbe151b4b	-0.14561193
68	0xbbc7a440	-0.006092578
69	0x3d2c4fec	0.042068407
70	0xbdb4223a	-0.08795591
71	0x3c24affc	0.010051724
72	0x3e05bcd1	0.13060309
73	0xbe336a91	-0.1752112
74	0xbdb14792	-0.08656229
75	0x3db096c8	0.08622509
76	0xbe0f2584	-0.13979155
77	0xbd7c65de	-0.061620586
78	0x3df6adf6	0.12044899
79	0x3e19eea1	0.15032436
80	0xbd71ae54	-0.059004143
81	0x3e08d081	0.13360788
82	0x3bdfd4a0	0.006830767
83	0xbe0c050c	-0.136738
84	0xbcb27c30	-0.021787733
85	0xbe12e508	-0.14345181
86	0x3dbcb702	0.092145935
87	0x3c141ce8	0.009040095
88	0xbd71a8f2	-0.05899901
89	0xbd118048	-0.03552273
90	0x3e1d42ba	0.15357485
91	0xbc8eee00	-0.017447472
92	0xbd9e61ca	-0.077334955
93	0xbdc08955	-0.09401194
94	0xbd4c659c	-0.04990159
95	0xbddfda9b	-0.109303676
96	0x3e48d63c	0.19612974
97	0x3cf40c60	0.029791057
98	0xbdcf727a	-0.101292565
99	0x3e126b89	0.14298834
100	0xbe044f66	-0.12920913
101	0x3cbb8638	0.022891149
102	0xbd194008	-0.03741458
103	0xbde68157	-0.11255138
104	0x3d852056	0.06500308
105	0xbca871f0	-0.020562142
106	0x3c594dfc	0.013263222
107	0xbe170774	-0.14748937
108	0xbc5ffd20	-0.01367119
109	0x3ca10288	0.019654527
110	0xbdd67ff2	-0.104736224
111	0xbe2b04c9	-0.16701044
112	0x3ddfc454	0.109261185
113	0x3d350d8f	0.044202384
114	0x3db238c2	0.08702232
115	0x3b729e40	0.0037020594
116	0xbe14ef0e	-0.14544317
117	0x3ce172d0	0.027520567
118	0xbbfa7b20	-0.007644072
119	0xbe3014f8	-0.17195499
120	0xbd5b084b	-0.053474706
121	0x3db56f82	0.08859159
122	0xbd8a881b	-0.06764241
123	0x3e18025f	0.14844655
124	0xbd03eebc	-0.032210097
125	0xbe01728a	-0.1264135
126	0xbddab966	-0.10679893
127	0x3d92d4ea	0.071695164

rnn.weight_ih_l0_reverse f4 [128, 5]
0	0x3d9a6726	0.07539205
1	0x3d3c1ac8	0.045923978
2	0xbe11aba4	-0.14225632
3	0xbe15b8f3	-0.14621334
4	0x395826de	0.00020613844
5	0xbcec689c	-0.028858475
6	0x3de3eab4	0.111287504
7	0xbdb0b6c7	-0.08628612
8	0x3e30ad1b	0.17253534
9	0xbde2c7f4	-0.11073294
10	0xbe00d9c9	-0.12583078
11	0xbba383c9	-0.0049900752
12	0x3e2f0e19	0.17095222
13	0xbd161f4c	-0.03665094
14	0xbe091603	-0.13387303
15	0x3d9eb861	0.07750011
16	0xbde1e888	-0.1103068
17	0xbdd009f4	-0.101581484
18	0xbe0e693d	-0.13907333
19	0x3d92eecb	0.071744524
20	0xbc010fc0	-0.00787729
21	0x3e326535	0.1742142
22	0x3d8dcb70	0.06923568
23	0xbd5a4b9e	-0.05329477
24	0x3de40c2a	0.111351326
25	0x3c964264	0.018342204
26	0xbe1b2406	-0.1515046
27	0xbd8a180c	-0.06742868
28	0x3cc69c09	0.024244325
29	0xbd6e9288	-0.05824521
30	0x3a805d80	0.000979349
31	0x3d815a96	0.06316106
32	0x3dce27fe	0.10066222
33	0x3c6fe200	0.014641285
34	0x3c988438	0.018617734
35	0x3db4b6fe	0.088239655
36	0x390d75d6	0.00013490705
37	0xbd442bc4	-0.0478933
38	0xbbb36d99	-0.0054757115
39	0x3cf6a6ff	0.030108927
40	0x3ca576c1	0.020198228
41	0x3e0dbacb	0.13840787
42	0x3dac1d29	0.08403999
43	0xbdb9aea7	-0.090665154
44	0xbc7630d9	-0.015026295
45	0xbdbcc42c	-0.09217104
46	0xbe17ec92	-0.14836338
47	0x3cf8bb98	0.03036289
48	0xbe27efab	-0.1640002
49	0x3d466cac	0.04844348
50	0xbc0e0b20	-0.008669645
51	0xbe1caba5	-0.15299852
52	0xbd77088e	-0.060310893
53	0xbe1c066b	-0.15236823
54	0x3e1a2e2d	0.15056677
55	0x3dc0fc7e	0.09423159
56	0xbc5d2790	-0.013498202
57	0xbe1d109b	-0.15338366
58	0x3dbecc8a	0.093163565
59	0x3d0148c4	0.031563535
60	0x3b561bc0	0.003267035
61	0x3ddbf2a2	0.10739638
62	0x3dad2f86	0.0845633
63	0xbdb9244c	-0.09040126
64	0x3e2113d7	0.15730225
65	0xbdf0af2a	-0.1175216
66	0xbcb03da8	-0.021513775
67	0xbca4e518	-0.020128772
68	0xbe12c920	-0.14334536
69	0xbd8cc8cd	-0.06874237
70	0xbe28547c	-0.16438478
71	0x3d211300	0.03932476
72	0x3dff8e4e	0.12478314
73	0x3de8b3b2	0.11362399
74	0x3deacb76	0.11464588
75	0x3d88ec7a	0.06685729
76	0x3e1ae657	0.1512693
77	0x3def8dda	0.11696978
78	0x3d850ea0	0.0649693
79	0x3df9e15e	0.122011885
80	0xbd8b19c1	-0.067920215
81	0xbd2506c5	-0.04028966
82	0xbe130f41	-0.14361288
83	0x3e1cf4a8	0.15327704
84	0xbe009a4c	-0.1255886
85	0xbdad35c5	-0.08457521
86	0xbda4ef52	-0.08053459
87	0xbdc66b95	-0.096884884
88	0x3e27068c	0.16311091
89	0x3e260040	0.16211033
90	0x3db567f7	0.0885772
91	0xbdafb4fb	-0.08579441
92	0x3da8def9	0.08245654
93	0xbdb40db5	-0.08791677
94	0x3e11bde8	0.142326
95	0xbda1d8ae	-0.079026565
96	0xbdfe95b8	-0.124309
97	0xbd2f8cd4	-0.042858914
98	0xbe11aabc	-0.14225286
99	0x3afa9480	0.0019117743
100	0xbdd8357f	-0.105570786
101	0xbd685a4e	-0.056726746
102	0x3e3e1d55	0.18565877
103	0x3df582e4	0.11987856
104	0xbdb372c3	-0.087621234
105	0xbdeb70de	-0.11496137
106	0xbc22cf5d	-0.009937135
107	0xbbbabb42	-0.0056985924
108	0x3e29deb9	0.16588868
109	0x3d19f8e8	0.03759089
110	0x3bead8c0	0.007166952
111	0xbdfca1c4	-0.12335542
112	0x3d2ffe44	0.042967096
113	0xbdcbf998	-0.099597156
114	0x3da32dee	0.07967745
115	0xbdda328b	-0.106541716
116	0x3cffb23e	0.031212922
117	0xbde6c6b8	-0.11268371
118	0x3d52bb19	0.05144796
119	0x3e4ea012	0.2017825
120	0x3e2a7ae8	0.16648448
121	0x3cd8bdb4	0.026457645
122	0xbd22d576	-0.039754353
123	0xbe116e7e	-0.14202306
124	0x3e07a328	0.13245833
125	0x3e094653	0.13405733
126	0x3d8afc08	0.067863524
127	0x3e034f33	0.12823181
128	0xbcecbe70	-0.028899401
129	0xbd155e48	-0.036466867
130	0x3e09005d	0.13379045
131	0xbcb90357	-0.0225846
132	0x3de3001c	0.11084005
133	0x3d8850ac	0.06656012
134	0xbe195d49	-0.14976992
135	0xbe0625a0	-0.1310029
136	0x3e39303e	0.18084809
137	0xbd350014	-0.044189528
138	0xbde482e0	-0.11157775
139	0x3e299aee	0.16563007
140	0x3e2d36ff	0.1691551
141	0x3d0b8365	0.034060854
142	0x3e25f48c	0.16206568
143	0xbe1b1f7b	-0.15148728
144	0xbd943bed	-0.072379924
145	0x3e388427	0.18019162
146	0xbe1548fe	-0.14578626
147	0xbad82e80	-0.001649335
148	0x3d33acad	0.04386585
149	0x3d7ed0ba	0.062210776
150	0xbe001d86	-0.12511262
151	0xbd412588	-0.047154933
152	0xbdb120b1	-0.086488135
153	0xbb904260	-0.0044024438
154	0xbe2999e4	-0.16562611
155	0xbe2021d3	-0.15637903
156	0xbd3faec8	-0.046797544
157	0xbd57846c	-0.05261652
158	0x3c223dc0	0.009902418
159	0xbd3f2a54	-0.046671227
160	0xbe2e6e8b	-0.17034356
161	0x3e1b496b	0.15164725
162	0xbd6165ae	-0.05502861
163	0xbcf0ec30	-0.029409498
164	0xbe05b0e4	-0.1305576
165	0x3e233069	0.15936436
166	0xbe2ec093	-0.17065649
167	0xbd0b2ec8	-0.03398016
168	0x3dc1b07a	0.09457488
169	0x3e23c2fd	0.15992351
170	0x3e2e498f	0.17020248
171	0x3dad6672	0.084668055
172	0xbc279870	-0.010229215
173	0x3ccceac8	0.025014296
174	0x3d639238	0.055559367
175	0x3c8e01cd	0.017334843
176	0xbd840985	-0.06447128
177	0xbd96085e	-0.07325815
178	0x3d9f966e	0.07792364
179	0x3d9f3de6	0.07775478
180	0xbca57c48	-0.020200863
181	0xbe289e9c	-0.16466755
182	0xbe150728	-0.14553511
183	0xbe12510e	-0.14288732
184	0xbd3ef7fc	-0.046623215
185	0xbe24a3f9	-0.16078176
186	0x3d442308	0.04788497
187	0xbcab3018	-0.020896956
188	0xbdb96403	-0.09052279
189	0xbe2bb4b2	-0.16768149
190	0x3d2d043c	0.042240366
191	0xbd9398ea	-0.072069004
192	0x3dd7f27e	0.105442986
193	0x3d1aeb18	0.03782186
194	0x3e219dc7	0.15782844
195	0xbddf270e	-0.10896121
196	0xbe1ab090	-0.15106416
197	0xbddab7b2	-0.10679568
198	0x3dbd1536	0.09232561
199	0xbdad3ec9	-0.08459241
200	0x3e2f11b5	0.17096598
201	0x3d28a7e2	0.04117573
202	0x3d8f3a49	0.06993539
203	0xbdef2c12	-0.116783276
204	0xbd052905	-0.032509822
205	0x3d3a035c	0.04541336
206	0xbe257bca	-0.16160503
207	0x3dd9c3ea	0.10633071
208	0x3e050945	0.12991817
209	0xbb52f780	-0.0032190979
210	0xbde072a5	-0.10959367
211	0x3e0297ef	0.1275327
212	0x3db9689e	0.09053157
213	0xbdffcc27	-0.12490111
214	0xbe23382d	-0.15939398
215	0x3e0df1f9	0.13861836
216	0xbde0f8d5	-0.10984961
217	0xbe2d2dfa	-0.1691207
218	0xbc7c7caa	-0.015410582
219	0x3e248e1b	0.16069834
220	0x3e140f9d	0.14459081
221	0xbdf428b4	-0.11921826
222	0x3dce15b2	0.10062732
223	0xbc43dc10	-0.011954322
224	0xbe0986f4	-0.13430387
225	0x3e0b7a4f	0.13620876
226	0x3dca406e	0.0987557
227	0x3d678e0c	0.05653195
228	0xbd628f0a	-0.055312194
229	0xbdd90c81	-0.10598088
230	0xbd09a7a8	-0.033607155
231	0x3e038dbf	0.1284704
232	0x3dd330b2	0.10312022
233	0xbd4efd08	-0.05053428
234	0xbba7f400	-0.0051255226
235	0x3d013160	0.03154123
236	0xbded0e82	-0.11575033
237	0x3d192b7c	0.037394986
238	0x3df0a82a	0.11750825
239	0x3dbc967a	0.092083886
240	0xbcd2bc30	-0.0257245
241	0xbe19bc28	-0.15013182
242	0x3dad5dd2	0.084651604
243	0xbdcc62cc	-0.099797815
244	0x3dd437ea	0.10362227
245	0x3d67ddda	0.05660806
246	0xbde4933f	-0.111608975
247	0x3d5c450d	0.05377679
248	0x3de7359c	0.11289522
249	0xbc456dfa	-0.012050146
250	0xbdfed644	-0.12443212
251	0x3dc55b76	0.096365854
252	0x3dba4f6a	0.09097178
253	0x3c7dee00	0.015498638
254	0x3dd7b9ce	0.10533486
255	0xbd39b70c	-0.045340583

rnn.weight_hh_l0_reverse f4 [128, 32]
0	0xbd13f414	-0.036121443
1	0x3d964e86	0.07339196
2	0x3e0fde4d	0.14049645
3	0xbdcf5638	-0.10123867
4	0x3e195507	0.14973842
5	0xbdd3ed82	-0.103480354
6	0xbdbb6c36	-0.09151499
7	0xbdd3011d	-0.10302947
8	0xbbcb8640	-0.006211072
9	0xbcc5e338	-0.024156198
10	0x3dff8e82	0.12478353
11	0xbdd10322	-0.10205676
12	0xbcd5c920	-0.02609688
13	0x3c9356f0	0.017985791
14	0x3e13724d	0.14399071
15	0x3d9afbf2	0.07567586
16	0x3dfc78ca	0.12327726
17	0xbca7cca3	-0.02048332
18	0xbe117e97	-0.14208446
19	0x3dd9d172	0.10635652
20	0xbd6a097c	-0.05713795
21	0xbd9341ac	-0.0719026
22	0xbd4e426c	-0.050356314
23	0xbd9e21eb	-0.07721313
24	0xbe1cd5fc	-0.15316004
25	0x3df53292	0.11972536
26	0x3c8cf3ed	0.017206157
27	0xbe1128b4	-0.14175683
28	0xbdce2873	-0.10066309
29	0xbe0b5fae	-0.13610718
30	0x3d87587a	0.066086724
31	0x3df0e0ae	0.11761604
32	0xbd1730b8	-0.036911696
33	0x3c245e81	0.010032297
34	0x3d851312	0.06497778
35	0x3daaf271	0.08347023
36	0x3d3d8fda	0.046279766
37	0x3e0dc60d	0.13845082
38	0x3e043ac3	0.12913041
39	0xbdf2a724	-0.11848286
40	0xbe411540	-0.18855762
41	0xbdad54da	-0.0846345
42	0xbe095ac4	-0.1341353
43	0xbb0b2d04	-0.0021236548
44	0xbd0751a4	-0.033036843
45	0x3df1d702	0.118085876
46	0x3d16f91e	0.03685867
47	0xbd0caa34	-0.034342006
48	0x3dde73e6	0.108619496
49	0x3ddd3fea	0.10803206
50	0xbc3ddc52	-0.011588173
51	0x3e0b3e8f	0.13598083
52	0xbdd2f96f	-0.10301482
53	0x3d2265f4	0.03964801
54	0x3db77382	0.08957578
55	0xbe5fae3f	-0.21843813
56	0xbdf58223	-0.11987712
57	0x3d46ec2c	0.048565075
58	0xbccb4f35	-0.024818042
59	0x3daf40c7	0.08557277
60	0xbdb2f627	-0.08738356
61	0xbe05311f	-0.1300702
62	0x3d6cb188	0.057786494
63	0x3db48dd6	0.088161156
64	0xbe0d986a	-0.13827673
65	0x3e09ffa7	0.1347643
66	0xbe02ef4b	-0.12786596
67	0xbda2817a	-0.07934852
68	0xbdad114d	-0.084505655
69	0xbda95fe0	-0.0827024
70	0xbe11c5e7	-0.1423565
71	0xbd2927d0	-0.041297734
72	0xbde2b17b	-0.11069008
73	0xbc81d3a8	-0.015847996
74	0x3d9e6106	0.077333495
75	0x3da65f9e	0.08123706
76	0xbe073994	-0.13205558
77	0x3e10eb47	0.14152251
78	0x3d0b2258	0.0339683
79	0x3d613088	0.054977924
80	0x3da54992	0.08070673
81	0xbd2b2d60	-0.04179132
82	0x3e33cc0f	0.17558311
83	0x3dc9e66e	0.09858404
84	0xbe0c86aa	-0.13723245
85	0xbdc36bc2	-0.095420375
86	0x3d30aab4	0.043131545
87	0x3e3368cf	0.1752045
88	0x3db215da	0.08695574
89	0x3e2ecfe7	0.17071496
90	0xbd82b24e	-0.06381665
91	0xbd068a44	-0.032846704
92	0xbdf652aa	-0.12027486
93	0x3d615eb4	0.055021957
94	0xbceafcf0	-0.028685063
95	0xbe22a8ec	-0.15884751
96	0xbb01f240	-0.001982823
97	0x3cbda0ea	0.023148019
98	0x3db428d2	0.08796848
99	0x3dfa528a	0.12222774
100	0x3aa6f398	0.0012737392
101	0xbe2340bc	-0.15942663
102	0x3d0c622c	0.03427331
103	0x3dde010d	0.10840044
104	0xba1737c0	-0.00057685
105	0xbd6f226e	-0.058382444
106	0x3bde8080	0.0067902207
107	0xbcc8a090	-0.024490625
108	0x3df38492	0.1189052
109	0x3d4df35c	0.050280914
110	0x3d8f16f9	0.069868036
111	0xbdcaa971	-0.098956
112	0xbd18c5d0	-0.037298024
113	0x3e0e67b3	0.13906746
114	0x3de63849	0.11241204
115	0xbe2d91b2	-0.1695011
116	0xbe01a4af	-0.12660478
117	0x3d901ec9	0.07037122
118	0x3dae3666	0.085064694
119	0x3cb95642	0.022624139
120	0xbca3c7ae	-0.019992676
121	0x3d07a83b	0.03311942
122	0x3d055912	0.032555647
123	0xbd9ca1fb	-0.07648083
124	0x3e12204a	0.1427013
125	0x3d944a7c	0.07240769
126	0x3dd20576	0.10254948
127	0xbd5ef74c	-0.05443506
128	0x3d4949c8	0.04914263
129	0xbc9f22d0	-0.01942578
130	0x3daf4402	0.08557893
131	0xbe32eea4	-0.17473847
132	0x3dc0e766	0.09419136
133	0x3cfd1940	0.03089583
134	0xbdbe4abd	-0.09291599
135	0xbd0cc540	-0.0343678
136	0x3dd03d76	0.10167973
137	0xbe1a9a7a	-0.1509799
138	0xbe0316c2	-0.1280165
139	0x3d8bacde	0.06820081
140	0x3caf8390	0.021425039
141	0xbd677a82	-0.056513317
142	0x3af20e80	0.0018467456
143	0xbe16068b	-0.14650933
144	0x3d80bffe	0.062866196
145	0xbd8445aa	-0.064586
146	0xbdaa0546	-0.08301787
147	0x3d923d5c	0.071406096
148	0xbd05ed98	-0.03269729
149	0x3e2a3323	0.1662107
150	0x3d9df1f6	0.07712166
151	0x3dd2fc2e	0.10302006
152	0x3e2b7879	0.16745175
153	0xbe094579	-0.13405408
154	0xbdaf1af8	-0.08550066
155	0x3d49e0c8	0.049286634
156	0xbd58823c	-0.052858576
157	0xbcf85c20	-0.030317366
158	0x3cd2cda0	0.025732815
159	0x3c141840	0.009038985
160	0xbd738e5a	-0.05946193
161	0xbd4362af	-0.047701534
162	0x3e1c0279	0.15235318
163	0xbba66580	-0.0050780177
164	0xbe30aba0	-0.1725297
165	0xbc88e0f0	-0.016708821
166	0xbe12604c	-0.14294547
167	0xbd5e79ac	-0.054315254
168	0xbd8f4b4d	-0.06996784
169	0x3d8b6d4a	0.068079546
170	0x3df0f59e	0.11765598
171	0xbd4bccf8	-0.04975602
172	0xbe0066b0	-0.12539172
173	0x3dcfd9a6	0.10148935
174	0x3ddc34eb	0.10752281
175	0x3d17eb84	0.03708984
176	0xbdae6d1e	-0.08516906
177	0x3c93fcbe	0.018064853
178	0x3db30d2e	0.08742748
179	0xba437000	-0.0007455349
180	0x3df99dfa	0.12188335
181	0x3e2311c5	0.15924747
182	0xbc9bd6c8	-0.019023314
183	0xbdf0dd3f	-0.11760949
184	0xbdabd897	-0.083909206
185	0xbe295b0e	-0.16538641
186	0x3d9e73c8	0.07736927
187	0x3e21e529	0.15810074
188	0x3cb13794	0.021632947
189	0xbcc0d769	-0.023540216
190	0x3da7aac2	0.08186866
191	0x3e02aa77	0.1276034
192	0x3e00d04f	0.12579463
193	0x3e2f9ceb	0.17149703
194	0x3d99362e	0.07481037
195	0x3e0460d1	0.12927558
196	0xbca7c1b0	-0.0204781
197	0xbdfdfd7e	-0.124018654
198	0xbe29869f	-0.1655526
199	0x3df60526	0.12012701
200	0x3e257f77	0.16161905
201	0xbcf86418	-0.030321166
202	0x3da1283e	0.07869004
203	0x3d5a9f7c	0.053374752
204	0x3ce92cd8	0.028463766
205	0xbe065828	-0.13119566
206	0xbd28438c	-0.041080043
207	0x3db2f076	0.087372705
208	0xbe009481	-0.1255665
209	0xbe1b7f37	-0.15185247
210	0xbe325493	-0.17415075
211	0xbce00140	-0.027344346
212	0x3c012960	0.0078834
213	0xbce8f428	-0.028436735
214	0xbe2bc03a	-0.16772547
215	0xbdf8358e	-0.1211959
216	0xbe1236e0	-0.14278746
217	0xbe21cdb8	-0.15801132
218	0xbde1d64c	-0.11027202
219	0xbe1f142b	-0.15535037
220	0x3e1634d7	0.14668594
221	0x3e227b9d	0.15867467
222	0xbe2ede61	-0.17077018
223	0x3d1389f8	0.03602025
224	0xbd777650	-0.060415566
225	0x3d80d124	0.062898904
226	0x3b8e70c0	0.004346937
227	0xbe1387c9	-0.14407267
228	0x3db68ea4	0.08913925
229	0xbced0630	-0.028933614
230	0x3c6d8fb0	0.01449959
231	0x3d8e3d51	0.06945289
232	0xbdd7648b	-0.10517224
233	0x3dc481de	0.09595083
234	0x3bceb6c0	0.0063084066
235	0x3d8a57a8	0.06755
236	0x3d2ea9fc	0.04264258
237	0x3dd9a11a	0.10626431
238	0xbe025537	-0.1272782
239	0x3e21246b	0.15736549
240	0x3db1b43a	0.086769536
241	0xbe5af646	-0.21383008
242	0xbd81d362	-0.06339146
243	0x3e119f1b	0.1422085
244	0x3d5b35db	0.053518157
245	0x3dc0e4d7	0.09418648
246	0x3d609388	0.054828197
247	0xbe9d9e51	-0.30784848
248	0xbc9203c1	-0.017824056
249	0xbd878890	-0.06617844
250	0xbe1fda49	-0.15610613
251	0xbce08a9b	-0.027409842
252	0xbdccdf1b	-0.100034915
253	0xbd9aedca	-0.07564886
254	0x3c8b11d0	0.016976267
255	0xbd116280	-0.035494328

rnn.bias_ih_l0_reverse f4 [128]
0	0x3caf78fd	0.021419996
1	0xbd8a5da6	-0.06756143
2	0x3da36bca	0.079795435
3	0xbd9e56a6	-0.07731371
4	0xbd316ff8	-0.043319672
5	0xbe0e0d98	-0.13872373
6	0xbdf147a2	-0.11781241
7	0xbca53dc6	-0.020171057
8	0x3e36dff2	0.17858866
9	0xbe2c1a4c	-0.16806906
10	0xbcb53058	-0.022117779
11	0xbe01697c	-0.12637895
12	0xbe077227	-0.1322714
13	0x3e2abd3d	0.16673751
14	0x3c714c60	0.014727682
15	0xbd9b1d45	-0.07573942
16	0xbe0f8900	-0.14017105
17	0x3dbf4cfe	0.09340857
18	0x3e142c03	0.14469914
19	0x3d10fd34	0.035397723
20	0xbd0792ab	-0.033098858
21	0x3db9d153	0.090731286
22	0x3df9a556	0.121897385
23	0x3e375cc7	0.17906485
24	0x3bc0d7e9	0.0058851135
25	0xbe34cacd	-0.17655487
26	0x3dfc2c56	0.12313144
27	0xbdeea764	-0.11653021
28	0x3e328d99	0.17436828
29	0x3dc2929a	0.09500618
30	0xbcc7d438	-0.024393186
31	0xbc1bb410	-0.009503379
32	0xbdd6f3f2	-0.104957476
33	0x3c346300	0.011009932
34	0xbe0fea24	-0.14054161
35	0xbc9739c5	-0.018460164
36	0xbde95642	-0.113934055
37	0x3d21ddb0	0.03951806
38	0xbdb59e42	-0.08868076
39	0x3dc0fbaa	0.09423001
40	0xbde71b41	-0.11284495
41	0x3d939886	0.07206826
42	0xbd476370	-0.048678815
43	0xbc6d4910	-0.0144827515
44	0xbe104104	-0.14087301
45	0xbd4e7660	-0.05040586
46	0x3e1bf4f1	0.15230156
47	0xbe2ea0f0	-0.1705358
48	0xbbe92740	-0.0071152747
49	0xbdeabde7	-0.11462002
50	0xbe1cac9c	-0.1530022
51	0xbdf6e214	-0.1205484
52	0x3dbd3102	0.09237863
53	0xbd786ffb	-0.060653668
54	0x3d38e8f0	0.04514402
55	0x3d8816e5	0.06644992
56	0x3d8cec96	0.06881063
57	0xbe015716	-0.12630877
58	0x3d7345ee	0.059392862
59	0x3e0befa0	0.13665628
60	0x3d86649c	0.065621585
61	0xbd01aa28	-0.031656414
62	0x3e240343	0.16016869
63	0x3e24af6f	0.16082548
64	0xbdd8c503	-0.10584452
65	0xbdd474ee	-0.10373865
66	0x3e12aa6d	0.14322825
67	0xb8c53000	-9.402633e-05
68	0xbc4d77e0	-0.012540787
69	0xbde7c5c5	-0.113170184
70	0x3cb15f00	0.021651745
71	0xbdec420e	-0.115360364
72	0xbd05402c	-0.032531902
73	0x3c734c40	0.014849722
74	0x3e2f5a65	0.17124327
75	0x3e1201f5	0.14258559
76	0xba903d00	-0.0011004508
77	0x3cec0f68	0.02881594
78	0x3dd4aa6a	0.103840664
79	0xbe13ac3e	-0.14421174
80	0xbe006d11	-0.12541606
81	0xbd91beb4	-0.07116452
82	0x3df38c1e	0.118919596
83	0xbddc9d12	-0.10772146
84	0xbdcef809	-0.10105903
85	0x3daaa4a2	0.083321825
86	0xbdfe5fed	-0.1242064
87	0xbd99405c	-0.07482979
88	0x3c819270	0.015816897
89	0x3d6c3288	0.057665378
90	0x3e251795	0.16122277
91	0xbd82a2ab	-0.06378683
92	0x3dd31d17	0.10308283
93	0x3d9b577e	0.07585047
94	0x3e0d2c75	0.1378649
95	0xbdafda49	-0.085865565
96	0xbde7e003	-0.11322024
97	0xbd904674	-0.07044688
98	0xbc1a37d0	-0.009412721
99	0x3e173a48	0.14768326
100	0x3e0756a0	0.13216639
101	0xbe1ad1a2	-0.15119031
102	0x3de2e432	0.11078681
103	0xbd4014b0	-0.04689473
104	0xbdd163e3	-0.1022413
105	0xbe30f8bf	-0.17282389
106	0x3de640ea	0.1124285
107	0xbd842c2c	-0.064537376
108	0x3cf29500	0.029612064
109	0xbe007885	-0.12545975
110	0xbe2108cb	-0.1572601
111	0xbda2108a	-0.07913311
112	0xbdffa26c	-0.124821514
113	0x3d880581	0.06641675
114	0xbd835291	-0.06412233
115	0x3d5c9538	0.053853244
116	0xbe14f4c5	-0.14546497
117	0x3e0e3dea	0.13890806
118	0x3d3f2e14	0.046674803
119	0xbd9f8108	-0.07788283
120	0x3dd2b858	0.10289067
121	0x3e17fd9b	0.14842837
122	0x3d9db92a	0.07701333
123	0x3d3e82d4	0.046511486
124	0x3d836208	0.06415182
125	0x3e09a690	0.13442445
126	0xbe186c22	-0.14885
127	0x3dfb81d2	0.12280621

rnn.bias_hh_l0_reverse f4 [128]
0	0x3df17e32	0.11791648
1	0xbd2278c9	-0.03966597
2	0x3d60ce30	0.054884136
3	0x3d4fe833	0.05075855
4	0x3d52f3f8	0.051502198
5	0xbdd83780	-0.10557461
6	0xbdc7aefb	-0.09750172
7	0xbd99c4b2	-0.0750822
8	0x3c817331	0.015801998
9	0x3d8ce346	0.068792865
10	0x3dd7dd1e	0.10540222
11	0xbcbd9de0	-0.02314657
12	0x3e1876eb	0.14889114
13	0x3d3200b8	0.043457717
14	0x3e0066c7	0.12539206
15	0xbe2572a8	-0.16157019
16	0x3d5e8023	0.05432142
17	0xbdf3935e	-0.118933424
18	0x3dbc65f2	0.09199132
19	0x3dbdc7e6	0.09266643
20	0x3e179b69	0.14805378
21	0xbd813f11	-0.06310857
22	0xbdf407a6	-0.11915521
23	0xbde30a78	-0.11085981
24	0xbe11c5ed	-0.14235659
25	0xbdb241c1	-0.08703948
26	0x3d333a37	0.04375669
27	0x3d977f3c	0.07397315
28	0x3c6ae827	0.014337576
29	0xbe1b87b0	-0.1518848
30	0xbe16403a	-0.14672938
31	0x3db58a06	0.088642165
32	0x3e21d095	0.15802224
33	0xbdba829a	-0.091069415
34	0x3d5deb3c	0.054179415
35	0xbbb6631d	-0.0055660144
36	0x3e01520d	0.12628956
37	0x3dff8f06	0.124784514
38	0xbdbdb0d3	-0.09262242
39	0x3d298918	0.04139051
40	0x3e283c5d	0.16429277
41	0x3e2c4f9b	0.16827242
42	0x3dc762b6	0.097356245
43	0xbca35ac8	-0.019940749
44	0xbd82d31e	-0.06387924
45	0x3d4476f0	0.04796499
46	0xbd54c694	-0.05194719
47	0xbd1f47b0	-0.038886726
48	0xbda08076	-0.07837002
49	0x3d2ea9cf	0.04264241
50	0xbd1a7820	-0.037712216
51	0xbe1fd452	-0.15608338
52	0xbc773810	-0.01508905
53	0x3d5a595b	0.053307872
54	0x3d4884dc	0.04895483
55	0x3dedd408	0.116127074
56	0x3e3018d5	0.17196973
57	0x3af76211	0.001887383
58	0x3db55eb0	0.08855951
59	0xbe063560	-0.13106298
60	0x3d524a65	0.05134048
61	0xbdfafb52	-0.12254967
62	0xbe34444f	-0.17604183
63	0xbcbef3b8	-0.023309574
64	0xbd4e63da	-0.050388195
65	0xbd57df8e	-0.052703433
66	0xbd3791bc	-0.044816718
67	0xbd3e5874	-0.046471074
68	0x3df15896	0.117844746
69	0x3d095528	0.033528477
70	0xbd30c11c	-0.043152913
71	0xbdd496d3	-0.1038033
72	0x3e21743b	0.15766995
73	0x3daa2ce6	0.08309345
74	0xbdc20afb	-0.094747506
75	0x3de1db0e	0.110281095
76	0xbdb19582	-0.086710945
77	0x3d8c53de	0.06851934
78	0xbdafe907	-0.08589368
79	0x3d763050	0.06010467
80	0x3e33c0e9	0.17554058
81	0x3ccc83bc	0.02496516
82	0x3dc9a5ce	0.09846078
83	0xbe12bb0e	-0.14329168
84	0x3e004219	0.12525214
85	0xbe1ce8c9	-0.15323175
86	0x3d86670e	0.06562625
87	0xbe203c59	-0.15648021
88	0xbe19a46b	-0.15004127
89	0xbde3945c	-0.11112282
90	0x3daf872c	0.08570704
91	0x3d5e8c5c	0.054333076
92	0x3d10343e	0.035206072
93	0xbd35d91c	-0.044396505
94	0xbd77ffc8	-0.060546666
95	0x3ddd7ada	0.10814448
96	0xbd8c6204	-0.068546325
97	0xbdc914e6	-0.09818439
98	0x3e180c49	0.14848436
99	0xbdae0683	-0.08497336
100	0x3e40cbda	0.18827763
101	0xbc992708	-0.01869537
102	0xbdfc5883	-0.1232157
103	0xbd9261b5	-0.071475424
104	0x3d7d46cc	0.061835095
105	0x3d978372	0.07398118
106	0xbda511ed	-0.0806006
107	0xbe0d8ea7	-0.13823949
108	0xbd850747	-0.06495529
109	0xbd3a1458	-0.045429558
110	0xbde66024	-0.11248806
111	0xbe309a29	-0.17246307
112	0xbe12277e	-0.14272878
113	0xbe0e015c	-0.13867706
114	0xbd943b77	-0.072379045
115	0xbdbfdf0d	-0.093687154
116	0x3e3e35f8	0.18575275
117	0x3e491a7a	0.19639006
118	0x3e31c7b1	0.17361332
119	0xbe0f4d6a	-0.13994375
120	0x3d982156	0.07428233
121	0x3e18d49f	0.14924859
122	0x3c0ada0f	0.008474841
123	0xbc3a9fc0	-0.011390626
124	0xbddfca33	-0.10927238
125	0x3da1698e	0.07881461
126	0xbc208060	-0.009796232
127	0xbe2104ec	-0.15724534

rnn.weight_ih_l1 f4 [128, 64]
0	0x3d262cac	0.040569946
1	0xbe899efc	-0.26879108
2	0xbe6e3ee8	-0.23266184
3	0xbd002745	-0.03128745
4	0x3cf68970	0.030094832
5	0xbc83f47d	-0.016107792
6	0xbdbee585	-0.09321121
7	0xbd9210ba	-0.071320966
8	0x3e0da1ad	0.13831206
9	0x3e3028e9	0.17203106
10	0x3e4934fb	0.19649117
11	0x3bbd050e	0.005768425
12	0x3dcc44b2	0.0997404
13	0x3e00667b	0.12539093
14	0x3d79e654	0.061010674
15	0xbe25d5ca	-0.16194835
16	0xbe9a941b	-0.3019112
17	0xbc5d6fe0	-0.013515443
18	0xbdfdd7a6	-0.12394647
19	0x3d224024	0.03961195
20	0x3daef9f2	0.08543767
21	0xbdbfc560	-0.09363818
22	0x3e31c4d5	0.17360242
23	0x3e0b604c	0.13610953
24	0x3d242fa1	0.040084485
25	0x3cd16018	0.025558516
26	0x3e9bf1e0	0.30457973
27	0x3d9b9c82	0.07598211
28	0x3d9e334e	0.07724629
29	0x3ce2bf18	0.027679011
30	0xbe8140c4	-0.25244725
31	0x3e3718fb	0.17880623
32	0x3d44b22c	0.04802148
33	0x3e81baca	0.2533782
34	0xbd7cef62	-0.06175173
35	0x3c9aeed9	0.01891272
36	0xbec0baef	-0.3764262
37	0xbe2def97	-0.16985928
38	0x3e16d137	0.14728247
39	0x3da04d41	0.07827235
40	0xbd84987f	-0.06474399
41	0xbdd93b70	-0.1060704
42	0x3ca8a158	0.020584747
43	0x3ca0feda	0.019652773
44	0x3d99fdc2	0.075191036
45	0xbe1826f6	-0.14858612
46	0x3e9dc23a	0.30812246
47	0xbda90769	-0.082533665
48	0xbddd9cc1	-0.10820914
49	0xbe5dfdab	-0.21678798
50	0x3eafd067	0.34338686
51	0xbe133d3d	-0.1437883
52	0xbe737c14	-0.23777801
53	0xbdbe445e	-0.09290384
54	0x3e161769	0.14657368
55	0xbeb98571	-0.3623462
56	0xbd63a8bc	-0.05558084
57	0xbd67e88b	-0.056618255
58	0xbe46cbf7	-0.19413744
59	0x3db5e113	0.0888082
60	0x3e85c436	0.2612626
61	0x3e5e1356	0.21687064
62	0x3e28dc4f	0.16490291
63	0xbe2b8b7b	-0.16752426
64	0x3e2b1b8a	0.16709724
65	0xbe8ab630	-0.27092123
66	0xbe10b24a	-0.14130512
67	0xbe3b1b59	-0.18272151
68	0xbca06a98	-0.019582078
69	0xbad07811	-0.0015904923
70	0xbe5040f3	-0.20337276
71	0xbcc70035	-0.02429209
72	0x3dadab32	0.084799185
73	0xbd6e292a	-0.058144726
74	0x3e6fa54b	0.23402898
75	0x3e661050	0.2246716
76	0x3ec8b05b	0.3919705
77	0x3d597c6c	0.053097174
78	0xbcd695b8	-0.026194438
79	0xbe25a643	-0.16176705
80	0xbdba0601	-0.090831764
81	0xbdf670e3	-0.1203325
82	0xbe43912b	-0.19098346
83	0xbe2475e1	-0.16060592
84	0xbce22130	-0.027603716
85	0xbc8df068	-0.017326549
86	0x3c5b19a0	0.013372809
87	0x3d3d1323	0.04616083
88	0x3e94eefa	0.29088575
89	0x3e17a74b	0.14809911
90	0x3e88c6e9	0.26714256
91	0x3d3cc94c	0.04609041
92	0x3da51b92	0.08061899
93	0x3d042544	0.0322621
94	0xbd9130c9	-0.07089383
95	0x3dfe8225	0.12427167
96	0x3e172d4b	0.14763372
97	0xbb471717	-0.0030378753
98	0xbba95e60	-0.005168721
99	0xbdaa6061	-0.08319164
100	0xbe1b812c	-0.15185994
101	0x3be20a7d	0.006898223
102	0x3d73b784	0.059501186
103	0x3ddd863c	0.10816619
104	0xbd490a9f	-0.049082395
105	0x3ce66a80	0.028126955
106	0xbd9066bc	-0.07050845
107	0xbd7eb193	-0.062181067
108	0x3dd7a2da	0.10529108
109	0xbdc21b63	-0.0947788
110	0x3e8a8633	0.2705551
111	0xbdb1ecef	-0.086877696
112	0x3e31e36f	0.17371915
113	0xbeabdf57	-0.33568832
114	0x3ec0ee05	0.37681594
115	0x3d8e4334	0.06946412
116	0xbea9b1f6	-0.33143586
117	0xbe7e3df4	-0.2482832
118	0xbbe5d980	-0.0070144534
119	0xbe8eed68	-0.27915502
120	0x3d10b439	0.035328124
121	0xbe2ff7d7	-0.17184387
122	0xbd3f595b	-0.046716075
123	0x3d913563	0.07090261
124	0x3d5dc3df	0.054141875
125	0x3e832778	0.2561605
126	0xbe09df76	-0.1346415
127	0xbd3f485c	-0.046699867
128	0x3e16df7c	0.1473369
129	0xbe69d0a0	-0.2283349
130	0xbe07b03c	-0.13250822
131	0xbe81a7e5	-0.25323406
132	0x3d853ea4	0.065060884
133	0x3dcc937b	0.09989067
134	0xbe2a0a5c	-0.16605514
135	0xbdf378a8	-0.11888248
136	0x3ccd7bc0	0.025083423
137	0xbe3305a1	-0.17482616
138	0x3ea64dcf	0.32481238
139	0x3d7e8bb5	0.062144954
140	0x3e6ea020	0.2330327
141	0xbded48ec	-0.11586174
142	0xbe1d5567	-0.1536461
143	0xbe84b839	-0.259218
144	0xbe4cdc41	-0.20005895
145	0xbc6cc2f1	-0.0144507745
146	0xbcb89db9	-0.022536146
147	0xbe2dac14	-0.16960174
148	0x3c93f2e8	0.018060163
149	0xbe0eaa83	-0.13932233
150	0xbd989bb4	-0.07451573
151	0x3e2f34d1	0.17109992
152	0x3e9915b9	0.29899386
153	0x3dcabf22	0.09899737
154	0x3e5b9c23	0.2144628
155	0x3d87e808	0.06636053
156	0x3e16ea17	0.14737736
157	0xbd96ae4f	-0.073574655
158	0xbe684b3a	-0.22684947
159	0x3ea39de8	0.3195641
160	0xbdca7098	-0.09884757
161	0x3e5ddbad	0.21665831
162	0xbcc092d0	-0.023507506
163	0x3e340f46	0.17583951
164	0xbd1c06f6	-0.038092576
165	0xbd15c474	-0.036564305
166	0x3d6a3eec	0.057188913
167	0x3e59d966	0.21274337
168	0xbe6a4557	-0.22878014
169	0x3dd5c36e	0.10437666
170	0xbd6ce426	-0.057834767
171	0x3e14295f	0.14468907
172	0xbe16abdd	-0.14713998
173	0x3c7ec710	0.01555039
174	0x3acdb582	0.0015694352
175	0x3e174429	0.14772095
176	0xbdb6b9cc	-0.08922157
177	0xbe6e90bf	-0.23297404
178	0x3e32a37b	0.17445175
179	0x3d74fed8	0.05981335
180	0xbe320fec	-0.17388886
181	0xbd15416c	-0.036439344
182	0xbe01029f	-0.12598656
183	0xbe407fe4	-0.18798786
184	0xbe954653	-0.29155216
185	0xbe906f85	-0.28210083
186	0xbdf00191	-0.11719049
187	0x3e1d7948	0.15378296
188	0x3e0c0fae	0.13677856
189	0x3e1ca87c	0.15298647
190	0x3e0dfce7	0.13866006
191	0xbe18d1c2	-0.14923766
192	0x3d89a396	0.06720655
193	0xbe4da63f	-0.20082949
194	0xbe1b8359	-0.15186824
195	0xbe8b703f	-0.27234074
196	0xbe258195	-0.16162713
197	0x3e647822	0.22311452
198	0xbc9c1921	-0.019054951
199	0xbe6263c8	-0.22108376
200	0xbc62df20	-0.013847142
201	0x3e01ad3f	0.12663744
202	0x3c0ade1f	0.008475809
203	0x3e854404	0.26028454
204	0x3e649e8b	0.22326104
205	0xbe2f4ead	-0.17119856
206	0xbe124d9b	-0.14287417
207	0xbe5f9868	-0.21835482
208	0xbe2b38ac	-0.16720837
209	0xbd24cc29	-0.040233765
210	0xbe950ed1	-0.29112867
211	0xbd1597f4	-0.036521867
212	0x3e29379d	0.16525121
213	0x3cc86518	0.024462268
214	0xbe1e645c	-0.15467972
215	0x3dbbe4dd	0.091745116
216	0x3de3cb0b	0.11122712
217	0x3d979132	0.07400741
218	0x3e3e5154	0.18585712
219	0x3dcff42a	0.101539925
220	0x3e15c7c3	0.14626984
221	0xbd0d5790	-0.034507334
222	0xbe274b94	-0.16337425
223	0x3d1c35e2	0.038137324
224	0xbc0f78f5	-0.008756866
225	0x3ea463a0	0.32107258
226	0x3de86a52	0.11348404
227	0xbd2acf52	-0.041701622
228	0xbd961659	-0.07328481
229	0xbccbc858	-0.024875805
230	0x3c3ee7c0	0.011651933
231	0x3e6fcd39	0.2341813
232	0xbc5c9e24	-0.013465438
233	0xbd4a1d40	-0.0493443
234	0x3df49f6e	0.11944471
235	0x3e16019b	0.1464905
236	0xbe0bf512	-0.13667706
237	0xbd91f3a2	-0.071265474
238	0x3e949e50	0.29027033
239	0x3d48aa5c	0.048990592
240	0xbdcac0f4	-0.09900084
241	0xbe29a272	-0.16565874
242	0x3ddd8acf	0.10817491
243	0x3d4c3f68	0.049865156
244	0xbebd3a74	-0.3695866
245	0xbe0ec9dc	-0.1394419
246	0xbe0bd2f7	-0.13654695
247	0xbe84c75e	-0.25933355
248	0xbe6e3c26	-0.23265132
249	0xbe221029	-0.15826477
250	0xbeacb5f3	-0.33732566
251	0x3d4c110c	0.049820945
252	0x3ea7dbf9	0.32785013
253	0x3c018a60	0.007906526
254	0x3d38e714	0.04514225
255	0x3c7f9110	0.01559855
