seqlstm/model_epoch_2.pt (torch, 811212 bytes, 10 tensors)

lstm.weight_ih_l0 f4 [512, 5]
000000 89 07 96 3d c0 7a 82 ba 60 ad 4c 3c 7f 4a 40 bd
       0.07325656 -0.0009954795 0.012492508 -0.046946045
000010 38 33 35 bc cc 94 e7 3c fa 26 23 3d 88 d0 e6 3c
       -0.011059575 0.028269194 0.039832093 0.028175607
000020 9d 5c 9e bd f5 44 8a bd c0 df 77 bd 30 8b d9 3b
       -0.07732508 -0.06751434 -0.06051612 0.006638907
000030 ca 4f 6a bd 1d 92 42 bd f7 c0 98 3d 6e 9a 75 bd
       -0.057205 -0.047502626 0.0745868 -0.05996173
000040 00 6e 5e 3a ae c1 9c bd 00 62 44 3b a0 19 14 3b
       0.0008485019 -0.07654129 0.002996564 0.0022598282
000050 28 63 54 3c f9 4f 9d bd 6e f0 98 bd e0 76 a2 bb
       0.012963094 -0.07681269 -0.07467733 -0.0049580187
000060 7e 1b 40 3d 3f 16 a6 3d 40 98 8d bb 9d 70 80 3d
       0.04690122 0.08109712 -0.004321128 0.06271479
000070 24 7a 7a bd 99 1c 69 bd 48 26 85 bd a6 5a 16 bd
       -0.06115164 -0.05691204 -0.06501442 -0.036707543
000080 36 68 3b 3d 80 67 73 3b d9 e1 62 bd f3 53 af 3d
       0.04575368 0.0037140548 -0.055391166 0.08560934
000090 58 6a 8e bc 2e f3 7f 3d 6e 70 1c 3d 80 b1 ce 3c
       -0.017384693 0.062487774 0.03819316 0.025231123
0000a0 13 3c 49 bd c0 43 c1 bb 85 79 93 3d 3e 7c 5d 3d
       -0.049129557 -0.005897969 0.072009124 0.054073565
0000b0 00 80 63 36 22 c5 e6 bc 8e 19 65 3d 03 fb ae 3d
       3.3900142e-06 -0.028170172 0.055932574 0.085439704
0000c0 c2 79 3b bd 0a c7 31 bd 6e 22 da bc a3 9b 36 bd
       -0.045770414 -0.04340271 -0.026627745 -0.04458202
0000d0 be 59 19 3d 06 fc 1f bd da 36 10 bd c0 20 c9 3a
       0.0374391 -0.039058708 -0.03520856 0.0015344843
0000e0 80 78 2a 3b 31 09 94 3d 05 1d 49 bd 16 06 33 3d
       0.0026011765 0.072283156 -0.04909994 0.043706976
0000f0 46 da 2c 3d ec 95 89 bd 83 af 9e bd 56 b5 ac bd
       0.04220035 -0.067180485 -0.0774832 -0.084330246
000100 1a 35 55 3d b3 b1 a4 3d bd f4 ae 3d 98 9f aa 3c
       0.052052595 0.08041706 0.08542774 0.020828053
000110 d0 44 56 bd 62 b5 57 bd cb 4c 85 3d 70 39 71 bd
       -0.05231172 -0.052663215 0.06508788 -0.058892667
000120 f0 2c 37 bc 0e 9e d8 bc 6c a5 ba 3c 36 5e 2b 3d
       -0.0111801475 -0.026442554 0.022783957 0.041837893
000130 70 0a bb bc 40 48 80 bc aa c6 0b 3d 9e c8 7c 3d
       -0.022832125 -0.015659451 0.034125008 0.06171476
000140 6a d2 eb bc 0c 77 7d bd 74 7c 39 bd ca f5 8e bd
       -0.028786857 -0.06188111 -0.045284703 -0.06980474
000150 2c de d0 bc 5a 36 3d 3d f0 50 57 bd 88 87 64 bc
       -0.025496565 0.04619441 -0.052567422 -0.013948329
000160 0d cd 8a 3d e0 2c 3b 3b 38 98 bb 3c 1e 04 38 bd
       0.067773916 0.0028560683 0.022899732 -0.0449258
000170 90 76 e4 bb d0 58 c9 bb 69 42 b2 bd e0 c8 a2 bc
       -0.0069721416 -0.0061446205 -0.08704073 -0.019871175
000180 61 b8 8b 3d 75 7b 91 bd 35 5f 43 bd 6c ae 79 bd
       0.06822277 -0.07103626 -0.04769822 -0.060957357
000190 2d d5 5a bd 02 54 50 3d af a0 b0 3d e3 11 b4 bd
       -0.053425957 0.050861366 0.08624398 -0.08792474
0001a0 99 62 9e 3d b6 23 8a bd ff b3 83 3d 5a cc 97 bd
       0.0773365 -0.067450926 0.06430816 -0.07412024
0001b0 1a 88 89 bd 60 c1 31 bc 22 a6 68 3d 1e f8 9f bd
       -0.067154124 -0.010849327 0.05679906 -0.078109965
0001c0 a1 31 92 3d 50 19 35 bd c3 65 1d bd f0 fc 96 3b
       0.07138372 -0.044213593 -0.038427126 0.004607789
0001d0 9c 81 89 bd b6 98 07 bd 00 73 2a ba 38 10 bc 3c
       -0.06714174 -0.03310462 -0.00065021217 0.022956952
0001e0 50 99 5d bc 02 b3 34 3d 5c 6c 0a bd f9 19 a4 3d
       -0.013525322 0.044116028 -0.033794746 0.080127664
0001f0 75 fd 2c bd 88 73 3d bc 40 81 d1 bc f6 77 38 bd
       -0.042233903 -0.011563189 -0.025574327 -0.04503628
000200 c2 f8 27 3d 58 f5 59 3c 06 6e 06 bd c0 6e 42 3c
       0.04100872 0.013303123 -0.03281977 0.011867225
000210 f0 af c3 3b f4 26 d3 bc b8 4a 48 bd 17 ee 5e bd
       0.005971901 -0.02577541 -0.048899382 -0.05442628
000220 c7 55 66 bd 15 c6 88 bd a7 54 48 bd 65 41 9f 3d
       -0.056234147 -0.06678406 -0.048908856 0.07776145
000230 35 13 9e 3d c1 44 37 bd 33 c8 a4 bd a0 1b 6e bb
       0.07718507 -0.044743303 -0.080459975 -0.0036332384
000240 0a 1e 7c 3d 1a 06 78 3d 33 a0 0e bd 27 04 0b bd
       0.061552085 0.060552694 -0.034820747 -0.033939507
000250 30 35 5d bc 1a 84 26 3d 30 97 92 bb 96 17 42 3d
       -0.01350145 0.040653326 -0.0044735894 0.047385775
000260 5d d2 86 3d 55 55 a8 3d 2c 23 bb 3c 54 33 f5 3c
       0.06583092 0.08219401 0.02284392 0.029931702
000270 59 d8 0c bd e6 fc 31 bd d6 b2 77 bd f9 20 99 bd
       -0.034386013 -0.043454073 -0.060473286 -0.07476992
000280 9c 57 d0 3c 5b 0f 9c 3d ed 2c b0 3d c2 3c 51 3d
       0.0254324 0.07620116 0.08602319 0.051083334
000290 8c 65 94 bd c9 89 87 bd 29 f7 8b bd 80 b6 fe 3b
       -0.07245931 -0.06618077 -0.068342514 0.0077732205
0002a0 ee e2 48 3d 66 ca 0b 3d 65 19 ad 3d 3a 9b 29 3d
       0.049044542 0.03412857 0.08452109 0.0414078
0002b0 4d 49 8f 3d 4e 8a e3 bc e4 98 e7 3c 50 31 66 bc
       0.06996403 -0.02777591 0.028271146 -0.014049843
0002c0 a9 e9 a5 bd 48 0c 3c 3c 7b 42 b1 3d 3e 0c 9e bd
       -0.08101208 0.011477537 0.08655258 -0.07717179
0002d0 28 eb 5f 3c 4b 4c 52 bd 46 bb a0 bd 6f 8b 89 3d
       0.013666905 -0.05134229 -0.078482196 0.06716048
0002e0 98 6e b5 bc 80 dd 4d bc 18 af 75 bd 2f d5 2e bd
       -0.022147462 -0.012565017 -0.059981436 -0.042683776
0002f0 20 46 94 bb 60 c9 6e 3b 82 61 1e 3d 46 59 70 bd
       -0.004524961 0.0036435947 0.03866721 -0.058678888
000300 31 bf a0 3d c9 db 9a bd d0 7f df bb 8b 86 ab 3d
       0.07848967 -0.07561452 -0.0068206564 0.083752714
000310 a3 a7 55 bd 44 16 b0 bd 94 a8 87 bd a2 ef 3a 3d
       -0.052161824 -0.08597997 -0.066239506 0.045638688
000320 b4 ba ca bc 20 da a3 bb b0 71 ee 3b 42 b5 84 bd
       -0.02474723 -0.0050003678 0.007276736 -0.06479885
000330 98 90 c9 3c 20 cf 96 3b c3 28 9d bd 98 ba 7d bd
       0.02460508 0.004602328 -0.0767379 -0.061945528
000340 9a d5 63 3d 0a 01 67 bd 00 26 d7 39 10 4f a9 bc
       0.05562363 -0.056397475 0.00041036308 -0.020667583
000350 80 ff 7c bc 90 85 43 bc bc c6 81 bd a1 5f 49 bd
       -0.015441775 -0.011933699 -0.06336734 -0.049163464
000360 9c 0d f0 3c bd 76 a2 bd 2e 29 7b 3d 10 c2 b1 3c
       0.029303364 -0.07932804 0.06131857 0.021698982
000370 40 75 39 3b 8d c6 b1 bd 06 8e 4d 3d 1f 1f 9c bd
       0.0028298646 -0.08680449 0.050184272 -0.076231234
000380 20 d9 fe bb c2 8e d4 bc eb 19 53 bd 29 a7 10 bd
       -0.007777348 -0.025946978 -0.05153839 -0.035315666
000390 40 b7 d7 bc 36 86 41 3d e0 43 e8 3c 73 44 95 bd
       -0.026332498 0.047247134 0.028352678 -0.07288446
0003a0 da 11 ad bd 2b b4 b1 bd 9f 1d b2 bd 18 e0 a6 bd
       -0.084506705 -0.086769424 -0.08697056 -0.08148211
0003b0 d0 3a ed 3c 4d ef 13 bd 29 a3 86 3d c0 a4 54 3c
       0.028958708 -0.036116887 0.06574089 0.012978733
0003c0 68 5d a6 bd ae 56 2c 3d 44 31 d9 bc 24 cd 91 bc
       -0.081232846 0.04207485 -0.02651275 -0.017798014
0003d0 bf bb 8e 3d c2 c8 16 bd ed f5 38 bd 03 53 b4 bd
       0.069694035 -0.03681255 -0.045156408 -0.08804896
0003e0 01 f7 a7 bd 94 92 9b 3c d0 c3 4a bd da 2f b4 bd
       -0.08201409 0.018990792 -0.049503148 -0.087981895
0003f0 d2 bc 09 3d 18 46 df bc 1f 7d 44 bd dd 0b 4f bd
       0.03362734 -0.027255103 -0.047970887 -0.050548423

lstm.weight_hh_l0 f4 [512, 128]
000000 6f c8 86 bd ee 7b 99 bd 28 97 a8 bd 80 11 9b bb
       -0.065811984 -0.07494341 -0.08231956 -0.004732311
000010 a0 a0 da 3b 14 f4 a4 bc 1c 8f f7 3c fe c2 aa bd
       0.00667198 -0.020135917 0.030219607 -0.08337973
000020 d0 43 a9 bc a9 dd 8d 3d 82 bc e3 bc 4b 97 a6 bd
       -0.020662218 0.06927044 -0.027799848 -0.081343256
000030 3c a4 9d bd 4c 64 b0 3c dd fd 63 bd 38 96 40 3c
       -0.07697341 0.0215322 -0.055662025 0.011754565
000040 48 5b bf bc 4c 5b 13 bd 5c 18 ad bd 02 22 6c bd
       -0.023358956 -0.03597574 -0.08451912 -0.05764962
000050 1f 2b a7 3d 3e 23 99 bd 6b 60 98 3d d2 0f 5f 3d
       0.081625216 -0.07477425 0.07440265 0.054458447
000060 8d c6 b4 bd a2 0a 12 3d 35 81 b3 bd da b8 09 3d
       -0.08826933 0.03565467 -0.08764879 0.033623554
000070 fd 82 1c bd a4 56 5d bd 2a e2 93 bd 1a da 22 3d
       -0.038210858 -0.054037705 -0.07220872 0.03975878
000080 06 80 32 bd 08 d1 cf 3c 41 5e 89 bd 68 ee 00 bd
       -0.043579124 0.025368229 -0.06707431 -0.031477362
000090 54 06 84 3c 40 1f d3 ba b0 f0 5f bc 50 14 f3 3b
       0.016116299 -0.0016107336 -0.013668224 0.007418193
0000a0 42 38 97 bd a6 ad 48 bd 72 d2 40 3d 00 9e db 3c
       -0.07383777 -0.04899373 0.047075696 0.026808739
0000b0 29 04 32 bd b0 0f bf 3c 5c 46 85 bd d0 19 2c bd
       -0.043461 0.02332291 -0.065075606 -0.042016804
0000c0 74 86 02 bd 5a 15 8a bd 8a 30 2f 3d 70 f8 b0 bb
       -0.031866506 -0.06742354 0.0427709 -0.00540071
0000d0 99 57 9e 3d 9b 3d b1 bd 7c 9b 9f bc 09 c9 97 bd
       0.07731552 -0.086543284 -0.01948332 -0.07411391
0000e0 5f 2b 94 3d c6 b6 2b bd 90 24 39 3c 00 85 d9 bb
       0.07234835 -0.041922353 0.011300221 -0.0066381693
0000f0 20 d2 89 bd ec d5 b6 bc 1a c9 86 bd a2 1d b2 bd
       -0.06729531 -0.022318803 -0.06581326 -0.08697058
000100 8f 9a 84 3d e6 e6 61 3d 2b 73 a3 3d a8 06 c8 3c
       0.06474792 0.055151843 0.07980951 0.024417236
000110 2d e9 8e 3d c6 23 3d 3d 02 8d 27 bd 00 e6 42 b9
       0.069780685 0.046176694 -0.04090596 -0.00018586963
000120 eb 97 ae 3d 4f b5 b3 3d 37 42 a5 bd 80 b3 c5 3c
       0.0852507 0.08774816 -0.0806927 0.024133444
000130 78 9e b7 bc 97 ad 53 bd 7f 04 8e 3d 37 d6 9e bd
       -0.022414431 -0.05167922 0.06934451 -0.07755702
000140 57 d0 b2 3d d3 3c 61 bd 54 ac f5 bc 87 b5 b1 bd
       0.08731144 -0.054989647 -0.029989399 -0.08677202
000150 f0 53 aa bd 8e db 2e 3d a8 d0 ac bd cc 36 25 bd
       -0.08316791 0.042689852 -0.084382355 -0.04033546
000160 e5 4a 31 bd e8 4a 80 bc 4c 92 1f bd fa 96 48 3d
       -0.043284316 -0.015660718 -0.03895788 0.048972107
000170 d3 5d af 3d e8 78 e9 3c 8a d5 fa bc a8 6a 6f bc
       0.085628174 0.028500035 -0.030619401 -0.014612831
000180 6d 26 85 3d 48 3e 33 3c 3e 55 70 3d 59 4a 90 3d
       0.0650147 0.010940142 0.058675043 0.07045431
000190 c0 6d b4 3a 12 10 53 bd 8c ea 92 bc 00 f8 cc bc
       0.0013765618 -0.051528998 -0.017934106 -0.0250206
0001a0 76 22 8e bd ef a9 94 3d 81 99 8b 3d 38 d7 44 bc
       -0.06940167 0.07258975 0.06816388 -0.012014203
0001b0 c4 0a 5a bd a0 b4 4f bb a2 a2 2b 3d 50 d1 35 bd
       -0.053232923 -0.0031693354 0.041903146 -0.04438907
0001c0 7e 88 84 bd d9 19 34 bd d8 96 07 3d b8 cb f7 3c
       -0.06471346 -0.043969963 0.03310284 0.030248508
0001d0 00 df 41 3a d7 f7 a3 bd 50 72 29 3c 90 24 fe 3b
       0.00073955953 -0.08006256 0.010342196 0.0077558234
0001e0 a7 d3 01 bd 3a 4f 05 bd 66 5c 9c bd b0 0f e7 bc
       -0.031695988 -0.03254626 -0.07634811 -0.028205723
0001f0 89 1d a8 3d e6 f8 6d 3d 1a a9 86 bd 9e be 1b 3d
       0.082087584 0.058098696 -0.06575222 0.038023584
000200 8a 2d 62 bd 70 d0 0a 3c 32 c1 6b bd 80 14 1e 3a
       -0.05521921 0.008472547 -0.057557292 0.00060302764
000210 9e 8e ac bd b8 c1 99 bd 87 76 4c bd 3c 92 be bc
       -0.084256396 -0.07507652 -0.049917724 -0.02326309
000220 e6 16 a0 bd 16 52 52 3d 8c 47 88 bc 5b e8 1d bd
       -0.078168675 0.051347815 -0.016635679 -0.03855167
000230 bc fb 36 bd c2 9c 6e 3d 48 14 7e bc 30 82 86 bd
       -0.044673666 0.058254965 -0.015507765 -0.065678
000240 42 86 1e 3d c3 e5 ac bd 6e 04 b5 bd fb 3f 89 3d
       0.038702257 -0.08442261 -0.088387355 0.067016564
000250 db 5a 82 bd 8e 66 17 3d 07 03 22 bd 5e 0e 4d bd
       -0.063649856 0.03696304 -0.03955367 -0.05006253
000260 38 30 b4 3c 05 87 b3 3d 57 64 a9 3d 27 47 af bd
       0.021995649 0.08765987 0.082710914 -0.08558493
000270 cd 96 26 bd 86 8b 0a 3d e3 f2 80 bd b0 cf d2 bc
       -0.04067116 0.033824466 -0.06296327 -0.025733799
000280 10 12 03 bc ab ef ad 3d 62 5f 43 3d 42 e9 68 3d
       -0.007999912 0.08492979 0.047698386 0.056863077
000290 ce 31 64 3d 31 cc 6b bd ce 2b 39 3d 6c d6 ae bd
       0.05571156 -0.05756778 0.04520779 -0.085369915
0002a0 f0 13 60 bd df 96 90 3d ab bc 87 bd f2 0f 75 3d
       -0.054706514 0.070600264 -0.066277824 0.05982966
0002b0 d4 dc e9 bc 20 66 9a bc 50 19 e8 3c 20 12 b5 bb
       -0.028547682 -0.018847525 0.028332382 -0.0055258423
0002c0 f0 c0 8d 3c a8 68 68 3c a5 4c b4 bd 96 46 14 3d
       0.017303914 0.014185108 -0.08803681 0.03620013
0002d0 00 68 34 3b 20 97 34 bd ba 24 42 3d bf 88 37 bd
       0.002752781 -0.044089437 0.047398306 -0.044808146
0002e0 f1 ed b2 bd 62 a4 29 3d 98 90 83 bd 62 01 1f 3d
       -0.0873679 0.041416533 -0.064240634 0.038819678
0002f0 59 7b 9f 3d 24 4a 9a bc a0 b6 ae bc 28 7e 11 3c
       0.077871986 -0.018834181 -0.021327317 0.008880176
000300 f8 19 70 bc c0 d3 0a 3c be 50 3a 3d 50 42 76 bc
       -0.014654629 0.008473337 0.045487158 -0.015030459
000310 06 35 71 3d 77 68 8c 3d 2a fe ae bd 18 b9 c0 bc
       0.058888458 0.068558626 -0.08544572 -0.02352576
000320 11 2c 85 3d 98 f9 85 3c 1b 37 8a 3d ec 8f 15 3d
       0.065025456 0.016354367 0.06748792 0.036514208
000330 f8 76 1e 3c e9 b9 a8 3d 94 63 c4 3c 20 88 bc 3b
       0.009671919 0.082385845 0.023973264 0.005753532
000340 bf 75 8d 3d a6 31 18 3d b8 21 5a 3c b4 fc 00 bd
       0.06907224 0.037156723 0.013313703 -0.031490996
000350 ce 91 59 bd 2a b1 d4 bc 43 b2 5a bd 19 ca 99 bd
       -0.053117566 -0.025963385 -0.05339266 -0.0750925
000360 c4 85 c7 3c 63 71 64 bd 42 0c 32 bd e2 3f 88 bd
       0.024355777 -0.055772197 -0.04346872 -0.0665281
000370 80 7d bf 3a ce 08 60 3d c4 a1 c0 3c 32 b8 57 3d
       0.0014609545 0.054695897 0.023514636 0.052665897
000380 39 b7 4b bd ba 9a a7 bd 4f f7 87 3d 84 20 96 3c
       -0.04973528 -0.081838086 0.06638967 0.018326052
000390 9c 83 ef 3c 6a b2 a4 bd 69 1d 9d bd 9e ba 34 3d
       0.02923756 -0.08041842 -0.07671625 0.044123285
0003a0 b8 cd 99 3c fa cf 42 3d dd 61 b3 3d cd 27 8c 3d
       0.018774852 0.047561623 0.087589 0.06843529
0003b0 37 6e 9e bd 65 b6 a0 3d f1 1e 9f bd 32 56 61 3d
       -0.077358656 0.07847289 -0.077695735 0.055013843
0003c0 f9 25 2f bd e6 05 47 3d 68 0a a3 bc d8 cb 43 bc
       -0.042760823 0.04858961 -0.019902423 -0.011950456
0003d0 bd 0f 97 3d 70 e3 06 bc 48 fd 5c bc 71 a8 91 3d
       0.07376049 -0.008232936 -0.013488121 0.07112206
0003e0 ad d8 86 3d e0 6d 6d 3c 3a 94 45 3d e3 16 b1 bd
       0.065842964 0.014491528 0.048237063 -0.086469434
0003f0 a0 7c 20 bd 6e a5 71 3d 6e ac 6e 3d 03 4f a1 bd
       -0.03918135 0.058995657 0.05826991 -0.078763984

lstm.bias_ih_l0 f4 [512]
000000 90 26 2a bd 9e c5 08 3d a6 8f 68 bd 31 07 a2 3d
       -0.041540682 0.033391587 -0.05677762 0.07911528
000010 24 3e 87 bc 10 f9 36 bc 00 f0 c3 ba d0 a8 8d bd
       -0.016509123 -0.01116778 -0.0014948845 -0.06916964
000020 fc 43 a1 3c 54 a7 96 bc 86 96 65 3d b8 44 01 3c
       0.019685738 -0.018390335 0.056051753 0.007889919
000030 40 bc d2 3a 00 f0 15 bb 62 26 27 3d cf 2a a9 bd
       0.0016077831 -0.0022878647 0.04080809 -0.08260118
000040 88 73 9d 3c c2 38 62 3d 5e 61 2a 3d 73 80 5f bd
       0.019220129 0.05522991 0.041596763 -0.054565858
000050 93 55 9b 3d 8a b9 52 3d 3e a6 52 3d d5 35 8a 3d
       0.07584681 0.051446475 0.051428072 0.06748549
000060 c0 c5 4b bb 10 10 12 3d 80 9d 24 3c 71 d4 85 3d
       -0.003109321 0.03565985 0.010047317 0.065346606
000070 24 23 84 bc 2e 4b 57 3d 1d c7 94 bd bd bb 9f 3d
       -0.016130038 0.05256193 -0.0726454 0.0779948
000080 30 6f 94 bd 76 bd 11 bd be 25 7a 3d e0 1d 08 3b
       -0.0724777 -0.035581075 0.06107115 0.002076976
000090 c9 83 b1 3d 88 b3 b7 3c cc a4 72 bd 80 14 47 3b
       0.08667714 0.022424474 -0.059239194 0.003037721
0000a0 bb 93 8c 3d eb cb 9d 3d c7 c3 42 bd 69 0d 9a 3d
       0.06864115 0.0770491 -0.04754999 0.07522089
0000b0 e1 e0 82 bd 5b ff 52 bd 30 5a 83 bd 50 09 9a bb
       -0.063905485 -0.051513057 -0.06413686 -0.004700817
0000c0 f6 4b ed bc 64 a0 d0 bc 11 81 ac 3d a5 b1 82 3d
       -0.028966885 -0.025467105 0.08423055 0.06381539
0000d0 a0 3b 1b bb 94 89 0c 3d ea 97 ae bd 12 49 0b 3d
       -0.0023686662 0.034310892 -0.08525069 0.034005232
0000e0 64 06 af bc e0 8d 1c bb c2 2c 32 3d 1e 3a 13 3d
       -0.021365352 -0.0023888275 0.043499716 0.035944097
0000f0 89 36 a8 3d 95 a0 94 bd d8 da 28 bc 26 15 55 3d
       0.08213527 -0.07257191 -0.010306083 0.05202212
000100 56 1a ec bc d0 82 79 bd 09 6c b2 3d c0 c0 12 bd
       -0.028821152 -0.06091577 0.08712012 -0.035828352
000110 d0 ae fc bc b3 23 b4 3d 64 7d 7e bd 46 d4 59 3d
       -0.030845076 0.087958716 -0.0621313 0.053180955
000120 28 21 74 bc f1 66 5a bd 98 f1 08 3d ef 88 91 3d
       -0.014900483 -0.05332083 0.033433527 0.07106196
000130 49 21 87 3d 5a 4e 10 3d 06 ee 78 3d 54 9e 0f 3d
       0.065981455 0.035230972 0.06077387 0.035063103
000140 5e 56 38 3d 2e b2 15 3d 3a 11 15 3d 87 85 a3 bd
       0.04500424 0.03654688 0.03639338 -0.07984453
000150 7a 80 40 3d c6 21 87 bd 0f a4 8c 3d 47 64 a9 3d
       0.046997525 -0.06598239 0.06867229 0.082710795
000160 0a 23 e8 bc e6 7f 91 bd 68 a2 0c 3d 14 cd b5 bc
       -0.02833702 -0.07104473 0.03433457 -0.022192515
000170 32 c7 76 bd 3f 6d 8b bd 09 63 86 3d 81 61 90 bd
       -0.06024856 -0.068079464 0.06561858 -0.070498474
000180 46 40 22 3d b0 2c 40 3c be 9f 57 3d 67 f6 8a bd
       0.039612077 0.011729404 0.052642576 -0.06785279
000190 ae e9 52 3d 48 89 7e bd e8 eb 87 bc fa 69 20 bd
       0.051492386 -0.06214264 -0.016591981 -0.039163567
0001a0 ff e9 48 bd 48 4a 54 bd 80 65 f2 bc b6 0c 43 bd
       -0.04905128 -0.051828653 -0.029589415 -0.047619544
0001b0 c6 a4 73 3d a9 ae 30 bd de ad 37 3d 8a 59 15 3d
       0.059483312 -0.04313532 0.044843547 0.036462344
0001c0 04 e7 24 bd 68 e7 06 3d 74 08 ab bc ca 4c 47 3d
       -0.040259376 0.03293553 -0.020878054 0.048657216
0001d0 fa 2e 4b 3d a3 0a 59 bd be 06 eb bc fc d2 a8 bc
       0.049605347 -0.05298866 -0.028689738 -0.020608418
0001e0 20 23 a6 bd e4 13 43 bd 3d c1 05 bd cc 5b 34 bd
       -0.08112168 -0.04762639 -0.03265499 -0.044032857
0001f0 dc 4b 90 3c fe 3c 6b bd 38 a6 9e bd 7d f8 9a 3d
       0.017614298 -0.057431214 -0.077465475 0.07566927
000200 b7 90 3b bd 27 14 8b 3d 7b 83 85 3d 2b 78 84 3d
       -0.045792308 0.06790953 0.065192185 0.06468233
000210 ea 42 10 3d e2 b4 12 bd 67 a4 22 bd 88 32 d3 3c
       0.035220064 -0.035817035 -0.039707568 0.025780931
000220 84 08 b7 bc da 10 64 3d 00 7c 5e 3c 60 88 37 bb
       -0.022342928 0.055680133 0.013579369 -0.002800487
000230 30 be a5 bb 40 ef fb ba fb f6 a2 3d 81 b0 49 bd
       -0.0050580725 -0.0019221082 0.07957264 -0.049240593
000240 a7 0e 8d 3d a4 84 8b bc 5a 97 33 bd 29 a2 69 bd
       0.0688756 -0.017031021 -0.043845512 -0.057039414
000250 40 f6 34 bb ab 23 21 bd 1d 1f 50 bd 59 74 98 bd
       -0.0027612597 -0.039340656 -0.050810922 -0.074440666
000260 e4 ca a8 bc 22 51 5c 3d 78 8d 76 3c 60 5f 79 bd
       -0.020604558 0.05378831 0.015048377 -0.060881972
000270 b4 8f e3 3c 83 45 64 bd ff 35 58 bd da d3 36 bd
       0.027778484 -0.055730354 -0.05278587 -0.04463563
000280 cf c9 b4 3d a0 34 97 bb 00 0a be 39 98 1c 76 bd
       0.088275544 -0.0046144277 0.00036247075 -0.060085863
000290 4d 3f a4 3d 70 18 ae 3b a6 c7 1f 3d b2 8d 9c bd
       0.08019886 0.005312972 0.03900876 -0.07644214
0002a0 f6 55 52 3d c8 bf 3e bc 00 f1 a4 3b 02 f8 41 3d
       0.05135151 -0.011642404 0.0050336123 0.04735566
0002b0 68 0e f4 bc 9c 55 81 3c f0 6a 64 bc 8c a4 ac bd
       -0.029792026 0.015787892 -0.0139415115 -0.08429822
0002c0 6e fa 85 bd d2 08 1f 3d a6 2f 64 3d ce 6d 5f 3d
       -0.06541906 0.03882677 0.055709504 0.054548077
0002d0 c2 e5 1f bd a4 bb cc bc 54 65 28 bd 66 0c f0 bc
       -0.039037473 -0.024991818 -0.04111226 -0.029302787
0002e0 70 95 b5 bb 22 07 5b 3d 8f ce 94 bd 40 37 1d bb
       -0.005541496 0.0534736 -0.072659604 -0.002398923
0002f0 60 fc 87 bc e6 c9 0b bd e8 a5 0d 3d f0 1f bf bc
       -0.016599834 -0.034128092 0.03458205 -0.023330659
000300 27 98 97 3d a6 64 61 3d d8 e6 a6 bd 70 10 12 bd
       0.07402068 0.055027626 -0.08149499 -0.035660207
000310 e9 cc a5 3d 9e 2e 34 bd a1 50 59 bd 5b 34 a3 3d
       0.08095724 -0.04398977 -0.05305541 0.079689704
000320 5b 77 80 3d 84 a5 6a bd 23 55 9f 3d c8 52 d6 3c
       0.06272765 -0.057286754 0.077799104 0.02616252
000330 43 8f 23 bd 7a 65 57 3d e6 55 72 3d e9 75 a9 bd
       -0.039931547 0.05258701 0.05916395 -0.08274443
000340 f0 04 9b bb c2 69 3b bd a6 2b 34 3d 29 32 83 3d
       -0.004730813 -0.045755155 0.04398694 0.06406052
000350 02 3a b2 bd 08 fb 5d bc f4 44 9b bc f4 8a c4 bc
       -0.0870247 -0.01354862 -0.018953778 -0.02399204
000360 8f 40 87 3d 9e ba 99 bd ad 7f 0d bd 87 c2 93 3d
       0.066041104 -0.075062975 -0.03454559 0.072148375
000370 d9 b6 10 bd 48 35 de bc 31 bc 8a 3d 0f ae 9d 3d
       -0.035330627 -0.027125016 0.06774176 0.07699215
000380 9e f2 3a 3d f4 3b a2 bd 80 10 da bb d0 9b a5 3b
       0.045641534 -0.079215914 -0.006654799 0.0050539747
000390 0f d7 96 3d 68 58 5d 3c ae aa 7f 3d b0 bb ea bb
       0.07365238 0.013509847 0.062418632 -0.0071634874
0003a0 ff ab 91 3d a2 2f fa bc 6c b2 b4 bd c0 33 8c bb
       0.07112884 -0.030540291 -0.08823094 -0.00427863
0003b0 38 ab 11 3c 0e 80 42 3d fe e9 69 3d 50 cf a4 bb
       0.008890919 0.047485404 0.057107918 -0.0050295964
0003c0 c6 91 9d bd c2 d0 a9 bd 00 d9 f5 3b 5d ef 89 3d
       -0.0769382 -0.082917705 0.007502675 0.06735108
0003d0 d0 62 92 3b ba a5 91 bd c0 48 7d 3c 94 62 b5 bc
       0.004467346 -0.07111688 0.0154592395 -0.022141732
0003e0 20 2f 43 3b 00 e4 45 3b b0 24 d6 3b ce f2 3c 3d
       0.0029782727 0.0030195713 0.006535135 0.046129994
0003f0 7e d1 3f 3d 70 e8 aa 3b 60 7e 30 bb 45 26 96 3d
       0.046830647 0.005215697 -0.0026930794 0.07331518

lstm.bias_hh_l0 f4 [512]
000000 6e 1d 44 3d b0 af 1f bd 7e 28 5c 3d 83 f1 3f bd
       0.04787963 -0.038985908 0.053749554 -0.046861183
000010 2e 64 00 3d 33 5f 9e 3d 00 80 66 ba 80 9a 23 ba
       0.03134554 0.077330016 -0.0008792877 -0.0006240979
000020 5a f0 69 bd 0f 81 35 bd 28 2a 25 3c 48 5e 29 bc
       -0.057113983 -0.044312533 0.010080852 -0.01033742
000030 8e 17 e8 bc d2 fc de bc 00 fa a4 39 a2 4c 9d bd
       -0.028331544 -0.027220163 0.00031466782 -0.07680632
000040 80 a2 97 bc 87 97 87 bd bc 78 be bc 58 84 11 3c
       -0.018510103 -0.066206984 -0.02325093 0.008881651
000050 c1 93 ae 3d da 05 6b 3d 27 3b 9f 3d 09 5e b3 3d
       0.085242756 0.057378627 0.07774954 0.0875817
000060 33 ae 07 bd 71 04 83 3d 35 35 83 3d fa 47 71 bd
       -0.033125114 0.063973315 0.06406633 -0.058906533
000070 94 8b a3 bd 34 64 8d bd aa b7 7a 3d ad 53 94 3d
       -0.07985607 -0.06903878 0.061210312 0.072425224
000080 6c ef 65 bd 91 2c a0 3d 26 87 3d 3d 62 73 5a 3d
       -0.056136534 0.07821 0.046271466 0.053332694
000090 60 0f ad bc 70 a3 9b 3b 22 4f 42 3d 60 fc 10 3b
       -0.021125495 0.004749708 0.04743875 0.0022123083
0000a0 4a 46 9a bd ce e7 4b 3d 16 5d 79 3d 0a 43 3b 3d
       -0.07532938 0.049781613 0.06087979 0.04571823
0000b0 00 ba 54 3b 11 ad 61 bd c6 11 6d 3d 48 59 c0 bc
       0.0032459497 -0.05509669 0.05787828 -0.023480073
0000c0 4c 52 9d bd 20 4f d3 3c da ca 45 3d ef 78 a4 bd
       -0.076817125 0.025794566 0.048289157 -0.08030879
0000d0 00 24 6d 3a 6a 01 62 3d 9c 34 8f bc bf a2 0d bd
       0.0009046197 0.05517713 -0.01748114 -0.034579035
0000e0 c1 c0 98 3d 80 b2 24 3a a0 90 49 3b 6d 2e 85 3d
       0.0745864 0.0006282702 0.003075637 0.06502996
0000f0 74 b5 98 3c 54 01 ad bd 00 85 bd 3a 65 13 b3 bd
       0.018641211 -0.08447519 0.0014459193 -0.087439336
000100 2a 70 b3 bd 4a 4a 48 bd d5 bf 89 3d 80 af c4 bb
       -0.08761628 -0.048898973 0.06726042 -0.0060023665
000110 47 6a 8d 3d 0f bc 9f 3d d0 60 d5 3b 58 2a 54 3c
       0.069050364 0.07799541 0.006511785 0.012949549
000120 bc ce f4 3c fc 23 6e bd 60 e2 63 bb 00 3d 33 bc
       0.029883735 -0.058139786 -0.0034772381 -0.0109398365
000130 28 b8 b6 bc 80 4c 64 bc e8 65 7d bd 08 8a be bc
       -0.02230461 -0.013934255 -0.061864763 -0.023259178
000140 fe 74 dd bc 53 c8 af 3d 99 70 61 bd 08 ee bc bc
       -0.027033325 0.08583131 -0.055039022 -0.02306272
000150 c0 b2 c8 3c 34 55 c5 bc f7 03 22 bd 0c 71 bf 3c
       0.024499297 -0.02408848 -0.039554562 0.023369335
000160 c3 dd 9e 3d 8c 74 b3 bc c2 2d 40 3d 96 c6 30 3d
       0.077571414 -0.02190616 0.046918638 0.043158136
000170 54 0a 85 bd d0 24 38 3c c0 94 61 3c f1 c5 9b 3d
       -0.064961106 0.0112392455 0.013768375 0.07606114
000180 4e 17 70 3d 66 e2 69 3d 12 64 79 3d 5e a3 31 3d
       0.058615975 0.057100676 0.06088645 0.04336869
000190 d8 d0 85 3c d4 0b aa bc 80 0a 0a bc 42 64 2b 3d
       0.016334936 -0.020757593 -0.008425355 0.04184366
0001a0 c0 8c 45 bd 01 bb ac bd ea 92 0e 3d e3 cb a0 3d
       -0.048229933 -0.08434106 0.034808077 0.07851388
0001b0 31 d8 a8 3d bc fd 08 bd 51 d6 07 bd cc 32 16 bd
       0.0824436 -0.033445105 -0.033163372 -0.036669537
0001c0 53 a9 23 bd 4c b6 8d 3c ae e0 4f bd e0 81 93 bb
       -0.039956402 0.01729884 -0.05075138 -0.0045015663
0001d0 c5 d4 b1 bd 28 0d dc 3c 67 db a3 3d d6 0d 06 bd
       -0.08683161 0.026861742 0.08000832 -0.03272804
0001e0 80 16 5c 3a 24 1c 95 bc b0 91 24 3c b4 62 a4 3c
       0.0008395687 -0.018201895 0.0100445 0.020066597
0001f0 93 b4 ab bd 38 00 05 bd 5e f0 91 bd 04 d7 a7 bc
       -0.08384051 -0.03247091 -0.071259245 -0.02048827
000200 f8 71 57 bc 80 83 4f bb 33 6d b1 3d c8 0a 53 bd
       -0.013149731 -0.0031664073 0.08663406 -0.051523954
000210 98 25 d9 3c fa e2 19 3d 92 b8 0a 3d af a2 1d bd
       0.026507184 0.037569977 0.033867426 -0.038485225
000220 68 39 08 3c 02 4e 1b bd 90 ae fa 3b 6b 49 a4 3d
       0.008314468 -0.03791619 0.007650204 0.08021816
000230 20 3e a3 3b 7a db 8a bd 7c 86 80 bd cc f6 aa bc
       0.004981771 -0.06780143 -0.06275651 -0.020869635
000240 1d a1 32 bd ab 98 b4 3d 20 53 4e 3b 26 11 4a bd
       -0.04361068 0.088181816 0.0031482652 -0.04933276
000250 92 4b 3c 3d 16 e0 48 3d 28 bd b3 bd d6 74 3f 3d
       0.045970507 0.04904183 -0.08776313 0.046742283
000260 c1 ce a0 3d f7 d6 a3 3d 28 52 4c bc 26 b8 31 3d
       0.07851935 0.07999986 -0.012470759 0.04338851
000270 fc e6 8b 3c 38 d5 4c 3c 90 50 1d 3c a0 c4 25 bb
       0.017077915 0.012502007 0.009601727 -0.00252942
000280 06 af 95 bd 98 41 4a bd c6 48 50 3d 40 02 a3 ba
       -0.07308774 -0.04937896 0.050850652 -0.0012436584
000290 bf 61 2f bd f4 80 ae bc bc ca 98 bd 14 54 9f bd
       -0.042817827 -0.021301724 -0.074605435 -0.077797085
0002a0 f1 f4 a7 bd bc 9e ba bc ff fd 35 bd 25 73 05 bd
       -0.08201016 -0.022780769 -0.044431683 -0.032580514
0002b0 a3 fc 67 bd 30 78 00 3d a7 64 8b 3d 0f 2e 9f 3d
       -0.056637418 0.03136462 0.06806307 0.07772457
0002c0 a0 b0 7c bb 06 8c 75 3d 80 c0 c5 ba 00 8a 1d 3b
       -0.0038557425 0.05994799 -0.0015087277 0.0024038553
0002d0 f3 47 a9 3d 77 ee 83 3d 00 41 9a 3b 4e e1 8b bd
       0.08265676 0.06441968 0.0047074556 -0.06830083
0002e0 b6 ee 6c 3d 00 d0 ec b8 d5 9c 81 3d 80 e9 4d 3a
       0.05784484 -0.000112921 0.063287415 0.00078549236
0002f0 48 c3 bf 3c e7 0f a9 3d c7 51 89 3d 3c 34 94 3c
       0.023408547 0.08254986 0.06705051 0.018091314
000300 32 88 08 3d 76 a7 1d 3d ca 88 79 bd 4c ae 27 bd
       0.03333301 0.03848978 -0.060921468 -0.040937707
000310 a5 a6 a5 bd e0 f0 59 3b 2a 75 67 3d 42 8d 91 bd
       -0.080884255 0.0033255145 0.05650822 -0.07107021
000320 94 60 bc bc 17 66 ae bd 5c 7f a0 bc 26 c4 89 bd
       -0.02299527 -0.08515566 -0.01959198 -0.067268655
000330 f8 1b 80 3c 93 99 74 bd 40 66 ea bb f4 52 bc bc
       0.015638337 -0.059716772 -0.0071533024 -0.022988774
000340 de 39 30 3d 36 23 98 bd 98 86 be bc 0e 87 67 3d
       0.043023936 -0.07428591 -0.023257539 0.056525283
000350 aa 8e 75 bd 60 81 2b bb b5 4d 99 3d c0 85 67 bb
       -0.05995051 -0.0026169643 0.074855246 -0.0035327524
000360 70 11 3a 3c ce 76 b2 bd 31 3f 73 bd a8 77 3f bd
       0.0113566965 -0.087140664 -0.059386436 -0.046744972
000370 2a a6 59 3d a4 3b a0 3c 03 3e 91 3d a9 15 36 bd
       0.053136982 0.019559689 0.07091906 -0.04445425
000380 16 30 65 bd 61 39 45 bd c0 11 17 bc 59 3f b0 3d
       -0.05595406 -0.048150424 -0.0092205405 0.086058326
000390 fa 40 6c 3d 13 23 b4 3d 42 b0 1f 3d 8f ef a8 3d
       0.057679154 0.087957524 0.038986452 0.08248817
0003a0 50 9c 7a 3c 2a f1 63 3d 60 43 4c bd 67 9c ab 3d
       0.015296057 0.055649914 -0.04986894 0.08379441
0003b0 ff 8f a4 bd d1 91 14 bd dc e9 b9 3c fa c2 61 3d
       -0.080352776 -0.036271874 0.02269452 0.055117585
0003c0 3c c9 8c bd 2d 2b 18 bd c4 f6 93 bc 94 f3 a7 bd
       -0.0687432 -0.03715055 -0.018062003 -0.08200756
0003d0 64 98 a8 3c 00 b0 39 3c 10 27 d3 bb c6 1a b0 bd
       0.020580478 0.011333466 -0.0064438656 -0.08598857
0003e0 5a 13 30 bd 8b eb 93 3d 20 c9 8d bd 76 91 28 3d
       -0.042987205 0.07222661 -0.06923127 0.041154347
0003f0 cb c6 9b bd 94 3f a2 bc 34 e1 c7 3c d4 60 fe 3c
       -0.07606276 -0.019805707 0.024399377 0.03105203

lstm.weight_ih_l1 f4 [512, 128]
000000 af bf 65 bd 12 4a 4f 3d 7f 3e 34 bd 81 7e b4 3d
       -0.056091007 0.05060775 -0.044004913 0.08813191
000010 91 c9 07 bd fc b0 97 bd 90 96 a0 3b ca e9 3e 3d
       -0.033151213 -0.07406804 0.004900761 0.046609677
000020 45 94 97 bd b2 60 b1 bd c0 4e 7e bc ab 22 a0 3d
       -0.07401327 -0.08661021 -0.015521705 0.078191124
000030 01 57 4d bd 0c fb 82 bc b2 0c 2b 3d a9 41 95 3d
       -0.0501318 -0.01598885 0.041760154 0.07287914
000040 c5 37 8b 3d 7f 0a af 3d 9e 9a 35 3d 5a 34 75 bd
       0.067977466 0.08546924 0.044336908 -0.05986438
000050 50 b4 04 3d 70 ed b7 bb 56 6a 34 bd d4 d2 37 bd
       0.032398522 -0.0056130216 -0.044046722 -0.044878796
000060 a1 06 92 3d 98 2d 12 3d 35 65 8e 3d 6f 5e 28 bd
       0.071301706 0.035688013 0.069528975 -0.041105684
000070 b0 90 0c 3d 8c 04 84 3c b9 ce 0e bd 94 13 88 bc
       0.034317672 0.01611545 -0.034865115 -0.016610898
000080 00 81 54 bc a6 64 58 3d 83 9a 53 bd a0 1c d2 3b
       -0.012970209 0.05283036 -0.051661026 0.006412104
000090 cc 01 62 bd b8 5d 2c 3c 90 72 9d 3c a8 01 2b bc
       -0.055177495 0.010520391 0.019219667 -0.010437407
0000a0 c6 b4 76 3d 2e 37 4f 3d e0 8b 3b 3c c5 7e 8d bd
       0.060230993 0.050589733 0.011446923 -0.06908945
0000b0 f2 82 b2 bd c8 b8 10 bd 20 93 8a 3b 4a da 62 3d
       -0.08716382 -0.03533247 0.0042289644 0.055383958
0000c0 00 06 fa bc 22 da 11 bd 60 44 3c 3b ca 6c 29 3d
       -0.03052044 -0.03560842 0.0028727278 0.041363515
0000d0 fc 97 d2 3c 9d f7 8d bd f0 18 43 3c 98 c9 3a 3c
       0.025707237 -0.06931994 0.011907801 0.011400603
0000e0 10 2f cb bb 13 74 95 3d 26 22 6a 3d 90 3c d9 3c
       -0.0062006786 0.0729753 0.057161473 0.026518136
0000f0 82 ca 11 3d b1 77 9b bd 86 5b a0 bd 10 2e f8 bb
       0.035593517 -0.07591189 -0.07829957 -0.0075738505
000100 48 6e 50 bc 40 67 50 bc b5 e6 82 bd 94 68 71 bd
       -0.012721606 -0.012719929 -0.0639166 -0.058937624
000110 ac 0e 82 bc 0c 8d fc bc 54 f0 ba bc d8 0d 90 bd
       -0.015876137 -0.030828975 -0.022819676 -0.070338905
000120 00 14 9c 3c b6 cb b1 bd d1 69 86 bd f2 b2 ac bd
       0.019052505 -0.08681433 -0.06563152 -0.084325686
000130 2e cd a6 bd 44 27 eb 3c 4f c7 1b bd 89 7e 68 bd
       -0.08144604 0.028705247 -0.038031872 -0.0567613
000140 76 4e 50 3d be b6 9c bd b8 ef ae bd e3 dd 9d bd
       0.050856076 -0.07652043 -0.085418165 -0.07708337
000150 80 ba 82 3c 98 fd 80 bc 60 36 95 bb 8c 2d a8 bc
       0.01595807 -0.015745923 -0.004553601 -0.020529531
000160 cc 0d 97 bd 7a 6a 36 3d 40 10 a8 ba 21 e1 41 bd
       -0.073756784 0.044535138 -0.0012822226 -0.04733384
000170 00 fb 61 3a 94 0c 0a bd 2b 2d 3f bd fd 3a 87 3d
       0.0008620471 -0.0337034 -0.046673935 0.06603048
000180 48 8f 8f bc 7a 15 6a bd de 29 20 3d 60 03 58 bd
       -0.017524377 -0.057149388 0.039102428 -0.052737594
000190 df 63 b3 3d b7 42 86 bd 80 48 b8 bc e0 41 58 bb
       0.08759283 -0.065556936 -0.022495508 -0.003299825
0001a0 ae 3b 63 3d 2d 39 4c bd 53 a1 b1 bd 70 a3 92 bd
       0.055476837 -0.049859215 -0.08673348 -0.071600795
0001b0 e0 03 fb bc ed ed 96 3d b4 fa a7 bd 54 e9 6d bd
       -0.030641496 0.073695995 -0.08202115 -0.058083847
0001c0 1d b9 a9 3d 00 cc fe ba 8b c3 96 3d 1e 9a 35 bd
       0.08287261 -0.0019439459 0.073615156 -0.04433643
0001d0 3d a1 a9 3d f3 86 b3 3d 4e 36 71 3d 20 8a e3 3b
       0.08282707 0.08765974 0.05888968 0.006943956
0001e0 28 fa 16 bd a6 9c 75 3d 8e 4e 47 3d 9c a6 be 3c
       -0.03685966 0.059963845 0.0486589 0.023272805
0001f0 85 72 af 3d ca 74 31 3d 48 c3 b0 bd c0 b0 98 bd
       0.08566765 0.04332427 -0.08630997 -0.074555874
000200 b1 0e 85 3d 54 75 f1 3c bc 37 3e bd 08 42 ac 3c
       0.06496943 0.029474892 -0.04643987 0.02102758
000210 0e 25 ad bd c0 00 50 3c ca f7 23 3d 80 d8 32 bb
       -0.08454333 0.012695491 0.040031232 -0.0027289689
000220 2a c1 23 3d a0 33 95 3b 64 a9 b2 bd 54 85 f6 3c
       0.039979137 0.0045532733 -0.08723715 0.030092873
000230 88 bb d8 bc f3 04 9b bd da 3a 3b 3d b4 73 41 bd
       -0.02645661 -0.07569303 0.045710422 -0.047229484
000240 6c 29 f6 3c dd 5e 9b 3d 94 4e f7 3c e8 f1 56 bc
       0.030049048 0.07586453 0.030188836 -0.013119198
000250 6b 68 87 3d d9 43 8a 3d 1c e3 fd 3c 98 c1 59 bc
       0.06611713 0.06751222 0.030992083 -0.013290785
000260 be 65 39 3d e0 3a c9 bb e0 46 9f 3c c0 60 79 bb
       0.045263045 -0.0061410517 0.019442976 -0.0038052052
000270 78 8d 55 bc 4c 59 98 3c 0d 6b a3 3d 47 32 90 bd
       -0.013034217 0.018597268 0.07979403 -0.0704084
000280 e1 ca 71 bd b3 80 a7 3d 60 02 95 bb 70 18 2f 3c
       -0.05903137 0.08178844 -0.0045474023 0.010686979
000290 da 56 55 3d 4d 7f 8e 3d 4b b5 55 bd ac 66 09 bd
       0.05208478 0.069578744 -0.052174848 -0.03354518
0002a0 92 ca 7c 3d 20 f2 22 bb 2c 65 6b bd d2 0c 08 3d
       0.061716624 -0.0024863556 -0.057469532 0.03321535
0002b0 c0 31 1a 3b ec 74 14 3d 66 20 0a bd a2 12 28 3d
       0.0023528188 0.036244318 -0.033722304 0.041033395
0002c0 5d 61 b2 bd 0e ab 9f bd 60 3d 20 bd 69 3e a0 3d
       -0.08709977 -0.07796298 -0.03912103 0.07824404
0002d0 5a ff 29 3d 3f 4f 4f bd 80 fb ee 3b c4 bc f1 bc
       0.041503288 -0.050612684 0.0072931647 -0.029508956
0002e0 14 8d 4a bd 75 22 84 bd b6 84 4f 3d c0 85 2f 3c
       -0.04945095 -0.06451885 0.050663672 0.010713041
0002f0 f6 e2 5f 3d 04 89 ae 3c 4b 50 94 3d 60 21 30 3b
       0.054659806 0.021305569 0.07241877 0.0026875362
000300 38 55 78 bd 66 b2 7e 3d 21 b2 56 bd da 2a 17 3d
       -0.060628146 0.062181853 -0.05241597 0.0369061
000310 75 61 86 3d e6 5e 7a 3d d8 d5 b1 bd 17 9d 8e 3d
       0.06561557 0.06112566 -0.086833656 0.06963556
000320 60 9f ee 3b c5 15 02 bd a9 62 3a bd e2 0b 7e 3d
       0.0072821826 -0.031759042 -0.045504246 0.06202305
000330 90 9a ad bb c4 49 b0 3c b6 20 45 3d e0 06 fc 3b
       -0.0052979663 0.02151955 0.0481269 0.0076912493
000340 97 93 9c bd 11 e1 b0 bd 4c 57 0a 3d 40 88 1d bc
       -0.07645338 -0.08636678 0.03377466 -0.009615004
000350 09 9b 9e 3d 08 8a 82 bd 64 97 c4 3c 16 8d 81 bd
       0.07744414 -0.063739836 0.02399797 -0.06325738
000360 e1 4e af bd 7d 5a 99 3d 6d 91 71 bd 04 d9 cf bc
       -0.08559967 0.074879624 -0.05897658 -0.025372036
000370 2e 9b 25 3d aa 98 44 3d 62 97 23 bd eb 9e ab bd
       0.040431194 0.047997154 -0.03993929 -0.083799206
000380 c0 65 e3 ba a0 d6 14 bd f1 a7 49 bd c0 8b ef 3c
       -0.001734905 -0.036337495 -0.049232427 0.029241443
000390 9e 5d 22 3d 40 42 62 bb a4 3e cf bc 40 2c e5 3c
       0.03964006 -0.0034524351 -0.025298424 0.027975202
0003a0 f9 a9 b0 3d b1 ea 9c 3d 40 34 c0 3c 04 2f b7 bc
       0.0862617 0.07661951 0.023462415 -0.022361286
0003b0 7b 3c 93 3d aa 97 e5 bc d4 9e f2 3c 13 82 86 3d
       0.0718927 -0.02802642 0.02961675 0.065677784
0003c0 aa 38 68 bd b8 16 5c 3c e0 12 08 3b 2e c1 25 bd
       -0.056694664 0.013433151 0.0020763204 -0.040467434
0003d0 d5 e7 87 3d 61 34 a5 3d 70 a0 0b 3c f7 68 81 3d
       0.06636015 0.08066631 0.008522138 0.063188486
0003e0 c0 b0 b4 3a 36 12 59 3d 22 cc 0f 3d c0 63 11 3b
       0.0013785586 0.052995883 0.035106786 0.00221847
0003f0 0a 3b 51 bd 80 18 e3 3a f2 45 7e 3d 4a db 0c 3d
       -0.051081695 0.0017326027 0.062078424 0.034388818

lstm.weight_hh_l1 f4 [512, 128]
000000 1e bf 48 bd 4f 3c b4 bd 63 d0 63 bd 00 c4 a0 bd
       -0.04901039 -0.088005655 -0.055618655 -0.07849884
000010 20 cd 79 bd 32 d5 30 3d 7f c8 96 bd 11 de 91 bd
       -0.060986638 0.04317207 -0.0736246 -0.07122434
000020 a0 66 2a 3c 9b 7a 65 bd 9e 93 4f 3d 9b 39 09 bd
       0.010400444 -0.05602513 0.050677888 -0.033502202
000030 67 5b b0 3d 0b 68 ab 3d 22 d7 33 3d b5 85 a1 3d
       0.086111836 0.08369454 0.04390634 0.07886831
000040 09 6a 43 bd aa e1 5e 3d d1 b0 4f bd 26 4c 42 3d
       -0.047708545 0.05441443 -0.050705735 0.047435902
000050 00 97 da bb 58 1b 86 3c db 8c 97 3d f4 34 bf bc
       -0.0066708326 0.01637046 0.07399913 -0.02334068
000060 a8 ca 12 3c fd bc 2e bd 27 ab 11 bd a9 b5 9d 3d
       0.00895945 -0.042660702 -0.035563614 0.077006646
000070 90 52 b7 bb 99 75 29 bd 34 64 c7 3c 45 ab 8a 3d
       -0.005594559 -0.041371915 0.024339773 0.06770948
000080 33 8c 89 bd b6 01 69 3d 42 a5 35 3d 20 85 e4 bb
       -0.06716194 0.056886397 0.044347055 -0.0069738775
000090 c0 39 da 3b 4a f0 4a 3d 00 af ee bc b1 a3 97 bd
       0.0066597164 0.049545564 -0.02913618 -0.074042685
0000a0 95 be 80 bd 14 3a 9a 3c 98 b5 23 3c c9 60 76 bd
       -0.06286351 0.018826522 0.009992026 -0.060150895
0000b0 bb 5b 71 bd c0 f8 c1 bc 52 e7 7d bd 28 17 08 3c
       -0.05892537 -0.023678184 -0.061988182 0.008306302
0000c0 04 11 2a bd 2e f9 40 3d 4e 65 94 bd 15 68 9a bd
       -0.041520134 0.047112636 -0.07245885 -0.07539383
0000d0 63 8a a0 3d 15 8c b4 bd 88 31 8c bc 7d 6d ae 3d
       0.07838895 -0.08815781 -0.017113462 0.08516977
0000e0 8b 1c b3 3d 49 0a a8 3d 88 33 76 bc 8e 00 ac bd
       0.087456785 0.08205087 -0.015026934 -0.08398543
0000f0 30 56 99 3c 98 c8 33 bc c9 9c 96 3d 21 d5 9f 3d
       0.018717855 -0.010973118 0.07354123 0.07804323
000100 f0 12 a4 bd 80 62 83 ba f4 6d c6 3c 3e 10 32 3d
       -0.080114245 -0.0010023862 0.024222352 0.04347252
000110 9e a5 9b bd a2 c8 9b bd 88 e4 65 bd 5a 01 6c 3d
       -0.07599948 -0.07606627 -0.056126148 0.057618476
000120 0f 19 9e 3d 08 7b 27 bd 67 f0 a6 bd f1 4b b3 bd
       0.07719623 -0.040888816 -0.08151322 -0.08754719
000130 28 0d 3f bc d6 a1 75 bd b8 2e de bc ca f3 b3 bd
       -0.011660852 -0.059968792 -0.027121887 -0.087867334
000140 51 97 92 3d 04 c8 85 bd 4c 3c fd 3c 96 64 a5 bd
       0.071577676 -0.065322906 0.03091254 -0.08075826
000150 40 a2 cf 3c 2f f0 81 3d 24 4c a9 bc 3f 9e b4 3d
       0.025345922 0.063446395 -0.02066619 0.088192455
000160 d9 15 9e bd 36 9b 66 3d f4 6d b6 3c 60 f6 8f 3c
       -0.07719011 0.056300364 0.022269227 0.017573535
000170 ed 9c 99 bd f3 39 13 bd a0 07 d7 3b e3 18 9e 3d
       -0.07500634 -0.035943937 0.0065621883 0.077195905
000180 c0 4f e5 ba fa 72 a3 bd f0 d2 66 bc de d4 1b 3d
       -0.0017495081 -0.079809144 -0.014088377 0.038044803
000190 ec e5 28 bd 5a 26 dc bc 7e 56 e2 bc 20 77 35 bb
       -0.041234896 -0.026873756 -0.027629133 -0.0027689412
0001a0 0b 1d 84 3d b0 80 e5 3c f9 00 89 3d 97 ab 94 3d
       0.06450852 0.028015465 0.06689639 0.07259291
0001b0 8b 70 9c bd 7e 17 77 3d f2 da 71 bd 25 05 a5 bd
       -0.07638653 0.06032514 -0.059046693 -0.08057622
0001c0 de c5 ae bd f1 ac 44 bd ae 35 a6 bd 38 f3 1c 3c
       -0.08533834 -0.048016492 -0.08115707 0.009579472
0001d0 f8 a8 01 3c 21 ae aa 3d 41 f7 a6 3d aa c3 1a 3d
       0.00791382 0.08333994 0.08152629 0.037784256
0001e0 03 02 b4 3d 71 e0 b1 3d 48 8c 74 bc a6 e1 46 3d
       0.08789446 0.08685387 -0.014926024 0.04855504
0001f0 39 18 b2 3d 74 c3 56 bd 58 29 40 bc 38 0b 5e bc
       0.08696026 -0.052432492 -0.011728607 -0.013552479
000200 16 65 2f 3d d8 9d b3 3c ec f3 aa bd cc 74 1f bd
       0.042821012 0.021925852 -0.08347306 -0.038929746
000210 78 b1 ed 3c 26 e3 61 3d 02 b9 29 3d 1e a7 6b 3d
       0.029015288 0.055148266 0.041436203 0.057532422
000220 2a 47 0f 3d 33 d0 ae 3d 5c c6 38 bd fe 88 29 3d
       0.034979977 0.085358046 -0.045111045 0.04139041
000230 d6 50 b2 bd cf 19 11 bd 5e 3c 43 3d 16 df a0 bd
       -0.087068245 -0.035425004 0.047664993 -0.0785505
000240 e6 d0 b4 bd c0 3c 81 ba a2 e2 10 3d b8 49 35 3c
       -0.08828907 -0.0009860024 0.035372384 0.011064939
000250 d9 db 84 3d 62 6b 87 bd 52 10 80 bd b0 30 f2 bb
       0.06487245 -0.066122785 -0.06253113 -0.007391058
000260 80 80 24 3a 3f 09 42 bd 20 9a 68 bd 84 fe ab 3c
       0.00062752515 -0.0473721 -0.05678761 0.020995386
000270 02 80 00 3d e7 4e 8f bd 3e ce 90 bd 2c af c7 3c
       0.031372078 -0.06997471 -0.070705876 0.02437552
000280 e5 f2 9c 3d f8 0f 68 3c e2 b3 a0 bd 18 c7 77 3c
       0.07663516 0.0141639635 -0.0784681 0.015123151
000290 13 e7 3a bd 00 d0 50 3c f0 26 22 3c 1e 02 46 3d
       -0.045630526 0.012744904 0.009896979 0.048341863
0002a0 50 8d 05 bc cd 95 1f bd c5 0d 9e 3d 62 4b 31 bd
       -0.008151367 -0.03896122 0.0771747 -0.04328478
0002b0 48 aa 7a bd 47 29 31 bd 40 08 63 3b 00 b4 14 3a
       -0.06119755 -0.043252256 0.0034642369 0.0005672574
0002c0 9a 41 07 3d 60 dc ac bd 28 9b 8d 3c 32 8f 56 3d
       0.033021547 -0.08440471 0.017285898 0.052382655
0002d0 80 4d 9b bb 68 05 7d 3c 90 60 ba 3b 4c 8a e5 bc
       -0.0047394633 0.0154431835 0.0056877807 -0.028020047
0002e0 ae b0 0e 3d ca 68 5b 3d 6e ed 9b bd e5 2d 91 3d
       0.034836464 0.05356673 -0.076136455 0.07088832
0002f0 24 1b 87 bc 3f cf 92 3d 8e dc a3 bd 36 0c 1d 3d
       -0.016492434 0.07168435 -0.08001052 0.038341723
000300 3a 79 79 3d d8 f6 6e 3c 20 27 8b 3b 25 a6 81 bd
       0.060906626 0.014585219 0.0042466074 -0.06330518
000310 2a db 63 3d de c2 62 3d fa 5a 0a bd 48 82 5f bc
       0.055628933 0.05536162 -0.03377817 -0.013641901
000320 c0 cb e1 3a 00 5b ec 39 f2 ef 6d bd 82 80 94 bd
       0.001722686 0.00045081228 -0.058090158 -0.072510734
000330 80 94 09 bb 3f 64 54 bd 3f 62 52 bd de dd 53 3d
       -0.0020993054 -0.051853415 -0.051363226 0.05172526
000340 34 ff da bc 90 d0 09 3d 4c f3 0a 3d 8e 8f 81 bd
       -0.026733018 0.033646166 0.033923432 -0.06326209
000350 12 da e5 bc 41 4d 98 bd bb 32 85 3d 76 7c d5 bc
       -0.028058086 -0.0743661 0.06503817 -0.026060324
000360 af b0 66 bd 37 e8 9e 3d de 8b 0c 3d e0 b0 1c bc
       -0.056320842 0.07759135 0.034313075 -0.009563655
000370 50 e6 88 bb 01 12 9c 3d 22 f6 1c 3d b6 d0 4d 3d
       -0.004177846 0.076206215 0.038320668 0.05024787
000380 f8 c7 e8 3c ba 33 6f 3d 10 b9 81 bb b3 bf 99 bd
       0.028415665 0.05839894 -0.0039588287 -0.07507267
000390 30 9b a5 bd 58 78 2a 3c ef b0 63 bd 48 5c 3d bc
       -0.0808624 0.010404669 -0.05558866 -0.011557646
0003a0 51 b9 95 3d 78 02 49 bd 7c 8b 08 3d b0 70 d8 3c
       0.07310737 -0.04907462 0.033336148 0.026420921
0003b0 06 db 68 3d 51 2c 84 3d ae 90 52 3d 22 b5 46 3d
       0.056849502 0.06453765 0.05140751 0.048512585
0003c0 10 61 0e 3c 48 23 38 3c 43 a5 6a bd 39 76 8e 3d
       0.008690134 0.01123888 -0.057286512 0.06956143
0003d0 f0 65 c1 3c c3 be 8d 3d d4 e7 af bc 44 aa a2 bc
       0.023608178 0.069211505 -0.021472849 -0.01985658
0003e0 85 4c 46 bd c3 22 90 3d 76 1e 22 3d ae 95 5c bd
       -0.04841282 0.0703788 0.03957983 -0.053853683
0003f0 1b ce 81 3d 18 d7 40 bc c7 d0 89 bd 7a 30 05 3d
       0.063381396 -0.011770032 -0.06729274 0.032516934

lstm.bias_ih_l1 f4 [512]
000000 80 a1 b4 ba 78 71 51 bc b7 6c 55 bd 37 b3 8c 3d
       -0.0013781041 -0.012783401 -0.05210563 0.0687012
000010 90 ae b4 bd a0 02 0e bd 76 f0 f8 bc 90 07 8d 3c
       -0.08822358 -0.034670472 -0.030388098 0.01721552
000020 98 0d 25 3c f0 6a 35 bd 50 9d 7b bc 00 99 6a bb
       0.010074042 -0.044291437 -0.01535733 -0.0035796762
000030 62 cc 60 bd e5 1a b3 3d 33 c0 55 bd 00 d5 1d bb
       -0.054882415 0.08745364 -0.05218525 -0.0024083257
000040 69 52 0d bd 25 ec 97 bd 83 a9 9d bd b8 95 e5 bc
       -0.03450242 -0.07418088 -0.076983474 -0.028025493
000050 a0 6e 83 bb b1 b7 90 3d 07 01 24 bd f4 32 83 bd
       -0.0040109903 0.07066286 -0.040040042 -0.06406203
000060 43 99 59 bd 85 da 86 3d d0 4a 81 3c c9 86 96 3d
       -0.053124677 0.06584648 0.015782744 0.07349927
000070 df 01 9e bd a4 71 d0 bc c0 ab 58 bb 16 a9 7e 3d
       -0.07715201 -0.025444813 -0.0033061355 0.06217297
000080 82 1c 7a bd 20 eb 8d 3b 8c 10 a1 3c 02 03 62 3d
       -0.061062343 0.0043310076 0.01966121 0.05517865
000090 30 95 c1 3c 6a f7 4b 3d b4 40 96 3c c6 7e 40 3d
       0.023630708 0.0497965 0.0183414 0.0469959
0000a0 f6 fc 4e 3d f6 29 70 3d 85 b5 96 bd a6 74 6e bd
       0.05053421 0.058633767 -0.07358841 -0.058216713
0000b0 a0 05 49 bc 28 e9 cd 3c a6 0e 73 3d c2 24 39 bd
       -0.0122694075 0.025135592 0.05934014 -0.04520107
0000c0 44 6f f3 3c 5e 8b 41 bd 00 14 3e 3c c6 85 72 bd
       0.029716142 -0.04725205 0.011601448 -0.059209608
0000d0 98 b9 72 3c 02 0c f6 bc 08 5d f9 3c c8 ba 6a 3c
       0.014814757 -0.030035023 0.030439869 0.014326759
0000e0 ce 76 76 bd 78 c1 0c 3d 26 7d 4e 3d ad b4 8e bd
       -0.060171895 0.034364194 0.05041232 -0.06968055
0000f0 a8 c6 67 bd 6f a4 66 bd 06 55 06 bd be 25 a8 bd
       -0.056585938 -0.05630916 -0.03279593 -0.08210324
000100 4f 82 88 3d 34 93 15 3d 97 45 0c bd 62 ae 6b 3d
       0.066654794 0.036517337 -0.034246054 0.05753935
000110 70 da af bc 40 d0 22 bb 59 92 aa 3d b3 9d 98 bd
       -0.021466464 -0.0024843365 0.08328695 -0.07451954
000120 18 20 0e bc 94 b9 9b bc c8 89 53 3c 2b 1e 88 3d
       -0.008674644 -0.019009389 0.012911268 0.06646379
000130 b2 fd 5b bd 31 98 9a 3d 90 a0 8c bd e4 bd c3 bc
       -0.05370874 0.075485595 -0.06866562 -0.023894258
000140 e0 22 6c bc fc 64 ce 3c 40 43 c7 bc d8 4b 75 bc
       -0.014412612 0.025194637 -0.02432406 -0.014971696
000150 a4 3a 92 bd 63 67 aa 3d 00 36 e1 ba ea 69 4a 3d
       -0.07140091 0.08320501 -0.0017182231 0.049417414
000160 16 52 7d 3d 66 17 63 3d 46 e5 8f bd 19 fa 91 3d
       0.06184586 0.055442236 -0.07026152 0.071277805
000170 00 da 10 3c 5f 1f 80 3d 0e cf 94 bd af 6a 20 bd
       0.008841038 0.062559836 -0.07266055 -0.03916424
000180 00 53 ed 3a 36 85 b4 bd e0 cf 1c 3b 96 0c 9b bd
       0.0018106401 -0.088144705 0.0023927614 -0.0757076
000190 ea a1 6b 3d 37 d6 ad 3d 4e 96 d6 bc 80 bc 0f bd
       0.05752746 0.08488124 -0.026194718 -0.035091877
0001a0 58 b0 5d 3c 1c 7f 89 3c 08 6b 32 bd 60 1c 6e bc
       0.013530813 0.016784243 -0.043559104 -0.014533132
0001b0 e8 b6 cd 3c 40 81 58 3c 2c 10 c5 3c 18 a4 b2 bc
       0.02511163 0.013214409 0.024055563 -0.021806762
0001c0 ea 82 3e 3d ca 65 9d bd 60 bb 37 bb 6b 58 b1 3d
       0.046511568 -0.0768543 -0.0028035268 0.086594425
0001d0 80 93 82 bb 80 21 68 ba 96 8f 7a 3d 40 21 ab 3a
       -0.0039848685 -0.00088550895 0.06117209 0.0013056174
0001e0 f3 28 97 3d ae d5 da bc ee b5 e2 bc 00 44 7d bb
       0.07380857 -0.026713219 -0.027674641 -0.0038645267
0001f0 a8 c0 71 bd 00 1c ff bb df 00 b5 3d d6 46 7a 3d
       -0.059021622 -0.0077853203 0.08838057 0.06110271
000200 56 9f 9e bd eb 42 99 3d 08 7a a3 bc 21 ac b4 bd
       -0.07745235 0.07483467 -0.01995565 -0.088218935
000210 50 3b a4 bb c3 a6 01 bd 6a 90 a3 bd 13 87 4f bd
       -0.0050119534 -0.031653177 -0.07986529 -0.050665926
000220 b3 be 86 3d 88 f2 b2 bc 1d ef ab 3d 5f 78 3e bd
       0.06579342 -0.021844164 0.083952166 -0.046501514
000230 d4 f5 ab bd 68 f1 49 bc 0c df dc 3c 80 f4 aa bd
       -0.08396497 -0.012325622 0.026961826 -0.08347416
000240 0e c2 38 3d 00 b0 ad 38 40 24 e6 bb 56 ee 2b 3d
       0.04510694 8.2820654e-05 -0.0070233643 0.04197534
000250 b4 6e 8c 3c d6 dd 92 bd 29 92 70 bd b3 c9 1a bd
       0.017142631 -0.07171218 -0.05873314 -0.03779001
000260 ac e5 c2 bc 80 78 4b bd 5c 2f 03 3d 95 49 96 3d
       -0.023791157 -0.049675465 0.032027587 0.073382534
000270 b3 79 8f 3d 57 02 8c 3d fe 26 7e bd f5 d3 87 3d
       0.07005634 0.06836384 -0.062048905 0.066322245
000280 da 3f 40 3d 72 84 2a 3d dc 57 e0 3c f0 1f 0d bc
       0.046935894 0.041630216 0.027385645 -0.0086135715
000290 a8 5b 66 3c 14 cf 8b 3c 08 71 1f bc 6b 6a 88 3d
       0.0140599385 0.017066516 -0.009731539 0.066609226
0002a0 88 2a 8d bc 5d 0a b3 3d f6 98 3e 3d 00 cd af bd
       -0.017232195 0.08742211 0.046532594 -0.085840225
0002b0 ae 27 6d bd 48 cc 6b bd c3 dc 99 3d 1e a1 79 3d
       -0.05789917 -0.057567865 0.0751281 0.06094467
0002c0 62 a5 91 bd 0d c5 91 bd 3d 47 84 bd 1b 9f 18 bd
       -0.071116224 -0.071176626 -0.064589 -0.03726111
0002d0 ad 04 b5 3d ce 73 29 3d 0a 7e 77 3d f4 7c 89 bc
       0.088387825 0.041370206 0.060422935 -0.016783215
0002e0 14 0e bc bc 37 0a a6 3d 6b db a2 3d b0 28 cb bb
       -0.022955932 0.08107417 0.07952007 -0.0061999187
0002f0 98 50 68 bc d0 29 d5 3c ef 28 98 3d 5f ec 5b bd
       -0.014179371 0.026020914 0.074296825 -0.053692218
000300 09 7f 26 bd 5c 8d f8 bc f0 fc 58 bc 10 f2 d6 3b
       -0.040648494 -0.030340843 -0.013243899 0.006559618
000310 d1 4a 9f 3d 19 2b a1 3d e3 ed 82 3d fc 12 0f 3d
       0.07777942 0.07869548 0.063930295 0.034930214
000320 80 ad 37 3b 4b b1 9c 3d cd 85 7c bd 20 75 2b 3b
       0.0028026998 0.076510035 -0.06165104 0.0026162341
000330 66 1d 71 3d 58 e2 d9 3c 2a 7a 3d 3d be a0 0a 3d
       0.058865927 0.026597187 0.046259083 0.033844702
000340 3c 20 a2 3c e5 ae 94 bd f2 cf a1 bd 27 8b 10 bd
       0.019790761 -0.07259921 -0.079009905 -0.035288956
000350 48 ed 8f bc 88 4f 00 bc 86 8f 13 bd 04 e4 01 bd
       -0.0175692 -0.007831462 -0.036025546 -0.031711593
000360 ea 73 32 3d 71 3e 40 bd 78 d2 34 bc 89 7a 57 bd
       0.043567576 -0.04693455 -0.011036508 -0.052607093
000370 5e 23 a4 bd 0c d0 d1 bc f4 08 82 bd 99 fd 72 bd
       -0.08014558 -0.0256119 -0.06349364 -0.05932388
000380 13 0f a6 3d 84 14 c0 3c 40 d8 7c 3b 87 db 47 bd
       0.08108344 0.023447283 0.0038581043 -0.048793342
000390 a6 32 2a bd 9c f6 b1 3c 04 56 a7 bd 44 68 d3 3c
       -0.04155221 0.021724038 -0.08170703 0.025806554
0003a0 6c 3b eb 3c c0 4a b9 3c 9e 32 69 bd 1e fb 3a bd
       0.028714858 0.022618651 -0.056933038 -0.04564964
0003b0 9a 9a 6b 3d 00 9d 52 bd 60 75 51 bb 2e 99 a9 bd
       0.057520486 -0.051419258 -0.003196083 -0.0828117
0003c0 fe f4 aa bd a3 f7 85 3d 7f 55 a5 3d 62 d5 1f 3d
       -0.0834751 0.065413736 0.08072948 0.039021857
0003d0 15 14 2b bd 10 2c 43 bc be c5 7c 3d 44 42 05 bd
       -0.0417672 -0.011912361 0.06171202 -0.0325339
0003e0 57 ee 8a 3d ec 9d 9e bd 80 99 84 bc 70 6b e7 3c
       0.06783741 -0.07744965 -0.016186476 0.028249472
0003f0 90 73 7e bc 13 89 a3 3d 50 9d 54 bc 2b 92 a5 bd
       -0.015530482 0.07985129 -0.012976959 -0.0808452
