seqlstm/model_epoch_250.pt (torch, 811240 bytes, 10 tensors)

lstm.weight_ih_l0 f4 [512, 5]
0	0x3cfa1354	0.030526794
1	0xbbab2c30	-0.0052237734
2	0x3db4e379	0.088324495
3	0x3dad6fdb	0.084686
4	0x3d49a08e	0.049225383
5	0xbc9d5a8c	-0.019208215
6	0x3d599a52	0.053125687
7	0xbd09cc05	-0.033641834
8	0x3d4033da	0.04692445
9	0xbd1b814b	-0.0379651
10	0xbcceb4b0	-0.025232643
11	0x3c34e6d8	0.011041366
12	0x3d5e4972	0.05426926
13	0x3c1a5860	0.009420484
14	0x3db4fcd9	0.08837289
15	0xbdadaf5e	-0.08480714
16	0x3dada4bd	0.08478687
17	0xbd9a20e9	-0.07525808
18	0x3d7e4392	0.06207616
19	0xbd7e2515	-0.062047083
20	0x3cc6f874	0.024288394
21	0xbd704483	-0.058659088
22	0xbd7c6c28	-0.061626583
23	0xbd3dd217	-0.046342935
24	0xbcea8744	-0.028628953
25	0x3bce03d0	0.0062870756
26	0xbc846f94	-0.016166486
27	0x3ce457a0	0.027873814
28	0x3d802b4f	0.062582605
29	0x3d44076e	0.047858648
30	0x3d1e018a	0.038575687
31	0xbbc7e0e0	-0.0060998052
32	0x3b876e10	0.0041329935
33	0x3d966615	0.07343689
34	0xbd553521	-0.05205262
35	0x3d586206	0.052827857
36	0xbd4d7a8e	-0.050165705
37	0x3d893583	0.0669966
38	0xbd81be38	-0.063351095
39	0x3d3183d6	0.04333862
40	0x3d46468a	0.048407115
41	0xbcaeb7d0	-0.021327883
42	0x3d84bbcf	0.06481134
43	0xbdb3140d	-0.08744059
44	0x3d9add19	0.07561702
45	0xbbfac6b0	-0.00765308
46	0xbdaaaefc	-0.08334157
47	0xbcdabae6	-0.026700448
48	0xbd8d89f6	-0.069110796
49	0x3d9d6f63	0.07687261
50	0x3d757f1e	0.05993568
51	0xbb5954a0	-0.0033162013
52	0x3ca07774	0.01958821
53	0x3cf07658	0.029353306
54	0x3d7b30f2	0.061325975
55	0x3c30a958	0.010782562
56	0x3d08fffa	0.033447243
57	0xbd2d6f47	-0.04234245
58	0x3d21a42e	0.039463215
59	0xbd6a1533	-0.057149123
60	0xbc8c7740	-0.017146707
61	0xbdb4362d	-0.08799396
62	0xbdad85e9	-0.08472807
63	0xbd6d8d26	-0.057995938
64	0xbd1bbe94	-0.038023546
65	0xbc9ff3e0	-0.019525468
66	0x3cf19f54	0.029494919
67	0x3cb1c22c	0.021699034
68	0xbd64ee80	-0.055891514
69	0xbc295f08	-0.010337599
70	0xbb863420	-0.0040955693
71	0x3cff2460	0.031145275
72	0xbccdd704	-0.025126942
73	0xbc67ae40	-0.0141406655
74	0xbb946ec0	-0.004529804
75	0xbd828671	-0.06373299
76	0xbd1072c4	-0.0352657
77	0xbd43e8ad	-0.04782932
78	0xbd308def	-0.04310411
79	0x3d07d566	0.033162497
80	0xbd89db4e	-0.06731282
81	0xbd851e85	-0.06499962
82	0x3cb77130	0.02239284
83	0x3d86267b	0.06550308
84	0xbd5f8824	-0.054573193
85	0x3c82c0f4	0.015961148
86	0x3d71a2b6	0.058993064
87	0x3d8ecc05	0.069725074
88	0xbdaa51bd	-0.083163716
89	0xbc34bca8	-0.011031307
90	0x3d437ec2	0.047728308
91	0x3c932de4	0.017966218
92	0x3db154c9	0.086587496
93	0xbcbc7868	-0.023006633
94	0xbd02cfa0	-0.031936288
95	0x3d5ed4fe	0.054402344
96	0xbdaddb11	-0.08489049
97	0x3d2d93ce	0.042377286
98	0xbcd9f71e	-0.026607092
99	0x3ca15ac0	0.019696593
100	0xbdb30967	-0.08742028
101	0xbdabcc7c	-0.08388612
102	0xbc075ca8	-0.008261837
103	0xbd088395	-0.03332861
104	0x3d1fec96	0.039043985
105	0x3d710d6a	0.058850683
106	0xbdacd5b1	-0.08439196
107	0x3cd3abb0	0.025838703
108	0xbd1c53f8	-0.038166016
109	0x3d07b464	0.03313102
110	0x3db2c41b	0.087288104
111	0xbd47bed3	-0.04876597
112	0xbd887b6f	-0.06664168
113	0xbd672997	-0.056436148
114	0xbbdadd20	-0.006679192
115	0x3d765b86	0.060145877
116	0x3d3d8fa2	0.046279557
117	0xbbd84d10	-0.0066009834
118	0xbdac0b3a	-0.08400579
119	0x3c406528	0.0117428675
120	0xbda619a1	-0.08110357
121	0x3d9d0121	0.07666231
122	0x3ae0b2c0	0.0017143115
123	0xbd64b85a	-0.055839874
124	0xbd91f90a	-0.071275786
125	0xbdb051dd	-0.08609364
126	0xbc39e688	-0.011346467
127	0xbd9141c6	-0.070926234
128	0xbd4c006c	-0.04980509
129	0xbd9b98fb	-0.07597538
130	0xbda0630b	-0.07831391
131	0x3da28c67	0.07936936
132	0x3d674f26	0.056471966
133	0xbb2e1d00	-0.0026567578
134	0xbc902aac	-0.017598473
135	0xbc972dd0	-0.018454462
136	0xbd56ec77	-0.052471604
137	0xbd173687	-0.036917236
138	0xbd89ca93	-0.06728091
139	0x3d21cf92	0.039504595
140	0xbd9e3d75	-0.07726566
141	0xbd81effe	-0.06344603
142	0x3b5e8ec0	0.0033959597
143	0x3da2c435	0.0794758
144	0x3c893034	0.016746618
145	0x3cc991e0	0.024605691
146	0x3d9131cd	0.07089577
147	0xbd84680c	-0.06465158
148	0xbd447c8f	-0.04797035
149	0xbdad7050	-0.084686875
150	0x3c7f2570	0.015572891
151	0xbd2d16d6	-0.042258106
152	0x3d5176ba	0.051138617
153	0x3ca01094	0.019539155
154	0x3ca3c2f8	0.01999043
155	0xbc17c7b0	-0.009263918
156	0x3da9f841	0.08299304
157	0xbc8c0cf0	-0.017096013
158	0x3d0ed7aa	0.034873642
159	0x3bbf3710	0.0058354214
160	0xbda239b3	-0.079211615
161	0x398d9200	0.00027002394
162	0xbdac59fe	-0.08415602
163	0x3c9f14ac	0.019419037
164	0x3c9ce49c	0.019151978
165	0x3d4772de	0.04869353
166	0x3d0a017a	0.033692814
167	0x3d9c7277	0.0763902
168	0xbcbfad14	-0.02339796
169	0x3d2c28aa	0.042030968
170	0x3da8328d	0.08212767
171	0x3d8b6bd3	0.06807675
172	0xbd9cbf33	-0.07653656
173	0x3d267356	0.040637337
174	0x3d944509	0.0723973
175	0xbc53b9e8	-0.0129227415
176	0x3d42ba96	0.047541223
177	0xbc8e95ac	-0.017405353
178	0xbda0bdd3	-0.07848706
179	0xbdaee3d4	-0.085395485
180	0x3da146b5	0.078748144
181	0xbd5ab1f6	-0.053392373
182	0xbc9359e0	-0.017987192
183	0x3cf0c9f8	0.029393181
184	0x3c32f398	0.010922335
185	0xbcc07da8	-0.023497418
186	0x3db0c065	0.08630446
187	0x3d7808d2	0.060555287
188	0x3d11fd7c	0.035642132
189	0xbd287e9e	-0.041136377
190	0xbc31a258	-0.010841928
191	0xbd14fdc8	-0.036374837
192	0x3d91fbaf	0.07128083
193	0xbda50a2c	-0.08058581
194	0xbd460faa	-0.048354782
195	0x3d98ae27	0.07455092
196	0xbc9d199c	-0.01917725
197	0x3d189a2a	0.037256397
198	0x3da18d85	0.07888321
199	0xbd34fdc7	-0.044187333
200	0x3d1c970e	0.038229994
201	0xbd223996	-0.0396057
202	0xbbf96370	-0.007610731
203	0xbd6d7b6e	-0.05797904
204	0x3c90e7bc	0.017688625
205	0x3d8ee2a7	0.06976824
206	0x3d9a5a45	0.07536749
207	0x3c33a3e0	0.010964364
208	0x3d95fc7f	0.073235504
209	0xbc9559b4	-0.01823125
210	0x3c1354e8	0.008992411
211	0x3a317080	0.0006768778
212	0x3d749cb2	0.05971975
213	0x3c9fb7e4	0.019496866
214	0x3d3fffce	0.046874814
215	0xbd5a51a1	-0.053300504
216	0xbd2396fc	-0.03993891
217	0x3cd7c97c	0.026341192
218	0xbd8ab1e8	-0.06772214
219	0xbcae0c18	-0.021246001
220	0x3d17998e	0.037011676
221	0xbcc39ce0	-0.023878515
222	0x3ccab460	0.024744213
223	0x3d26d836	0.04073354
224	0x3be40e60	0.0069597214
225	0x3da47a93	0.08031192
226	0x3d00cc80	0.031445026
227	0xbd6104e8	-0.05493632
228	0x3d292cb2	0.04130239
229	0x3d20865a	0.039190628
230	0x3d3a1396	0.045428835
231	0x3d439a86	0.047754787
232	0xbd4b3540	-0.04961133
233	0x3bacf240	0.005277902
234	0xbda4ddf3	-0.08050146
235	0xbc10bf08	-0.008834608
236	0x3caf6214	0.021409072
237	0xbce29fdc	-0.027664118
238	0xbd47c314	-0.048770025
239	0xbca68aac	-0.020329796
240	0xbd675867	-0.05648079
241	0xbd3068f1	-0.04306883
242	0xbacd9440	-0.0015684441
243	0xbd0c92eb	-0.0343198
244	0x3d9c3d7d	0.076289155
245	0x3da252f3	0.079259776
246	0xbc5cb1d8	-0.013470136
247	0x3d9ccc87	0.07656198
248	0xbb822bd0	-0.003972508
249	0xbbe674b0	-0.007032953
250	0xbd2831dd	-0.04106318
251	0xbd998d52	-0.07497658
252	0xbd29d0d0	-0.041458905
253	0xbd9596dc	-0.07304165
254	0x3d83cf23	0.064359926
255	0x3b82d920	0.0039931685

lstm.weight_hh_l0 f4 [512, 128]
0	0xbd982182	-0.07428266
1	0x3b4f4a40	0.003162995
2	0xbda57679	-0.080792375
3	0xbb268440	-0.0025408417
4	0x3d98eadf	0.07466673
5	0xbda3950d	-0.079874136
6	0xbd621144	-0.055192247
7	0xbd98805a	-0.07446356
8	0x3cbf8e84	0.023383386
9	0xbd0d2eb4	-0.034468368
10	0xbd66864b	-0.056280416
11	0xbd59a72c	-0.053137943
12	0x3d5b5b8e	0.05355411
13	0xbd918cfb	-0.07106968
14	0x3d5ade62	0.053434737
15	0x3daee9b5	0.0854067
16	0x3d7cadc2	0.061689146
17	0x3c2cb438	0.010541014
18	0x3cc33a8c	0.023831628
19	0x3d7de392	0.061984606
20	0xbcf934a2	-0.030420605
21	0xbd9b11b7	-0.07571738
22	0x3c3d5330	0.011555478
23	0x3d7484e6	0.059697054
24	0x3d1bedb2	0.03806848
25	0x3c603018	0.013683341
26	0x3c8a36b0	0.01687178
27	0xbb8e43d0	-0.00434158
28	0xbc9a7a58	-0.018857166
29	0xbcbf3748	-0.02334179
30	0xbd334458	-0.04376635
31	0xbcf1b838	-0.029506788
32	0x3da6c1c3	0.08142426
33	0x3db18a53	0.086689614
34	0xbbeb1c10	-0.007174976
35	0xbc5d1cc8	-0.0134956315
36	0xbd37c1bc	-0.044862494
37	0xbaa02ac0	-0.0012219772
38	0xbd71e6d8	-0.05905804
39	0x3c9e5438	0.019327268
40	0x3d8f1509	0.06986434
41	0x3d102eb0	0.035200775
42	0x3c4cf268	0.012508966
43	0x3bae5ca0	0.0053211004
44	0x3ba94260	0.005165383
45	0xbda2257e	-0.07917307
46	0x3cda32ec	0.02663561
47	0xbd922f7c	-0.07137963
48	0x3cae8d54	0.021307625
49	0x3c072ec8	0.0082509
50	0xbd84e8e9	-0.064897366
51	0xbdb1ad87	-0.08675676
52	0x3d1d5772	0.038413472
53	0xbce78096	-0.028259557
54	0x3d1fd076	0.039017163
55	0x3d8eb0e5	0.06967334
56	0xbd8481b8	-0.064700544
57	0x3cf23178	0.029564604
58	0xbd23ef6b	-0.04002325
59	0xbcf20af2	-0.029546235
60	0x3da6ea8f	0.08150207
61	0x3c9c9248	0.019112721
62	0xbd3834b2	-0.04497213
63	0xbd02513b	-0.03181575
64	0xbd6b9bb8	-0.05752155
65	0x3d823057	0.06356876
66	0xbd248586	-0.0401664
67	0xbd082918	-0.033242315
68	0x3d8a91b5	0.06766073
69	0x3d96f4af	0.073708884
70	0x3d047f68	0.032348067
71	0xbd9b0b5c	-0.07570526
72	0xba125480	-0.00055820495
73	0xbb177ac0	-0.0023113936
74	0xbd76fc70	-0.060299337
75	0x3dadee7f	0.08492755
76	0x3d73a6aa	0.059485115
77	0xbcf1c2b6	-0.02951179
78	0xbd612aea	-0.054972567
79	0x3d18622e	0.037203006
80	0x3d10513c	0.03523372
81	0x3d0bbe50	0.034117043
82	0xbc76ac38	-0.015055709
83	0x3daf3677	0.0855531
84	0x3db1d659	0.08683462
85	0xbd143e63	-0.03619231
86	0x3d817857	0.06321781
87	0xbb918630	-0.004441045
88	0xbd3af41d	-0.04564296
89	0xbcc64a68	-0.024205402
90	0x3d1bc976	0.038033925
91	0xbaedcb40	-0.0018142238
92	0xbdab8327	-0.08374625
93	0xbd02bca2	-0.031918176
94	0x3d047582	0.032338627
95	0x3d9c40db	0.07629558
96	0x3ca8c67c	0.020602457
97	0xbd8c435b	-0.068487845
98	0xbdaff63a	-0.08591886
99	0x3da6c823	0.08143642
100	0x3c8f5898	0.0174983
101	0x3d2d9e1e	0.04238712
102	0xbd7434c2	-0.059620626
103	0xbda6c3e0	-0.08142829
104	0x3c5c02e0	0.01342842
105	0x3c3b71d8	0.011440717
106	0x3d650a7e	0.05591821
107	0x3d963f1d	0.07336257
108	0xbd0a6cc4	-0.033795133
109	0xbc9ef554	-0.019404091
110	0xbd1e7961	-0.038689975
111	0xbd506222	-0.050874837
112	0x3d90435d	0.070440985
113	0x3c32e900	0.010919809
114	0xbd53d580	-0.05171728
115	0x3da46ea9	0.08028919
116	0xbc365330	-0.011128232
117	0xbda5a97f	-0.080889694
118	0xbd951c2d	-0.07280765
119	0x3d3246aa	0.04352442
120	0xbcda35a8	-0.026636913
121	0x3c1deeb0	0.009639427
122	0xbc0af498	-0.008481167
123	0xbdb2dcfb	-0.08733555
124	0x3d6db78e	0.05803638
125	0x3d176fc6	0.03697183
126	0xbd633ce1	-0.05547798
127	0xbcd2f888	-0.025753275
128	0x3d720142	0.05908323
129	0x3d36bf52	0.04461605
130	0x3d9b177b	0.07572838
131	0xbda7cde5	-0.08193568
132	0x3ca0a948	0.01961197
133	0x3cf0b378	0.029382452
134	0xbd7bd2de	-0.061480395
135	0xbbada6a0	-0.0052994043
136	0xbc2b3b18	-0.010451101
137	0xbd990dcc	-0.07473335
138	0x3d4a69c6	0.04941728
139	0xbbfc3710	-0.0076969936
140	0xbd0ae5b4	-0.03391047
141	0xbc9a4a5c	-0.018834285
142	0xbd631457	-0.05543932
143	0x3bba58a0	0.0056868345
144	0xbd615e9f	-0.05502188
145	0xbc512628	-0.012765445
146	0xbcc121c0	-0.023575664
147	0x3daff5e5	0.085918225
148	0x3d617a1a	0.055048086
149	0xbd195475	-0.03743406
150	0xbce2d972	-0.027691577
151	0x3c801ec0	0.015639663
152	0x3d8121b5	0.06305257
153	0x3cb8b4c8	0.02254714
154	0xbcdf4f76	-0.02725957
155	0xbd43c012	-0.047790594
156	0xbb685320	-0.0035449937
157	0xbd75426b	-0.059877794
158	0xbc600af0	-0.013674483
159	0xbd366300	-0.044528008
160	0xbc6863c0	-0.0141839385
161	0xbc317cb0	-0.0108329505
162	0x3c7f0698	0.015565537
163	0xba8d0280	-0.0010758191
164	0xbc2e23a0	-0.010628611
165	0xbc78c5a0	-0.015183836
166	0xbb2d50e0	-0.002644591
167	0xbc2a6568	-0.010400154
168	0xbbf7a9e0	-0.0075580925
169	0xbd95d10e	-0.07315265
170	0xbd3e3277	-0.046434846
171	0x3cfb0af4	0.030644871
172	0x3d7ac936	0.061227046
173	0xbd446d0c	-0.047955558
174	0x3ad2b440	0.0016075447
175	0xbd3a49c7	-0.045480516
176	0x3d38f3ee	0.045154504
177	0x3d89bd35	0.067255415
178	0xbb45acc0	-0.0030162781
179	0x3d4e88ae	0.050423317
180	0xbdb0aa7d	-0.08626268
181	0x3d9b2aff	0.0757656
182	0x3db076f1	0.08616436
183	0x3ca3b1d8	0.019982263
184	0x3d7585e2	0.059942134
185	0xbd619b33	-0.05507965
186	0xbd2893ff	-0.041156765
187	0x3d5b8076	0.053589307
188	0x3d92134b	0.07132586
189	0xbce7235c	-0.028215103
190	0xbd6c9253	-0.057756733
191	0xbd720c38	-0.059093684
192	0xbc4dab68	-0.0125530735
193	0x3d1ac0ae	0.03778141
194	0x3d013474	0.031544164
195	0x3d42cb16	0.04755696
196	0x3c3a0d40	0.011355698
197	0x3d92bc8f	0.07164871
198	0xbcf73d10	-0.030180484
199	0x3b922f70	0.0044612214
200	0x3c0d9df8	0.00864362
201	0x3cf1d1b8	0.029518947
202	0x3c704050	0.014663771
203	0xbcc007c4	-0.023441203
204	0xbbee8920	-0.00727953
205	0xbd50823e	-0.05090546
206	0xbd87c26d	-0.06628881
207	0xbd2dadbc	-0.042402014
208	0xbdb3b879	-0.0877542
209	0x3da454b5	0.08023969
210	0xbd8d2a37	-0.068928175
211	0x3da2a5d7	0.07941788
212	0x3a94b9c0	0.0011346862
213	0x3d74835e	0.059695594
214	0x3d7469b2	0.05967111
215	0x3d92c533	0.07166519
216	0xbd94d2a4	-0.07266739
217	0x3cd4df1c	0.025985293
218	0xbda43d12	-0.08019461
219	0x3d162216	0.0366536
220	0xbbd73a90	-0.0065682605
221	0xbd9c3fac	-0.07629332
222	0xbda64fcd	-0.081206895
223	0x3d7c8002	0.061645515
224	0xbaaa7700	-0.0013005435
225	0xbd32b709	-0.043631587
226	0x3c303c08	0.0107565
227	0xbc725500	-0.014790773
228	0x3c07d798	0.008291148
229	0x3d755efe	0.059905045
230	0xbd0eaeac	-0.03483455
231	0xbdb28259	-0.08716268
232	0x3d8bc69f	0.06824993
233	0xbd16ec94	-0.036846712
234	0xbd86b9b0	-0.06578386
235	0x3c75bce8	0.014998652
236	0xbc8e93a8	-0.017404392
237	0x3da9c80b	0.08290108
238	0xbd061e00	-0.032743454
239	0xbc68be80	-0.014205575
240	0xbd3a774c	-0.045523927
241	0xbd387e7d	-0.045042504
242	0xbd64dca0	-0.055874467
243	0xbce934f6	-0.028467637
244	0xbd3ad6b6	-0.04561492
245	0x3d36b8e6	0.044609927
246	0xbc4652d8	-0.012104712
247	0xbd706db0	-0.058698356
248	0xbd5d3e26	-0.054014347
249	0xbd98b5ab	-0.074565254
250	0x3d78287a	0.060585476
251	0xbd7d4641	-0.061834577
252	0x3d22231e	0.03958427
253	0x3d97acbb	0.074059926
254	0xbbe36a20	-0.0069401413
255	0xbbd6edd0	-0.006559111

lstm.bias_ih_l0 f4 [512]
0	0xbce80986	-0.028324854
1	0x3d28ad52	0.041180916
2	0xbd563413	-0.052295756
3	0x3cdc6ee8	0.026908353
4	0x3d2fce96	0.042921625
5	0x3ca281fc	0.019837372
6	0x3c55f730	0.013059422
7	0x3d9a2de3	0.075282834
8	0xbb3570a0	-0.0027685538
9	0x3cc681ec	0.024231873
10	0x3db3f503	0.08786967
11	0x3d1719fe	0.036890022
12	0xbce70330	-0.028199762
13	0x3d8f40c1	0.06994773
14	0xbd7f5ed6	-0.062346302
15	0x3d34a6f2	0.044104524
16	0xbdaf4433	-0.0855793
17	0xbd9a4dad	-0.07534347
18	0xbd8eaa50	-0.06966078
19	0xbd9acb82	-0.07558347
20	0xbc026678	-0.007959001
21	0x3cedf7a4	0.029048748
22	0x3d919e3b	0.07110258
23	0xbd241b45	-0.04006507
24	0xbdabe9e5	-0.08394221
25	0xbdab8a87	-0.08376031
26	0x3c417ef0	0.011810049
27	0xbb19a7a0	-0.002344586
28	0x3da1f719	0.07908458
29	0x3d95f411	0.073219426
30	0xbceeff8a	-0.029174585
31	0x3b22dee0	0.0024852082
32	0x3cc22fec	0.023704492
33	0xbd8015d4	-0.062541634
34	0x3d3ca942	0.046059854
35	0x3b8ea750	0.0043534413
36	0xbd8ccf9c	-0.06875536
37	0xbd8935a4	-0.06699684
38	0x3c359450	0.011082724
39	0x3c504740	0.0127123
40	0x3cb4c370	0.022065848
41	0xbdacfe87	-0.08446985
42	0x3d97835d	0.073981024
43	0xbd48b5f8	-0.049001664
44	0x3d0ba6c2	0.03409458
45	0xbba26240	-0.00495556
46	0x3b121ac0	0.0022293776
47	0x3cafb984	0.021450765
48	0x3d009444	0.031391397
49	0xbdae6e8e	-0.085171804
50	0xbb6e0560	-0.0036319122
51	0x3c39a050	0.011329725
52	0xbd87f142	-0.06637813
53	0xbcf7260a	-0.030169506
54	0x3d1a0b0a	0.037608184
55	0xbc96ee88	-0.018424287
56	0x3c8144a4	0.0157798
57	0xbc3b4368	-0.011429645
58	0xbd52ea08	-0.05149272
59	0x3dabe387	0.08393007
60	0x3d37b1de	0.04484736
61	0x3d7e6c32	0.0621149
62	0xbc592060	-0.013252348
63	0x3c092e28	0.008372821
64	0xbd53c7fc	-0.05170439
65	0x3d26ccde	0.04072272
66	0xbc560890	-0.013063565
67	0xbd9bb8d8	-0.076036155
68	0x3d9e04f1	0.07715786
69	0x3ca8532c	0.020547472
70	0xbcd0b240	-0.025475621
71	0xbd8a418d	-0.06750784
72	0x3c05af68	0.008159496
73	0x3bba7f90	0.005691476
74	0x3b363880	0.0027804673
75	0xbbda56f0	-0.006663196
76	0xbd9034ec	-0.07041344
77	0xbda26832	-0.0793003
78	0xbcfeb732	-0.031093214
79	0x3d140442	0.036136873
80	0x3cd0647c	0.02543854
81	0x3d03dc42	0.032192476
82	0x3d058854	0.032600716
83	0x3d954e03	0.0729027
84	0x3caa0714	0.020755328
85	0x3d90f791	0.070784695
86	0xbd0d4442	-0.034488924
87	0x3d9727f9	0.07380671
88	0xbd4ba794	-0.04972036
89	0x3daf88a5	0.08570985
90	0xbdb4732d	-0.088110305
91	0xbc0d4808	-0.008623131
92	0xbca609c0	-0.020268321
93	0x3bd383e0	0.0064549297
94	0x3a60a100	0.0008568913
95	0xbda04b88	-0.078269064
96	0x3d0f04b4	0.034916595
97	0xbd7348fb	-0.05939577
98	0xbbeef5f0	-0.0072925016
99	0xbc8e227c	-0.017350428
100	0xbd24d104	-0.040238395
101	0x3d5c8bc6	0.053844236
102	0xbaf60100	-0.0018768609
103	0xbd1a4f89	-0.037673507
104	0xbb6879e0	-0.0035473034
105	0x3d553cd2	0.052059956
106	0xbd8f9f67	-0.070128255
107	0x3d9aafbd	0.07553051
108	0x3d97f411	0.07419599
109	0xbda5df9b	-0.0809929
110	0xba204100	-0.00061132014
111	0xbd3da799	-0.04630241
112	0xbd8b1b5a	-0.06792326
113	0xbdafc9fe	-0.08583449
114	0x3d892027	0.06695586
115	0x3d8e6b65	0.06954078
116	0xbd987f02	-0.074461
117	0x3b65c7e0	0.0035061762
118	0x3b8f9750	0.0043820515
119	0xbda3f70c	-0.08006105
120	0x3cbcb3b8	0.023034915
121	0xbd7ab90b	-0.061211627
122	0xbd28b03a	-0.041183688
123	0x3c338558	0.010957085
124	0x3d46aa0e	0.04850202
125	0xbdb0f64b	-0.08640727
126	0x3cbac92c	0.022801004
127	0x3cd88560	0.026430786
128	0x3c0b7498	0.008511685
129	0x3d981a23	0.0742686
130	0xbdad7e5d	-0.084713675
131	0xbb473f20	-0.0030402616
132	0x3d9a1eff	0.07525443
133	0xbd392fc1	-0.045211557
134	0xbd825956	-0.06364696
135	0xbca46320	-0.020066798
136	0x3d8cba4f	0.06871473
137	0xbc572520	-0.01313141
138	0x3cf0c4b0	0.029390663
139	0x3da38945	0.079851665
140	0x3daed2b1	0.0853628
141	0x3a706200	0.00091698766
142	0x3ce49700	0.027904034
143	0xbd88bf7c	-0.06677148
144	0x3d8371db	0.064182006
145	0x3c941010	0.018074065
146	0xbd4f057f	-0.05054235
147	0x3d6dd36a	0.05806295
148	0x3d85cd9d	0.06533358
149	0x3d40aaca	0.047037877
150	0xbd0acdfb	-0.033887845
151	0xbc632758	-0.013864361
152	0xbc644488	-0.013932355
153	0xbcf4f40a	-0.029901523
154	0x3c47b610	0.012189403
155	0x3d9fe879	0.078080125
156	0x3c81a8d8	0.015827581
157	0xbd7f8d68	-0.062390715
158	0xbd17756a	-0.03697721
159	0xbd8de7fc	-0.06929013
160	0xbc5615e8	-0.013066746
161	0x3d4804ce	0.048832707
162	0xbdb26cab	-0.08712133
163	0xbd4d4485	-0.050114173
164	0xbb6196a0	-0.0034422055
165	0xbd369bb9	-0.044582102
166	0xbc80b4a8	-0.015711144
167	0xbce03902	-0.027370933
168	0xbd591f09	-0.053008113
169	0xbb4fe620	-0.0031722859
170	0x3ba1daa0	0.004939392
171	0xbcae2f70	-0.021262854
172	0x3d2e8906	0.042611144
173	0x3d2969d2	0.041360684
174	0xbd0c83c5	-0.034305353
175	0xbba228f0	-0.004948728
176	0x3d5cea9e	0.053934686
177	0xbca74c48	-0.020422116
178	0x3d3ead4a	0.04655198
179	0xbc3c3468	-0.011487104
180	0xbd308dca	-0.04310397
181	0xbcd78f0e	-0.026313331
182	0xbc692fe8	-0.014232613
183	0xbd9a1b15	-0.07524697
184	0x3d319956	0.043359123
185	0x3c9dea18	0.019276664
186	0xbc006c00	-0.007838249
187	0x3db3b7cf	0.08775293
188	0xbd8473f2	-0.06467427
189	0x3d301422	0.04298795
190	0xbd7cef67	-0.06175175
191	0x3da5d851	0.080979
192	0xbc5f0c98	-0.013613842
193	0x3b0de9c0	0.0021654218
194	0x3d61973e	0.055075876
195	0xbd79d004	-0.060989395
196	0x3d8b29f9	0.06795115
197	0x3d0c0b44	0.03419043
198	0xbc491f48	-0.012275524
199	0x3c1e0690	0.009645119
200	0xbd543bbb	-0.051814776
201	0xbc47c100	-0.012192011
202	0xbcf4baae	-0.029874172
203	0xbb1741e0	-0.0023080036
204	0x3da15acb	0.078786455
205	0xbc4447d0	-0.011980012
206	0xbd2d415f	-0.04229867
207	0xbd9c0e1d	-0.076198794
208	0x3c1d9828	0.009618796
209	0x3d93e72b	0.07221826
210	0xbdb266bc	-0.08711001
211	0xbd5650a5	-0.052323002
212	0x3d303e5e	0.043028228
213	0xbd9097ef	-0.07060229
214	0xbd2e07d0	-0.04248792
215	0x3bd31010	0.006441124
216	0xbc0474f0	-0.008084521
217	0x3d109682	0.035299785
218	0x3d81f289	0.06345088
219	0xbd392492	-0.04520089
220	0x3c0d6eb0	0.008632347
221	0x3c1a9f38	0.009437375
222	0xbbfb2180	-0.0076639056
223	0xbbfdaff0	-0.0077419207
224	0x3cfc4aac	0.030797325
225	0x3d98f939	0.074694104
226	0xbd8c723f	-0.06857728
227	0x3be82da0	0.007085517
228	0xbcf96edc	-0.03044837
229	0xba637500	-0.0008676797
230	0x3ceb17e4	0.028697915
231	0x3d4b3a66	0.04961624
232	0xbd1b692a	-0.03794209
233	0x3d784f4e	0.060622506
234	0x3d9f570f	0.07780277
235	0x3d758dc6	0.05994966
236	0xbcd11838	-0.025524244
237	0xbd214a81	-0.039377693
238	0x3db02a7d	0.08601854
239	0xbd7e8600	-0.06213951
240	0xbcd2cab8	-0.02573143
241	0x3d2befae	0.041976623
242	0xbd181eb3	-0.037138652
243	0x3b9f2420	0.0048566014
244	0xbd14a21c	-0.036287412
245	0xbbfaf050	-0.007658042
246	0xbb927760	-0.004469797
247	0xbd463023	-0.04838575
248	0x3d84dd6b	0.064875446
249	0x3c01e710	0.007928625
250	0xbd93d4ca	-0.07218321
251	0xbda5831c	-0.08081648
252	0xbd92b938	-0.07164234
253	0xbd26fad0	-0.040766537
254	0xbcdf4bae	-0.027257767
255	0x3c8eb664	0.017420955

lstm.bias_hh_l0 f4 [512]
0	0xbdb3c6f3	-0.08778181
1	0xbd94cba4	-0.07265404
2	0x3c9dc238	0.01925765
3	0xbc8965f0	-0.01677224
4	0x3cdcffd0	0.02697745
5	0xbd12bd58	-0.035825104
6	0x3d5ad4f6	0.05342575
7	0x3d631e16	0.055448614
8	0xbdaa29ac	-0.083087295
9	0xbb71c380	-0.0036890209
10	0xbce89a04	-0.028393753
11	0xbd9c03be	-0.07617901
12	0x3d609746	0.054831766
13	0xbda8b848	-0.08238274
14	0x3d2e20ca	0.04251174
15	0xbcdc16a4	-0.026866265
16	0xbd059080	-0.03260851
17	0x3d0f08b0	0.034920394
18	0xbd3dae6a	-0.046308912
19	0x3cbd8300	0.023133755
20	0x3d4cd94e	0.050011925
21	0xbccf0eac	-0.02527555
22	0x3db0c43f	0.08631181
23	0x3d410172	0.04712052
24	0x3d99f077	0.07516568
25	0x3d1d5666	0.038412474
26	0x3d1b04be	0.03784632
27	0xbcf0699a	-0.02934723
28	0xbd0ef5c5	-0.034902353
29	0x3d0914ac	0.03346698
30	0xbd8fe19c	-0.070254534
31	0x3d259626	0.040426396
32	0x3d20f2ae	0.039293937
33	0x3c846e48	0.016165867
34	0xbd1f535e	-0.038897865
35	0xbd32518e	-0.043534808
36	0xbd571e18	-0.052518934
37	0x3ce070f4	0.02739761
38	0xbd6ce43d	-0.057834852
39	0xbcd8e7ba	-0.026477683
40	0x3db48659	0.08814687
41	0xbda46e42	-0.080288425
42	0xbd2b90f1	-0.041886274
43	0xbd5b2f5a	-0.053511955
44	0xbd8dfa6c	-0.0693253
45	0xbd5550da	-0.05207906
46	0x3d1046a4	0.03522362
47	0xbb097f60	-0.0020980462
48	0x3cd14674	0.02554629
49	0xbc163ff8	-0.009170525
50	0xbb3ae200	-0.0028516054
51	0x3d8323d3	0.06403317
52	0xbd0f5154	-0.03498967
53	0xbd14cf06	-0.036330245
54	0x3c2c5e60	0.010520548
55	0x3b7f31a0	0.003893949
56	0xbd729bf9	-0.05923078
57	0xbd3eba52	-0.046564408
58	0xbc8b6f00	-0.017020702
59	0x3d4cc816	0.049995504
60	0xbcc3d0d4	-0.023903288
61	0x3cd961fc	0.02653598
62	0xbd883884	-0.066514045
63	0x3d8d7581	0.06907178
64	0x3cd9eb90	0.026601583
65	0x3d7ae8f2	0.06125731
66	0x3c33a928	0.010965623
67	0x3d122830	0.035682857
68	0xbd943276	-0.07236187
69	0xbd28888d	-0.04114585
70	0xbd82529e	-0.06363414
71	0x3c48b9e8	0.012251355
72	0xbc16d8b0	-0.009206936
73	0xbbd298c0	-0.0064269006
74	0xbd834be4	-0.06410959
75	0xbd3a01e0	-0.045411944
76	0xbd01e6fd	-0.03171443
77	0xbd812f70	-0.06307876
78	0xbb7058c0	-0.0036673993
79	0xbdaf55f0	-0.08561313
80	0xbd1c6ce7	-0.038189795
81	0xbc271f00	-0.010200262
82	0xbcd2f8e0	-0.025753438
83	0x3d3817c2	0.044944532
84	0xbd3df4c0	-0.04637599
85	0x3d940da7	0.072291665
86	0xbbe57220	-0.00700213
87	0xbd560ee8	-0.05226031
88	0x3ac3e780	0.0014946312
89	0xbd8b09e5	-0.067889966
90	0x3c96502c	0.018348776
91	0xbdaac96c	-0.083391994
92	0x3d7ea1f6	0.062166177
93	0xbd8176e5	-0.063215055
94	0xbd0dd211	-0.034624163
95	0x39693e00	0.00022243708
96	0x3db24a21	0.08705545
97	0x3dabbacb	0.08385237
98	0xbc8c1584	-0.017100103
99	0xbd13733d	-0.03599857
100	0xbd92878c	-0.0715476
101	0x3d4f1f9a	0.050567247
102	0x3cfcb074	0.030845858
103	0x3da2364b	0.07920512
104	0x3c80daa0	0.015729249
105	0xbd8936c8	-0.06699902
106	0x3d40ed7a	0.047101475
107	0x3d834d45	0.06411222
108	0x3ce7f4cc	0.02831497
109	0xbd841707	-0.064497046
110	0xbd9fb1b0	-0.07797563
111	0x3d7f9a3a	0.06240294
112	0xbd92e1a4	-0.07171944
113	0x3d678416	0.05652245
114	0xbdafc279	-0.085820146
115	0x3cf8c160	0.030365646
116	0xbd3812a8	-0.044939667
117	0xbbf59950	-0.007495083
118	0x3dab2323	0.08356311
119	0x3d2ec8a2	0.042671807
120	0xbd390e27	-0.045179512
121	0xbd4119bf	-0.047143694
122	0x3da8caab	0.08241781
123	0xbd0caa10	-0.03434187
124	0x3ab59080	0.0013852268
125	0x3d038f5a	0.032119133
126	0x3d37c7e6	0.044868372
127	0x3d55b6ae	0.05217617
128	0xbcea3544	-0.028589852
129	0x3d6a8de6	0.05726423
130	0x3d76ec7a	0.060284115
131	0xbd2e5001	-0.042556766
132	0x3cc01a60	0.023450077
133	0x3d1022b2	0.035189338
134	0x3c3b3ce8	0.011428095
135	0x3d44c05e	0.04803502
136	0xbc565f50	-0.013084248
137	0x3d43cdae	0.047803573
138	0x3ce6f21c	0.028191619
139	0x3d86e6c5	0.065869845
140	0x3d877e6f	0.06615912
141	0xbda12743	-0.07868817
142	0x3d976d4f	0.07393896
143	0x3d2c2422	0.042026646
144	0x3d8bddbb	0.06829401
145	0xbcee00a6	-0.029053044
146	0xbd69ac43	-0.057049047
147	0xbd11d3ef	-0.035602506
148	0x3d76abc2	0.060222395
149	0xbcb23324	-0.021752901
150	0x3cc947ac	0.024570309
151	0x3db21cab	0.08696874
152	0x3d1f66d2	0.038916416
153	0x3c65f248	0.014034815
154	0xbd9c76da	-0.07639857
155	0xbd362595	-0.044469435
156	0xbd9f7835	-0.077865995
157	0xbd863e1c	-0.06554815
158	0x3d8fe5bd	0.07026241
159	0x3d8b2863	0.067948125
160	0x3c845f68	0.016158774
161	0x3d918615	0.07105652
162	0x3dac0cb7	0.08400863
163	0xbda63ca8	-0.08117038
164	0x3c700528	0.014649667
165	0xbd4e8afb	-0.05042551
166	0xbd70108a	-0.058609523
167	0x3d8989c1	0.067157276
168	0x3d59e9e6	0.05320158
169	0xbd844562	-0.06458546
170	0x3cfad300	0.03061819
171	0xbd8f2117	-0.06988733
172	0xbd6df74e	-0.058097176
173	0x3cdd120c	0.026986144
174	0x3c957c00	0.018247604
175	0xbd9a940b	-0.07547768
176	0x3da9969d	0.0828068
177	0x3b98cc00	0.0046629906
178	0xbd7f25df	-0.062291976
179	0xbd847a5c	-0.06468651
180	0x3c0ce368	0.00859914
181	0x39894a00	0.0002618581
182	0xbccd45f8	-0.025057778
183	0xbc619238	-0.013767771
184	0xbd9f080b	-0.07765206
185	0x3cacb378	0.021081671
186	0x3da37847	0.079819255
187	0x3cf5d190	0.030007154
188	0x3d9fc45b	0.07801124
189	0x3d32a76e	0.043616705
190	0xbda03ffb	-0.07824703
191	0x3d85832d	0.065191604
192	0x3d1ab3ee	0.03776925
193	0x3d4e5772	0.050376363
194	0xbd3c5cfb	-0.04598711
195	0xbadbf140	-0.0016780272
196	0x3db3b8fb	0.087755166
197	0x3d86b589	0.06577594
198	0x3db1ad79	0.086756654
199	0xbdb379a8	-0.087634385
200	0xbd1368b5	-0.03598853
201	0xbd475a9a	-0.04867039
202	0xbdb41ba2	-0.08794333
203	0x3d38435a	0.044986106
204	0xbcdc9882	-0.02692819
205	0x3d5a9e4a	0.053373612
206	0x3d0b88b4	0.034065917
207	0x3c8f3948	0.017483369
208	0xbccde75c	-0.025134735
209	0xbc2eaf08	-0.010661848
210	0x3d3a503a	0.045486666
211	0x3db02d97	0.086024456
212	0xbd975453	-0.073891304
213	0x3da09c25	0.07842282
214	0x3d47da32	0.04879207
215	0x3db26e6b	0.08712467
216	0xbdac5694	-0.08414951
217	0xbd628b27	-0.055308487
218	0x3d37ffb6	0.0449216
219	0x3d2ebd1a	0.04266081
220	0x3d739a86	0.059473537
221	0x3cfe8684	0.031070001
222	0x3ca2c720	0.01987034
223	0xbb49fb00	-0.0030819774
224	0xbbb9c2d0	-0.0056689754
225	0xbd83a92f	-0.064287536
226	0xbd1bf1e6	-0.03807249
227	0xbd8a55f0	-0.067546725
228	0xbd892e2c	-0.0669826
229	0x3d5d40de	0.05401694
230	0x3b8bea40	0.004269868
231	0x3c688fd0	0.014194444
232	0x3d9339cb	0.071887575
233	0xbdb43ece	-0.088010415
234	0xbcbffd88	-0.023436323
235	0x3cff872c	0.031192385
236	0x3d84be0d	0.06481562
237	0xbd1591aa	-0.03651587
238	0xbd4a4dc2	-0.049390562
239	0xbc2fce30	-0.010730311
240	0x3c93b3c4	0.018030055
241	0x3c65f318	0.014035009
242	0x3c82a380	0.015947104
243	0xbd81904a	-0.06326349
244	0x3d958f9d	0.07302783
245	0x3cd0065c	0.025393657
246	0x3d93bcc5	0.07213739
247	0xbc04b508	-0.008099802
248	0x3d76cc26	0.060253285
249	0x3cdf3444	0.027246602
250	0x3d969863	0.07353284
251	0xbcb39710	-0.021922618
252	0xb9909900	-0.00027579814
253	0xbd9847dd	-0.07435582
254	0xbd650050	-0.0559085
255	0xbd401385	-0.046893615

lstm.weight_ih_l1 f4 [512, 128]
0	0xbd58f4b8	-0.052967757
1	0x3d4f700a	0.05064396
2	0xbdf8e2e4	-0.12152651
3	0xbd1858c0	-0.037194014
4	0x3c2783b8	0.010224275
5	0x3e1ad7c2	0.15121368
6	0xbd995f37	-0.07488864
7	0x3da51319	0.08060283
8	0x3ce0f470	0.027460307
9	0x3d06406d	0.032776285
10	0xbdcc36fa	-0.099714234
11	0xbd8d22fe	-0.0689144
12	0xbcf8dfc8	-0.030380145
13	0x3cd72d9c	0.026266865
14	0xbd44fdb7	-0.048093524
15	0x3cd261fc	0.025681488
16	0x3db1856d	0.08668027
17	0xbd48447a	-0.04889343
18	0xbd5f850c	-0.054570243
19	0xbb07c486	-0.0020716502
20	0xbe007d0e	-0.12547705
21	0xbd9f2c0b	-0.077720724
22	0x3db07165	0.08615378
23	0xbc7db8c8	-0.01548595
24	0xba71b780	-0.0009220764
25	0xbd83587b	-0.06413361
26	0x3d362e6a	0.044477858
27	0x3d0b5698	0.03401813
28	0xbc8a9004	-0.016914375
29	0xbda40e6d	-0.08010564
30	0x3ddfecd0	0.1093384
31	0xbd3099c7	-0.043115404
32	0x3cf13500	0.029444218
33	0xbd9b23ef	-0.07575213
34	0xbdedbf48	-0.1160875
35	0xbcd53c8e	-0.026029851
36	0xbe1d91c0	-0.1538763
37	0x3d2236d6	0.039603077
38	0xbd77df8a	-0.060515918
39	0x3d4d051e	0.05005371
40	0x3c5431a2	0.0129512865
41	0xbd3da55d	-0.04630028
42	0x3e04223c	0.12903684
43	0x3d5e851a	0.054326154
44	0xbd896a6f	-0.06709754
45	0x3c9db924	0.019253321
46	0xbd85fbdf	-0.06542181
47	0xbd30f4c3	-0.043202173
48	0x3d1add7a	0.037808873
49	0xbd839e83	-0.06426718
50	0x3d86d2b7	0.065831594
51	0xbe0f96f8	-0.14022434
52	0x3aa374c0	0.0012470707
53	0x3c294190	0.010330573
54	0xbc63ef20	-0.013911992
55	0x3d40b846	0.047050737
56	0x3b9e9a26	0.0048401533
57	0xbbea79c0	-0.007155627
58	0x3d96345d	0.07334206
59	0x3ddea3a6	0.10871057
60	0xbbc267c8	-0.005932782
61	0x3d3e277a	0.046424367
62	0xbda46348	-0.08026749
63	0x3d9579c3	0.07298615
64	0x3c73f628	0.014890231
65	0x3d0c90c8	0.03431776
66	0xbd61dc1f	-0.055141564
67	0xba609f80	-0.0008568689
68	0x3dc2a520	0.09504151
69	0xbdd797ac	-0.10526976
70	0x3d449d1e	0.0480014
71	0x3dfe3817	0.12413042
72	0xbccd51c8	-0.02506341
73	0x3c309499	0.010777616
74	0x3d9d5d53	0.07683816
75	0x3c14c260	0.009079546
76	0xbd29c7b0	-0.041450202
77	0x3c1d24d8	0.009591304
78	0xbc052cef	-0.008128389
79	0x3d363a46	0.044489168
80	0xbcec9b8a	-0.02888276
81	0x3d51aa41	0.051187757
82	0x3ca3b1dc	0.01998227
83	0x3db48b8d	0.0881568
84	0xbd07c44f	-0.0331462
85	0xbd8b5230	-0.068027854
86	0x3e1e606e	0.15466473
87	0x391d0147	0.00014973163
88	0x3cea263c	0.028582685
89	0x3d783452	0.06059677
90	0x3b770bea	0.003769631
91	0xbd2d9e53	-0.042387318
92	0x3da8bc47	0.08239036
93	0xbd76446a	-0.06012384
94	0x3d93fe89	0.07226283
95	0x3b975b20	0.0046190172
96	0xbd225b70	-0.039637983
97	0x3c554e98	0.0130192265
98	0x3cacff94	0.021117963
99	0x3d823cc9	0.0635925
100	0xbd50c89b	-0.050972562
101	0xbda516df	-0.08061003
102	0xbc8154a8	-0.015787438
103	0x3c4fc98c	0.01268233
104	0x3c0e8b20	0.008700162
105	0xbd8fee93	-0.07027926
106	0x3da2d57b	0.079508744
107	0xbd097668	-0.033560187
108	0xbad504c0	-0.0016252026
109	0xbd9234de	-0.0713899
110	0xbd3956fc	-0.04524897
111	0x3d5605a2	0.052251466
112	0x3d572ef6	0.05253502
113	0xbdaa357a	-0.08310981
114	0x3d9fa549	0.077951975
115	0x3ca89c00	0.0205822
116	0x3c86873c	0.016421907
117	0x3e0ebfde	0.13940379
118	0x3d838311	0.06421483
119	0xbd2282e7	-0.03967562
120	0x3dad62af	0.08466088
121	0xbcf8c8d8	-0.030369207
122	0xbd9aeaca	-0.07564314
123	0x3b36d120	0.0027895644
124	0x3d975e4b	0.07391032
125	0x3d405b82	0.04696227
126	0x3cf9ca18	0.030491874
127	0x3d1d477d	0.038398255
128	0xbd5cf7e1	-0.053947333
129	0xbb6037a0	-0.0034212843
130	0xbedc2dfc	-0.43003833
131	0xbd47201f	-0.048614617
132	0xbd45fa63	-0.04833449
133	0x3f0d4d6a	0.5519625
134	0x3d495ede	0.049162738
135	0x3f234900	0.63783264
136	0x3eeb7e62	0.4599486
137	0x3ee147a4	0.4399997
138	0xbef7a91e	-0.48371214
139	0xbcffa6b6	-0.031207424
140	0xbd952cb2	-0.072839156
141	0x3da2d85d	0.07951424
142	0x3d2b6e1a	0.041853048
143	0xbd9783dc	-0.07398197
144	0xba6a5080	-0.0008938387
145	0x3cd6ba8c	0.026212
146	0x3cb01194	0.021492757
147	0xbec2bbc2	-0.38033873
148	0xbf0476d2	-0.51743805
149	0x3da238f7	0.079210214
150	0xbd899fa1	-0.067199
151	0xbbcd38b0	-0.006262861
152	0xbd572b2a	-0.0525314
153	0xbd90334c	-0.07041034
154	0x3c046130	0.008079812
155	0x3c957044	0.018242009
156	0xbf06f568	-0.5271821
157	0x3cf1701c	0.029472403
158	0x3ee92f0c	0.45543706
159	0x3dad74b1	0.08469523
160	0xbd4f5eae	-0.050627403
161	0xbd97d187	-0.07413011
162	0xbf044858	-0.5167289
163	0x3d94c19f	0.07263493
164	0xbf1f6fc0	-0.6227989
165	0x3d93a1cf	0.07208597
166	0x3dab574d	0.08366261
167	0xbc9707f4	-0.01843641
168	0x3edd46dc	0.43218124
169	0x3b0a1440	0.00210692
170	0x3eb1cdae	0.34727234
171	0x3da930c5	0.08261255
172	0x3dab88f7	0.08375733
173	0x3d21522e	0.039385013
174	0x3d53db02	0.051722534
175	0xbd482b1f	-0.04886925
176	0xbbd01c70	-0.0063510463
177	0xbc9f4684	-0.019442804
178	0x3cee3b84	0.029081114
179	0xbedbbc78	-0.42917228
180	0x3d224262	0.03961409
181	0xbd4efb77	-0.050532784
182	0x3d9b6645	0.07587866
183	0xbd40bb4e	-0.047053628
184	0xbf05890a	-0.5216223
185	0x3db4f1c3	0.08835175
186	0x3cfaccdc	0.030615263
187	0x3f0127ee	0.5045155
188	0xbebbbeae	-0.36668915
189	0x3da3a2ad	0.07990012
190	0xbc806850	-0.01567474
191	0xbd710cda	-0.058850147
192	0xbd1887e5	-0.037238974
193	0x3d68ed72	0.05686707
194	0x3af703c0	0.0018845722
195	0x3d0c9208	0.034318954
196	0x3edd131e	0.43178648
197	0xbed7686c	-0.42071855
198	0x3ae84880	0.0017721802
199	0x3f098530	0.53718853
200	0x3d881457	0.066445045
201	0x3ee3cd62	0.44492632
202	0x3eb2895c	0.34870422
203	0x3bb2ec70	0.0054603145
204	0xbd9bb38e	-0.07602607
205	0x3d4ead26	0.050458096
206	0xbebb8b62	-0.36629778
207	0x3c5f49e8	0.0136284605
208	0xbab0e940	-0.0013497248
209	0x3ebcac1a	0.36850053
210	0xbd5ff9b2	-0.054681487
211	0xbd961785	-0.07328705
212	0xbc838478	-0.016054377
213	0x3d489daa	0.048978485
214	0x3f142596	0.5786985
215	0xbf1b63d0	-0.60699177
216	0x3cdfe4b4	0.027330734
217	0xbd89176d	-0.06693921
218	0x3ed48e9e	0.41515058
219	0xbef165c2	-0.47147948
220	0xbd5c0a83	-0.053720962
221	0xbd2f0b85	-0.042735595
222	0x3ce64f7c	0.028114073
223	0x3d3151c6	0.043290876
224	0xbd894304	-0.06702235
225	0xbd2bff9e	-0.041991822
226	0xbc430c38	-0.011904769
227	0xbcb154a8	-0.021646813
228	0xbf13c484	-0.57721734
229	0x3b968470	0.0045934245
230	0x3d05285e	0.0325092
231	0xbecdc2b2	-0.40187603
232	0x3c0383e0	0.008027047
233	0xbed8e2e8	-0.42360616
234	0xbc37e4e8	-0.011224009
235	0xbce5f8da	-0.028072763
236	0xbd5e8d0a	-0.054333724
237	0xbbd5ea10	-0.0065281466
238	0xbd911b70	-0.070853114
239	0x3d6a3cd6	0.057186924
240	0x3cfbbda0	0.030730069
241	0x3d8e1945	0.069384135
242	0xbd9e8ef9	-0.077421136
243	0x3daa3c8d	0.083123304
244	0x3d86102f	0.065460555
245	0x3eb017b2	0.34393078
246	0x3c78cd88	0.015185721
247	0xbda4d24b	-0.08047923
248	0x3ee0bdf4	0.43894923
249	0xbef0beb8	-0.47020507
250	0x3d965b4f	0.073416345
251	0x3d12eb76	0.035869084
252	0xbcd75112	-0.026283775
253	0x3d317502	0.043324478
254	0x38fac800	0.00011958182
255	0x3ec1ce6a	0.37852794

lstm.weight_hh_l1 f4 [512, 128]
0	0x3de8f8e0	0.11375594
1	0xbd050b5a	-0.03248153
2	0xbd2bedc0	-0.041974783
3	0xbc1c20b2	-0.00952928
4	0xbd8be8b7	-0.06831496
5	0x3daab186	0.08334641
6	0x3d957e8b	0.07299527
7	0xbd43a1e0	-0.047761798
8	0xbceddace	-0.029034998
9	0xbd47448e	-0.048649363
10	0x3ce0c722	0.027438704
11	0xbd468ab0	-0.048472106
12	0x3ddd7b0a	0.108144835
13	0xbd2ff388	-0.04295686
14	0xbcbe766c	-0.023249827
15	0xbced2aeb	-0.028951129
16	0x3da0d61f	0.0785334
17	0x3d55703a	0.05210898
18	0x3cfad741	0.03062022
19	0xbcb7a468	-0.022417262
20	0x3d718d42	0.058972605
21	0x3da089d2	0.07838787
22	0xbcfedc4d	-0.031110907
23	0x3dddc02f	0.10827672
24	0xbdcef184	-0.10104659
25	0xbc8616b0	-0.01636824
26	0x3da0fcc7	0.078607135
27	0x3d9e1c67	0.07720261
28	0xbdcb0ed0	-0.09914935
29	0xbc1eb49f	-0.009686618
30	0x3cb20134	0.02172909
31	0x3d43fd31	0.047848884
32	0x3d728533	0.05920906
33	0x3de08d52	0.10964455
34	0x3d8a2ea0	0.06747174
35	0xbc27ffcc	-0.010253858
36	0xbba31aec	-0.0049775746
37	0xbd1bc318	-0.038027853
38	0x3d022732	0.03177566
39	0x3d528ae8	0.051402003
40	0xbd85e8a0	-0.0653851
41	0x3d985cf6	0.07439606
42	0x3cfae12c	0.030624948
43	0xbbc3609a	-0.0059624435
44	0x3daff5ee	0.08591829
45	0x3d83c0d4	0.064332634
46	0x3d0cd33c	0.034381136
47	0x3dc26f3d	0.09493873
48	0xbda26301	-0.0792904
49	0xbd360424	-0.044437543
50	0xbded40bc	-0.11584613
51	0x3de3d8bc	0.11125323
52	0xbd3b70f3	-0.045762014
53	0x3dc68a2e	0.096943244
54	0xbcf23046	-0.029564034
55	0x3d2fab1d	0.042887796
56	0x3c1ce673	0.009576428
57	0x3d81dd54	0.06341043
58	0x3cfe2a72	0.031026099
59	0x3d4236c0	0.047415495
60	0x3d41f246	0.04735019
61	0xbd10ad8f	-0.03532177
62	0xbb0652d4	-0.0020496147
63	0xbd9eee2e	-0.07760273
64	0xbd4338a0	-0.047661424
65	0x3d21f8c0	0.039543867
66	0x3c6282fc	0.013825174
67	0x3cfd8e00	0.0309515
68	0xbda4645b	-0.08026954
69	0xbcf8647e	-0.030321356
70	0x3cf63448	0.030054227
71	0xbc2150bd	-0.00984591
72	0x3d4a32bf	0.0493648
73	0x3db619a8	0.08891612
74	0xbd4635f1	-0.048391286
75	0xbb10ed1a	-0.002211398
76	0xbdb8a4b0	-0.09015787
77	0xbd81ef85	-0.06344513
78	0xbc991d5c	-0.018690757
79	0xbd8c6362	-0.06854893
80	0xbc979a39	-0.018506156
81	0xbcbd8f42	-0.0231396
82	0x3c9122ca	0.017716784
83	0xbd6e3361	-0.058154467
84	0xbbb2d100	-0.0054570436
85	0x3b8cbd73	0.004295045
86	0x3d696f7f	0.056991097
87	0xbd25f297	-0.040514555
88	0xbc97efb9	-0.018546926
89	0x3c0ce3b2	0.008599209
90	0x3d82f369	0.06394083
91	0xbd1d2a4f	-0.038370427
92	0x3cf3c3ea	0.029756505
93	0xbdb5fe4d	-0.08886395
94	0xbd83acc8	-0.0642944
95	0xbde00748	-0.10938889
96	0xbccad9cf	-0.024762062
97	0xbdaba63b	-0.08381315
98	0xbd713aec	-0.058894083
99	0x3c847ad0	0.016171843
100	0xbc0d9bb7	-0.008643082
101	0xbda47566	-0.080302045
102	0x3c0da77e	0.00864589
103	0x3dcab5b9	0.09897942
104	0x3dba93ac	0.091101974
105	0xbd82ff41	-0.06396342
106	0x3de65cc4	0.112481624
107	0xbd20da2e	-0.039270572
108	0x3893b936	7.0440045e-05
109	0x3d9bb680	0.076031685
110	0x3d18c0be	0.03729319
111	0xbda7a2ee	-0.08185373
112	0x3d3df75b	0.046378475
113	0xbdc7fea6	-0.09765367
114	0xbd8657d0	-0.06559718
115	0xbccb83c5	-0.024843106
116	0xbc8748cc	-0.016514204
117	0xbcb9472a	-0.022616941
118	0xbd8f51d0	-0.06998026
119	0xbc759bca	-0.014990756
120	0xbd9071d8	-0.07052964
121	0xbd18f8a0	-0.037346482
122	0xbca733ab	-0.02041038
123	0xbd736872	-0.05942578
124	0x3d50a89f	0.05094206
125	0x3d99dc23	0.07512691
126	0x3d97a967	0.07405358
127	0x3dfc1f49	0.12310655
128	0x3ed7304e	0.4202904
129	0x3e8a321c	0.26991355
130	0xbe911a2e	-0.28340286
131	0xbdb49cc6	-0.08818965
132	0xbe8201ae	-0.25391906
133	0xbe15bfd4	-0.14623958
134	0xbd90a5a8	-0.070628464
135	0xbdfee2e1	-0.124456175
136	0x3ab1dbe6	0.0013569563
137	0xbdaa3bcd	-0.08312187
138	0x3df431a7	0.11923533
139	0xbe26e40a	-0.16297927
140	0xbd80bee9	-0.06286413
141	0xbdb354ae	-0.08756386
142	0xbdbacc93	-0.09121051
143	0x3d80c3dc	0.06287357
144	0x3e16788e	0.14694425
145	0xbc82d679	-0.01597141
146	0x3e76ebea	0.24113432
147	0x3cfdf01c	0.030998282
148	0x3efa676e	0.48907036
149	0xbe1fbb1a	-0.15598717
150	0x3e9bcd3a	0.30430013
151	0x3e86dcc8	0.26340318
152	0xbdf98cd7	-0.12185066
153	0xbe65fdc6	-0.22460088
154	0x3def2152	0.11676277
155	0x3df2bac0	0.11852026
156	0x3cfa3016	0.030540507
157	0xbdf56c49	-0.119835444
158	0x3e788b0e	0.24271795
159	0xbe93af7a	-0.28844815
160	0x3e74444c	0.23854178
161	0x3ea925da	0.3303669
162	0x3ee337c6	0.4437849
163	0x3e672326	0.22572002
164	0x3ea985ec	0.33109987
165	0xbe0fc094	-0.14038306
166	0x3e6bae86	0.23015794
167	0xbdc0add6	-0.094081566
168	0xbde0ab68	-0.10970193
169	0x3ef7d1fa	0.48402387
170	0xbd9e07fc	-0.07716367
171	0x3e2094d8	0.1568178
172	0x3e15a780	0.14614677
173	0xbd07bad0	-0.033137143
174	0xbdc99e1e	-0.098446116
175	0x3ebe1daa	0.37132007
176	0xbdfe039f	-0.124030344
177	0x3e2e01ac	0.16992825
178	0xbec46716	-0.38359898
179	0x3e398062	0.1811538
180	0xbea22f42	-0.3167668
181	0x3f0cde86	0.55027044
182	0x3d6c8c9f	0.057751294
183	0x3e8a6588	0.27030587
184	0xbdf024b4	-0.117257506
185	0x3e0f1140	0.13971424
186	0xbdb53c8f	-0.08849441
187	0x3e8b9ed8	0.27269626
188	0x3e829c9e	0.25510114
189	0x3e86bcaa	0.26315814
190	0xbd8319c6	-0.064014
191	0xbe36fe04	-0.17870337
192	0xbd0629dd	-0.032754768
193	0x3eaca286	0.33717746
194	0xbd6ce687	-0.057837036
195	0xbe10e968	-0.14151537
196	0xbe96a942	-0.29426008
197	0xbd0aebea	-0.03391639
198	0xbcdf3478	-0.027246699
199	0x3e2312f0	0.15925193
200	0x3ed26030	0.4108901
201	0x3eb1bfa4	0.34716523
202	0xbe01b10a	-0.12665191
203	0x3ef68368	0.4814713
204	0xbe5d7c68	-0.21629488
205	0xbe3c86ac	-0.18410748
206	0xbd9206c5	-0.071301974
207	0xbdffa18b	-0.12481984
208	0x3ab296b9	0.0013625241
209	0x3e7e4862	0.248323
210	0xbe815a32	-0.25264126
211	0x3dd64f5e	0.10464357
212	0xbea04d66	-0.3130905
213	0xbd4547d5	-0.048164207
214	0xbe60485c	-0.21902603
215	0xbe8a67aa	-0.27032214
216	0x3ebbcfac	0.3668188
217	0x3e39fb10	0.18162179
218	0x3dd8ab26	0.10579519
219	0xbf0eeb24	-0.55827546
220	0xbe56f3fa	-0.20991507
221	0x3dc6b552	0.09702553
222	0xbd9e0132	-0.07715072
223	0x3cd0688a	0.025440473
224	0xbea99f62	-0.33129412
225	0x3dc5cf0a	0.0965863
226	0xbec6c420	-0.38821507
227	0x3d163f46	0.036681436
228	0x3e069bc2	0.13145354
229	0xbeb03622	-0.344163
230	0x3ef5cbc2	0.48007017
231	0x3e239a60	0.15976858
232	0x3e4473d8	0.19184816
233	0x3db62b21	0.08894945
234	0x3e7bc57a	0.2458705
235	0xbe0d1ff4	-0.1378172
236	0xbdc0deae	-0.09417473
237	0x3e6421e8	0.22278559
238	0x3e6860b0	0.22693133
239	0xbedd8b6c	-0.43270433
240	0xbe0d59a2	-0.13803723
241	0xbb0f6f3b	-0.0021886367
242	0xbe8c665c	-0.27421844
243	0x3de33f10	0.110960126
244	0x3ef27ffc	0.4736327
245	0xbe665442	-0.2249308
246	0x3d925806	0.071456954
247	0xbec816a0	-0.39079762
248	0x3d571ead	0.05251949
249	0xb908651e	-0.0001300764
250	0xbea9d566	-0.33170623
251	0xbe5b12ea	-0.21393934
252	0x3e6c666c	0.23085946
253	0x3eab075e	0.33404058
254	0x3e5b95f8	0.21443927
255	0x3e8012d2	0.2501436

lstm.bias_ih_l1 f4 [512]
0	0x3d2fe087	0.042938735
1	0x3ee3bd84	0.44480526
2	0xbe964ccc	-0.29355466
3	0xbee9b420	-0.45645237
4	0x3e931779	0.28728846
5	0xbf98eb1a	-1.1946747
6	0xbdece052	-0.11566223
7	0xbe2728f8	-0.16324222
8	0xbed88ca2	-0.42294794
9	0x3e04a2ab	0.12952678
10	0xbe6d931e	-0.23200652
11	0xbebea3f4	-0.3723446
12	0xbe382c1d	-0.17985578
13	0xbf06a5e0	-0.52596855
14	0xbe4f9532	-0.20271757
15	0xbe1468ae	-0.14493057
16	0xbdfbea2d	-0.12300525
17	0x3c65977b	0.014013167
18	0x3e0b1ea8	0.13585913
19	0xbe927980	-0.28608322
20	0x3eaf16c2	0.3419705
21	0xbf557eca	-0.8339659
22	0x3f8594b8	1.043601
23	0x3ede447a	0.43411618
24	0x3f15c9d2	0.5851108
25	0x3db6eef2	0.08932294
26	0xbf5d92c8	-0.86552095
27	0xbedfaa82	-0.43684775
28	0xbeb9d35b	-0.36294064
29	0xbd98beda	-0.07458277
30	0x3e6a37c6	0.22872838
31	0x3e23ae2e	0.15984413
32	0x3f95dffe	1.1708982
33	0x3e141fbc	0.1446523
34	0x3f363c74	0.71185994
35	0x3ee2b01c	0.44274986
36	0x3e2a32e2	0.16620973
37	0xbea1e318	-0.3161857
38	0x3f187072	0.5954658
39	0xbfaa5b68	-1.3309145
40	0xbf534ff6	-0.82543886
41	0x3d8e82e8	0.06958562
42	0xbf2a0860	-0.6641903
43	0xbe4b2af4	-0.19840604
44	0xbf312b1c	-0.69206405
45	0xbe185b22	-0.14878514
46	0xbc6ff882	-0.014646651
47	0x3e342da7	0.1759554
48	0x3f05f566	0.52327573
49	0xbf1514d8	-0.5823493
50	0x3f008902	0.5020906
51	0x3e86d1b2	0.2633186
52	0x3ce6645d	0.028124029
53	0x3de2498e	0.11049186
54	0x3f70a624	0.9400351
55	0x3d95774d	0.072981454
56	0xbee4be86	-0.44676608
57	0xbef9d696	-0.4879653
58	0xbea174ea	-0.3153451
59	0x3e757204	0.23969275
60	0x3f166022	0.5874044
61	0x3f3fc34a	0.7490736
62	0xbf190136	-0.5976747
63	0x3f0ff6f2	0.56236184
64	0xbdf6ea46	-0.12056403
65	0x3e3a8b7a	0.18217269
66	0xbed16b52	-0.4090219
67	0xbe8f367a	-0.2797125
68	0x3e624e1c	0.22100109
69	0xbdf38da8	-0.11892253
70	0xbe90ebd4	-0.28304923
71	0x3da01416	0.07816331
72	0x3e2b75e2	0.16744187
73	0x3ded6a72	0.115925685
74	0xbe1e314c	-0.15448493
75	0x3d4c4701	0.049872402
76	0xbeceac3b	-0.40365776
77	0x3da936f9	0.08262438
78	0xbe2c2cb2	-0.16813925
79	0x3ee113ea	0.43960506
80	0xbf9a2a12	-1.2044089
81	0x3f92115a	1.1411545
82	0xbeb958bc	-0.3620051
83	0xbfc83ae8	-1.5642977
84	0x3e0f60cc	0.14001769
85	0xbf77f81e	-0.9686297
86	0x3e224bd8	0.15849245
87	0x3e35da97	0.17759167
88	0x3e359056	0.17730841
89	0xbf53e378	-0.82768965
90	0xbe82bf30	-0.2553649
91	0x3e47c5ef	0.195091
92	0xbefb0e9c	-0.49034584
93	0xbf1eca28	-0.62027216
94	0xbd593886	-0.05303242
95	0xbe5e2e06	-0.21697244
96	0x3c7dfd75	0.015502323
97	0xbe283865	-0.16427763
98	0x3f4caf48	0.7995496
99	0xbf28ffa2	-0.66015065
100	0xbf5df0a6	-0.86695325
101	0x3d0a4db7	0.03376552
102	0x3d9120d1	0.07086337
103	0x3cf3eedc	0.029776983
104	0xbf3ba4cc	-0.73298335
105	0xbe863dbc	-0.26218975
106	0x3e7ed0ac	0.2488429
107	0xbef23a22	-0.47309977
108	0xbe85afc2	-0.26110655
109	0xbfe2fc16	-1.773318
110	0x3eed6a6c	0.46370256
111	0x3e51010b	0.20410554
112	0xbe9365e8	-0.28788686
113	0xbf2c0432	-0.671939
114	0x3f0b2130	0.54347515
115	0xbecbe700	-0.39824677
116	0x3ed523b9	0.41628817
117	0x3d507e3d	0.05090164
118	0xbf035247	-0.5129742
119	0x3de3253d	0.11091087
120	0xbf359fc8	-0.7094693
121	0xbe989bf4	-0.29806483
122	0x3e1a577c	0.15072435
123	0x3e990366	0.29885405
124	0x3f44f7f6	0.7694086
125	0x400dd5b4	2.2161684
126	0x3e7e46b0	0.24831653
127	0x3efb918c	0.4913448
128	0x3d8c0bcb	0.06838187
129	0x3f0a05ca	0.53915083
130	0xbe6dc180	-0.23218346
131	0xbe22ec06	-0.15910348
132	0x3eb112ea	0.34584743
133	0xbec7e552	-0.39042145
134	0xbda07a91	-0.07835878
135	0xbe4826cc	-0.1954605
136	0xbe86d321	-0.26332954
137	0x3a8b27da	0.0010616735
138	0xbe26edc8	-0.16301644
139	0xbdda0f34	-0.10647431
140	0xbdde0462	-0.1084068
141	0xbe90cae4	-0.28279793
142	0xbe1aa184	-0.15100676
143	0xbe10153e	-0.14070603
144	0xbd520bce	-0.05128079
145	0x3cb34786	0.021884691
146	0x3e9936a8	0.29924512
147	0xbe71cfb4	-0.23614389
148	0x3ef2f617	0.47453377
149	0xbeba0660	-0.3633299
150	0x3fc09934	1.5046754
151	0x3f11c2fa	0.56938136
152	0x3f05a930	0.52211285
153	0x3e4161d9	0.18884982
154	0xbf019222	-0.50613606
155	0xbe8bad58	-0.27280688
156	0xbe12568c	-0.14290828
157	0xbdd85795	-0.1056358
158	0x3dd3a480	0.1033411
159	0x3e0c549a	0.13704148
160	0x3fdc2550	1.7198887
161	0x3eaf8486	0.34280795
162	0x3fae38ac	1.3611045
163	0x3f347e1e	0.7050494
164	0x3eab05d0	0.33402872
165	0xbe2e5fee	-0.17028782
166	0x3eb85b82	0.36007315
167	0xbeda4450	-0.42630243
168	0xbe830a0b	-0.255936
169	0x3e3b67a6	0.18301257
170	0xbe88dece	-0.26732486
171	0xbe06dd2a	-0.13170305
172	0xbf342318	-0.7036605
173	0xbe4e93c0	-0.2017355
174	0xbba20026	-0.0049438654
175	0x3eb52837	0.35382244
176	0x3f3fff1c	0.7499864
177	0xbe7e2dc8	-0.24822152
178	0x3f43ecea	0.7653338
179	0x3e0b6e64	0.1361633
180	0x3e5fdf5a	0.21862546
181	0x3e3f687d	0.18692203
182	0x3f3653f8	0.71221876
183	0xbd0489a5	-0.03235783
184	0xbe64d1aa	-0.22345605
185	0xbea76b52	-0.32699066
186	0xbe85b7a0	-0.26116657
187	0x3eb1268a	0.34599715
188	0x3f417dbe	0.7558249
189	0x3f666bfc	0.9000852
190	0xbeae85be	-0.34086412
191	0x3f266e4e	0.6501206
192	0xbe05593d	-0.13022323
193	0x3df1c19c	0.11804506
194	0xbe83ef7e	-0.25768656
195	0xbe8cde44	-0.27513325
196	0x3e19560c	0.1497423
197	0xbe4de7f7	-0.20108019
198	0xbe45d25c	-0.19318527
199	0xb9775d9c	-0.00023590628
200	0x3e256863	0.16153102
201	0x3c9c4c2b	0.019079288
202	0xbddb80d8	-0.10717934
203	0x3dfabf53	0.122435234
204	0xbeebc0b7	-0.46045467
205	0x3d93ebdd	0.07222722
206	0xbe849c04	-0.2590028
207	0x3ee26850	0.4422021
208	0xbe9ffd66	-0.31248015
209	0x3fc8cd08	1.568757
210	0xbe974144	-0.2954198
211	0xbf4d4208	-0.8017888
212	0x3dbf683c	0.09346053
213	0xbf195ad0	-0.59904194
214	0x3e3976a6	0.18111667
215	0x3d906c84	0.07051948
216	0x3ea522d5	0.32253137
217	0xbf4a7ab2	-0.7909347
218	0xbcfc5684	-0.030802973
219	0x3e3f46e7	0.18679391
220	0xbeab71c6	-0.3348524
221	0xbf0deb7a	-0.55437434
222	0xbe1909b4	-0.14945108
223	0xbdefb959	-0.11705274
224	0x3e3715ca	0.17879406
225	0xbe39377a	-0.18087569
226	0x3f9bd6e0	1.217495
227	0xbe7c8237	-0.24659048
228	0xbef199e0	-0.4718771
229	0x3e315eba	0.17321292
230	0x3cfc084c	0.030765675
231	0x3e099b2c	0.134381
232	0xbf1ba548	-0.60799074
233	0xbe99f6d4	-0.30071127
234	0x3f04603c	0.5170934
235	0xbe86b6c4	-0.26311314
236	0xbe8902d8	-0.26759982
237	0xbfe37b72	-1.7772048
238	0x3f334a5c	0.7003534
239	0x3debcc9e	0.11513637
240	0xbe596cfe	-0.21232983
241	0xbe48e990	-0.19620347
242	0x3f2c7e12	0.6737987
243	0xbe9203bd	-0.28518477
244	0x3f5f001a	0.8710953
245	0x3c726713	0.014795083
246	0xbdc9b7b7	-0.09849494
247	0x3ea15d03	0.31516275
248	0xbed82672	-0.4221683
249	0xbe5d12f2	-0.21589258
250	0x3e9ae332	0.3025146
251	0x3e44c270	0.19214797
252	0x3f9986e2	1.1994288
253	0x403001fe	2.7501216
254	0x3e57bab4	0.21067315
255	0x3ef1b73a	0.47210103
