seqlstm/model_epoch_300.pt (torch, 811240 bytes, 10 tensors)

lstm.weight_ih_l0 f4 [512, 5]
00000000: 42aa b43d 8e50 a63c e880 04bd f2cd f83c
00000010: 4030 8c3b 00a6 753d c8a4 0ebd d11c 3ebc
00000020: 5415 623d e0d0 5fbb 68d0 5f3d 6e0e 40bd
00000030: b0d8 483d 70e7 41bd 908f ce3b bca0 f1bb
00000040: ea7b 313d 38e5 b8bc 1af2 553d b07e 1abc
00000050: 02b2 1f3d 824c 433d ff77 903d 2358 a23d
00000060: 7b1b 6bbd 8a70 ab3d a739 31bd d899 9c3d
00000070: db12 2bbd 2636 0bbd c27f c63d 5491 75bd
00000080: 0046 f2bc 8279 e83c b8b3 5c3c 0997 12bd
00000090: be32 a43d b83e 883d 283b 8dbd bc60 adbc
000000a0: 8479 95bd 3278 143c 66f2 76bc ac5e a6bd
000000b0: 008f b3bb aa7c 543d b6a9 613d b4ef 873c
000000c0: a81e 9abd 070a b43d cd98 5fbd 58f3 79bc
000000d0: ace3 9ebd 67ed 52bd 0666 24bd 4862 61bd
000000e0: dda4 833d ce36 533d e606 6e3d edfd 44bd
000000f0: 23b5 853d 5b89 fb3a 8c29 be3c 9602 113d
00000100: addc 04bd 68cb 62bd 69b8 9b3b 160a 583d
00000110: 9c85 a73d 0f90 9abd 72b6 95bc 6aa0 b63c
00000120: 6ed1 95bd 6cbe 023d 83f8 863d 3e3a 0ebd
00000130: 3ed4 ef3c 6777 90bd 9aae 203d 803e 493a
00000140: f00e d63c b8a3 49bb 40c0 30bd a2a4 7b3d
00000150: 701c f73c db12 1dbd 39bd ac3c 3988 303d
00000160: 53f3 e43c fc67 3ebd 7685 593d 6a94 753d
00000170: 16a8 033c d83e 40bd 2669 793d de13 97bd
00000180: 0c1f 933d 3c45 70bd a2be df3b f045 8f3c
00000190: 80b8 6cbd 3029 f2bc bca7 0ebc 1808 36bd
000001a0: 4805 f03c 643a 87bd 581a 253d 3bfe 2cbc
000001b0: 4017 b13d 8e0f 0fbd 00d8 70ba 186d 403c
000001c0: 507c a43b 15bd 983d fefa 353d 08a3 4abd
000001d0: c94c 85bd b23b d9bc 3f63 9cbd 502b 90bc
000001e0: 6a2d b0bc aa5f 6a3b bbb6 d93b c6c7 3c3c
000001f0: fac4 b4bd ea94 a7bd 30ca aabb b53f a7bd
00000200: f0f8 e2bb 903a c0bb e803 a63c dc88 d8bc
00000210: 4d56 74bd 297f 4dbd 9cd8 dcbc b485 913d
00000220: 1263 1fbd 19f4 383c 3e9d e13c 5b0b aabd
00000230: 8a14 55bd bcdb a93c aa26 a9bd e4de 53bd
00000240: d0a2 fdbb aac9 c5bb ec68 34bd 665f 80bd
00000250: 0a3a a73d b5d6 8cbd a554 f6bc 40c4 4dbc
00000260: 6245 b0bd ea4c 853b c81d 5c3c b3d8 95bd
00000270: 8570 a83d 21dd a63d e3b7 1c3c 2d14 82bd
00000280: eb25 b2bd 63b0 87bd 6fef 833d fad0 dabc
00000290: 376a 903d 9478 3abd baaa 123c ba92 993a
000002a0: 1af2 04bd 1e24 763d e6dd 29bd 6651 a6bc
000002b0: ce80 51ba 20b2 803d ba2e 3c3d 9a62 abbc
000002c0: 1584 aa3d a2a4 a13c ee94 b33c 5dac ac3d
000002d0: 68db 86bc 6662 18bc d680 a03c c05e 893d
000002e0: 88a0 5ebc 2a8e 2b3d 4098 15bb b4a9 59bd
000002f0: 937c ac3d 8c24 013d ae3e 7f3c 2cda 533d
00000300: 42ad 203c f336 ebbc 18ee 46bd 8c5b 81bd
00000310: 6a11 7cbd 29d2 a73d 001e 0439 99bf 813d
00000320: b231 11bd 64ce 6bbd a7be 1bbc 35cd 833d
00000330: 38d2 8dbc 2b61 19bb 6e36 c7bc b66e 7b3d
00000340: 02ed 423d 809e 0c3d 0f2a c6bb d735 753d
00000350: b147 6fbd 3e45 403c 0eea 88bd 2ab6 853d
00000360: 8f3a d4bc 9dee 913c 6556 92bc 4cb7 b43c
00000370: 0f56 733d f551 4fbd 154e 463d b72e 04bd
00000380: eb91 a53d 95b4 afbd bbfd a4bd c2aa 783c
00000390: 9c45 253d 231d 63bd 7e48 3f3d 52a6 4e3d
000003a0: 96e0 6e3d 76ba 2d3d e80f 2fbd ee2e 96bd
000003b0: 4441 d9bc b541 adbd 8511 59bd abeb a63d
000003c0: d450 4b3d 8871 9e3d d459 15bd 4c3d 71bd
000003d0: b0ed e63b 0e79 553d eae5 7a3d 77d3 b03d
000003e0: 4bbf ab3d 9148 a2bd 50d2 e3bb 1e7c 1d3d
000003f0: bba2 843d 000d aa3c 90df 1c3c 493a b63d
0.088215366 0.020302083 -0.032349497 0.03037164 0.004278213 0.059972763 -0.034825116 -0.01160355
0.05519612 -0.0034151599 0.05464211 -0.04688876 0.049034774 -0.047339857 0.006303735 -0.0073738974
0.043331064 -0.022570238 0.05223284 -0.009429619 0.03898812 0.047680385 0.070541374 0.07926967
-0.057399254 0.083710745 -0.043267872 0.07646531 -0.04176603 -0.033987187 0.096923366 -0.05995305
-0.029574394 0.028378252 0.013470583 -0.03578857 0.08017491 0.06652588 -0.06896049 -0.02116429
-0.07298568 0.00906186 -0.015072441 -0.08123526 -0.0054796934 0.0518767 0.05509349 0.016593792
-0.075253785 0.08790975 -0.05458908 -0.015255772 -0.07758269 -0.051495936 -0.04013636 -0.05502537
0.064279296 0.051565938 0.058112048 -0.048093725 0.0652869 0.0019190715 0.02321317 0.035402857
-0.032437015 -0.055369765 0.004752208 0.052743994 0.08179781 -0.07547008 -0.018275473 0.022293288
-0.07315336 0.03191988 0.065903686 -0.034723513 0.02927601 -0.07054024 0.039229013 0.0007676855
0.02613017 -0.003076775 -0.043152094 0.061436303 0.030164927 -0.03834806 0.021086322 0.043098662
0.027948057 -0.046485886 0.053105794 0.05995599 0.00803568 -0.046934932 0.060891293 -0.07376836
0.07183656 -0.058659777 0.006828145 0.017489403 -0.05779314 -0.029560655 -0.008706983 -0.044441313
0.029299393 -0.06602934 0.040308326 -0.01055866 0.08647013 -0.034926943 -0.000918746 0.01174476
0.005019702 0.074579395 0.044428818 -0.049471885 -0.06508786 -0.026517723 -0.07636117 -0.017598778
-0.02150603 0.0035762587 0.0066440976 0.011522239 -0.08826633 -0.081827 -0.005212091 -0.08166448
-0.0069266483 -0.005866356 0.020265535 -0.026432447 -0.059652615 -0.050170098 -0.026958756 0.0710558
-0.03891284 0.011288666 0.0275408 -0.08302947 -0.05202154 0.02073466 -0.08259328 -0.051726237
-0.007740356 -0.006036003 -0.044045374 -0.06268196 0.08165367 -0.068768896 -0.030069659 -0.012558997
-0.08606984 0.0040680068 0.013434835 -0.07316723 0.082245864 0.08147646 0.009565326 -0.063515045
-0.086986385 -0.0662544 0.06442153 -0.026710976 0.07051509 -0.04552515 0.008951837 0.0011716702
-0.03245745 0.060093038 -0.041471384 -0.020302486 -0.00079919107 0.06283975 0.045943 -0.02092104
0.08325974 0.019731823 0.021921601 0.08431313 -0.016462043 -0.009300804 0.019592684 0.06707525
-0.013588078 0.041883625 -0.0022826344 -0.053140357 0.08422198 0.031528994 0.015578909 0.051721737
0.009806933 -0.028712725 -0.048566908 -0.06316289 -0.061540045 0.08194382 0.00012599677 0.063353725
-0.035447784 -0.057569876 -0.009505904 0.064356245 -0.017312154 -0.0023403864 -0.024317946 0.06138488
0.04758931 0.034330845 -0.0060474942 0.0598658 -0.05841798 0.011735259 -0.066852674 0.06528886
-0.02590683 0.017813975 -0.017863462 0.022060059 0.059408244 -0.05061527 0.04841431 -0.032271113
0.08084472 -0.08579365 -0.08056208 0.015177431 0.040349588 -0.05544771 0.046699993 0.050451584
0.05831965 0.04241415 -0.04273978 -0.0733317 -0.026520379 -0.08459798 -0.052995224 0.08150419
0.04963763 0.07736498 -0.03646262 -0.058896348 0.0070473775 0.0521174 0.06125442 0.08634084
0.083860956 -0.07923997 -0.0069525614 0.038448445 0.06476351 0.020758152 0.009574786 0.08897836

lstm.weight_hh_l0 f4 [512, 128]
00000000: 1057 ab3d 70a3 ccbc da84 8f3c 004e cbbb
00000010: eb1a 833d ddf7 993d d835 853c 20ce 2a3b
00000020: e4bc 8fbd 48ad ce3c 9c84 b43c b072 8d3b
00000030: 9488 0b3d eeae 583d 1a72 cd3c 36da 003d
00000040: 7992 aebd c2c4 d9bc c579 073d 40e7 3e3c
00000050: aa73 acbc 6a28 8dbd f0e5 0a3d f307 a1bd
00000060: d06f bd3c dcf0 a3bc 2acc 433d c110 04bd
00000070: b34a 8bbd 94ae a4bd aa2b 593c 2017 85bc
00000080: 80d7 ddbc 6b0c 51bd 50d7 233c 5486 26bd
00000090: 4819 17bd 6003 1c3b e0ef f2bc 3402 f13c
000000a0: 3a79 273d 85e6 a9bd e444 c43c 9c15 84bd
000000b0: f6d8 fcbc 7c74 cc3c 3802 72bc 00c6 6e39
000000c0: 61c8 583d c0fe 843a b2f1 8b3d 2a0e 113d
000000d0: 13cc a23d acfe 47bd aa51 973d 76c1 ae3c
000000e0: 0bd1 8abd 1f5b b03d 80ab bfba 536d 11bd
000000f0: 601b 44bd c6f6 613d 43c6 42bd 4c3d cebc
00000100: 00d1 c03a 30af 9f3b a6a1 633d a4a9 b6bc
00000110: 76f5 7dbd 00dd 1c3b 8e42 6d3d 5c83 993c
00000120: 5418 4abd 4db7 a73d 6a5a ad3c b19e 523d
00000130: c262 21bd e026 443c f327 66bd 5ac2 5a3d
00000140: a77d b23d 580e 28bd 02c6 2e3d 0f1e a5bd
00000150: d07d 4ebc b36e 6bbd b2ef ea3c d5cf b23d
00000160: f344 8cbd 868c 1e3d 7422 9cbd 225c 92bd
00000170: b4bb 7abd 085e a73c 05dd 863d 26da 143d
00000180: cc96 843c 480d 973c 5bac a23d 2404 6bbd
00000190: c878 7ebc 3e8e f23c 0723 3dbd fe6e 89bd
000001a0: 9de2 85bd 768c 6dbd e6a6 b2bd ff27 9e3d
000001b0: 3dce b23d 8dd5 45bd 135c 963d 9247 05bd
000001c0: 0071 debb e2b2 2dbd 40e2 9b3a 5f07 3dbd
000001d0: f0ce fcbb 51e4 acbd 289e b3bc e1e2 a8bd
000001e0: 877e 9a3d 1fad a83d b653 27bd 7f5a b23d
000001f0: 20e4 99bb af31 35bd fe53 adbd 9074 cebc
00000200: c695 373b 1ff3 0dbd 64c1 083d 6a7a 3c3d
00000210: e019 c33c 3050 8abc a6a4 163d 48e9 2ebd
00000220: 6a06 6c3d 5260 7bbd 30df 0ebc eefb 363d
00000230: e588 17bd 9169 2fbd 201d 853d e930 a83d
00000240: 0a20 80bd f56c aebd ac56 1fbd 62d4 653d
00000250: b366 7b3d c0c2 f9ba 4a86 b5bc 3d4c 56bd
00000260: 5ca1 a4bc b6c8 5d3d 2d75 51bd 6de5 883d
00000270: f448 a3bd 41c0 20bd 425c b0bd f6bf 293d
00000280: b39b 99bd 3a74 9c3d 3228 733d 9693 8cbd
00000290: e090 65bc fa27 f3bc e863 1abc 059e 0abd
000002a0: c64b acbd 5c2c 5dbd 61fe b3bd a209 5e3d
000002b0: fc85 98bd 30bb a9bb 0668 623d 684f 8ebc
000002c0: a564 cdbc c2ea 663d d348 563d f389 833d
000002d0: e557 65bd 6104 903d ce1d 783d 5e58 c1bb
000002e0: ff37 2abd fd99 aebd fc09 80bd 9236 69bd
000002f0: d3f0 b1bd 048f af3c 0ed2 543d b014 7c3c
00000300: 6061 7b3b 9090 debc f0a1 1ebd 2b60 8d3d
00000310: 6a80 4a3d b013 febb aae4 47bd a0ac a83b
00000320: 30f7 b43c a017 babb 2259 a5bd 52cf 62bc
00000330: f637 293d 230d b33d aef9 92bd 68f2 fcbc
00000340: f36f 903d 66ec 97bd 7c19 53bd ba7a 603d
00000350: 261d 5d3c 1c55 43bd 145b 09bd 8e84 153d
00000360: 2d1e 8c3d 6361 a83d a25f a3bd 9cf1 20bd
00000370: 70a1 00bc c8c1 283c d047 b3bb ac7a 9dbc
00000380: ad0e 943d 82e3 1b3d d8a2 87bd 2a31 ed3c
00000390: c4b7 0ebd 45fc 7abd 1a82 003d e814 22bd
000003a0: 3c33 abbc c03f 373b 710d 66bd 34b9 aa3c
000003b0: 8088 c53c a265 1d3d 8e6e fcbc 087e 18bc
000003c0: 5efe 5f3d 1a68 733d 1738 afbd 8273 223d
000003d0: ed4b 37bd 2635 653d 335a a53d e975 a43d
000003e0: 8014 023a aa61 64bd ee7a 253d a8a2 b2bc
000003f0: a246 723d eeb0 f0bc 2a34 103d 2c3f be3c
0.08366215 -0.024980277 0.017519403 -0.0062043667 0.064016186 0.07517979 0.016261026 0.0026062801
-0.0701845 0.025229111 0.02203589 0.0043166503 0.034065798 0.0529012 0.025078822 0.031458102
-0.08524031 -0.02658308 0.033075113 0.011651814 -0.021051247 -0.06892474 0.03391069 -0.07862844
0.023124605 -0.020012312 0.047802128 -0.03224254 -0.06801357 -0.08041111 0.013255039 -0.016246378
-0.027080297 -0.051037233 0.010000065 -0.04065545 -0.036889344 0.0023805723 -0.029655397 0.029419996
0.040887095 -0.08295921 0.02395863 -0.06449434 -0.030865174 0.024957888 -0.014771037 0.0002277121
0.05292547 0.0010146722 0.06833209 0.0354139 0.0794908 -0.04882686 0.07388623 0.021332484
-0.06778153 0.0861113 -0.0014623255 -0.03550465 -0.04787767 0.055166982 -0.04755236 -0.025175713
0.0014710724 0.004873179 0.05557408 -0.022297688 -0.062001668 0.0023935437 0.0579248 0.018739395
-0.049339607 0.08189259 0.021161277 0.05142087 -0.039400823 0.011972159 -0.056190442 0.053408004
0.087153725 -0.041029304 0.042669304 -0.08062374 -0.012603238 -0.057478618 0.028678749 0.08731047
-0.068490885 0.038708232 -0.07623759 -0.07146479 -0.061214164 0.02043058 0.06585125 0.036340855
0.016185187 0.01843895 0.079430304 -0.057376996 -0.015531726 0.029608842 -0.046175983 -0.06710623
-0.06537364 -0.057995282 -0.087232396 0.077224724 0.08730743 -0.04829936 0.073417805 -0.032538958
-0.006788373 -0.042406924 0.0011892989 -0.046149608 -0.0077150986 -0.084419854 -0.021926 -0.08246399
0.075436644 0.08236145 -0.040851317 0.08708667 -0.004696384 -0.044236835 -0.08463286 -0.025202066
0.0028012856 -0.034655686 0.033387557 0.04601518 0.02381605 -0.01688394 0.036778115 -0.042702943
0.057623304 -0.061371155 -0.008720204 0.044673853 -0.036995787 -0.042825285 0.06499696 0.08212454
-0.06256111 -0.08516876 -0.038901016 0.056110747 0.06137724 -0.0019055232 -0.02215876 -0.0523188
-0.020096473 0.05414649 -0.05113714 0.066843845 -0.07972899 -0.039245848 -0.08611347 0.041442834
-0.075004004 0.07639356 0.059364505 -0.06864087 -0.014011592 -0.029682148 -0.009423234 -0.033842105
-0.0841289 -0.053997383 -0.08788753 0.054208405 -0.074474305 -0.005179785 0.055274986 -0.017371848
-0.025072405 0.056376226 0.052315544 0.06422796 -0.055992026 0.07032085 0.0605753 -0.005900427
-0.04155731 -0.08525465 -0.06251904 -0.056936808 -0.08688512 0.0214305 0.051958136 0.015385792
0.00383576 -0.027168542 -0.038728654 0.06903108 0.04943887 -0.007753812 -0.048802055 0.0051475316
0.022090524 -0.005679086 -0.08073641 -0.013843374 0.041313134 0.0874274 -0.07176529 -0.030877307
0.070526026 -0.07418136 -0.051537976 0.05480454 0.013495719 -0.04768859 -0.033534124 0.036503367
0.06841693 0.082217 -0.07977225 -0.039292917 -0.00785099 0.010300107 -0.005471207 -0.019223534
0.07229362 0.038058765 -0.06622857 0.028954107 -0.03484322 -0.06127574 0.031374075 -0.03957072
-0.020898454 0.0027961582 -0.056165162 0.020840265 0.02411294 0.038427003 -0.030814435 -0.009307392
0.054685943 0.05942545 -0.0855562 0.039660938 -0.044750143 0.05595889 0.08073845 0.08030302
0.0004962161 -0.055757202 0.040400438 -0.021806076 0.059149392 -0.029381242 0.035205998 0.023223482

lstm.bias_ih_l0 f4 [512]
00000000: 4034 8e3d 6c6f 6e3d 6851 80bd 422a 53bc
00000010: 7707 a4bd e62b 833d a108 1c3d bdf2 2bbc
00000020: 605c a73b 58b0 c83a 00f1 79bd 68dc 313d
00000030: 2a56 4dbd 1eee 423c b0ea 183d c405 98bd
00000040: 0a41 89bd d07b c13b 53b4 e3bc c9ad ba3c
00000050: 1339 86bd 1ec1 9abd f8ad e23c b644 2b3d
00000060: 4cec b6bc d94d ab3d 38c8 16bd 03ce 43bc
00000070: 884d b63c dbe7 e53c 6636 b73c a20e 9ebd
00000080: 96b4 1c3d fa1f 1e3d b0ab 153c 69f4 a0bd
00000090: dec7 05bc 4cfd dfbc efae fbbc b0dd da3c
000000a0: b821 70bd 01e0 92bb ce67 adbd 574b 26bd
000000b0: f5a2 363d 0271 54bd db1e 803d 2169 9c3d
000000c0: fca8 723c db12 8ebd 2cca 73bd 5eff 6e3d
000000d0: 88ee b1bc 00b0 1b3c dae2 aebd e2d7 373d
000000e0: 700c 67bd 7c74 50bd a023 9a3b 33e4 67bd
000000f0: 7245 3abd aa83 05bc c010 30bd de5f a6bc
00000100: 7b53 0c3d a0f5 5d3d 024f 923d 74c1 063d
00000110: c4a6 92bc d156 203b 60a5 99bd 5cbd 223c
00000120: 5611 13bd e16f 34bd a01c e93c 5773 7d3d
00000130: 0beb 2abd 5c6f 963c 833b a83d 020c 6fbc
00000140: aa97 ffbc edcc ac3d 0045 4abc e0ef 573c
00000150: 1a07 fdbc 54ec c33d e0ec 9bbb e02d 8fbd
00000160: fcc7 ffbc 06d1 053c fff0 863d 059c a33d
00000170: 55de 32bd 7228 94bd 45a9 89bd 4660 aebd
00000180: 0493 88bd 4759 b23d b066 40bd 8faa 6b3d
00000190: 0723 02bd d60a 5cbd f33f 8c3d 70ca 39bc
000001a0: 2e76 5cbd 76ff 223d 6548 9dbc 1ecd 1b3d
000001b0: 9a22 343d e010 833c 064e 60bd bb7e 52bd
000001c0: 30b6 b239 2bb4 57bd 4238 8f3b 301a cd3c
000001d0: 0803 e2bc 7310 813d bc93 5fbd e19b 5f3d
000001e0: 5cb5 14bd da23 9fbc 8075 5d3b d7c3 8f3d
000001f0: 634b da3b 5c4a 75bd 106d cb3d 721a d4bc
00000200: a08a 6c3d e2dc 263d 66aa 78bc dfdf 08bd
00000210: 0a27 9abd fabe b2bd f4c0 e3bc 9ffe a23d
00000220: c40c 8f3c 6fd3 a23d 72f2 ecbc c345 15bd
00000230: 79b8 953d 7681 dcbc ae5b 553d 7a69 cf3c
00000240: d657 20bd 0018 be38 d805 cc3d 225c e5bc
00000250: 4ce5 133d e609 573d 42df 063d 00a0 83bc
00000260: f445 95bc 4024 a23b 61a3 863d 64d4 7abd
00000270: a062 6abd 4a10 773d b622 f6bc 00c5 463a
00000280: d469 c4bc 122a 86bd 200c 6bbd 765d 1b3d
00000290: 98a8 ca3c f6f3 2c3d ec3e d5bc b12d a93d
000002a0: ed18 5bbd 9ea0 4b3d 9fd5 823d d844 d9bc
000002b0: b8cf 30bd bf02 a83d 3086 cabb 2615 4c3d
000002c0: c719 af3d 54a8 edbc 8152 45bd d48a d53c
000002d0: 186a 36bd 7a14 0abd 4c1e db3c dfe8 28bd
000002e0: 670e ac3d 69b0 96bd 24ab adbc 43b4 9a3d
000002f0: 5678 99bd a258 943d 2e09 72bd 5042 cd3b
00000300: 38d7 84bd 08c6 9cbd d80f 433d 3c90 23bd
00000310: 3bb6 60bd 4076 a6bb 79cf a03d 0797 5abd
00000320: a834 ad3d 9f26 01bd ac5d 123d 185e 973d
00000330: 5758 b33d 5a4c 81bd 248a bb3c c2f1 443d
00000340: 28e4 92bc 2681 7f3d 7ce1 bbbc 5aca a8bd
00000350: 56d6 c03d 7235 2f3d 6815 b3bc d0e2 703c
00000360: bc71 8cbd e905 75bd f040 30bc 06c7 0c3d
00000370: dbfb a33d 3d3b a83d 9698 cd3c 386e 26bc
00000380: b0f9 a2bd c7c2 a7bd b195 273d 4cad a83d
00000390: 6ea5 413d 3aa1 2a3d 3832 fd3c 5e1d 373c
000003a0: b28c e63b e10b 52bd db51 a13d b877 91bc
000003b0: 6825 7f3c 4e0b 603d 95bd ab3d f4f3 8b3d
000003c0: 7ff9 0bbd 680a 68bc c210 8d3d ce44 253d
000003d0: ea78 97bd 67fd 943d 0cff ca3c baba ffbc
000003e0: b22c e1bc 7add f4bc 0b6d 963d 4136 9b3d
000003f0: 90a3 ba3b 9e00 563d 2264 043d 008e 35bd
0.0694356 0.05821173 -0.06265527 -0.012888493 -0.08009236 0.06404857 0.038094167 -0.010494885
0.0051074475 0.0015311344 -0.06102085 0.043423086 -0.050131 0.011897592 0.03733319 -0.07422975
-0.06701858 0.005904652 -0.027795946 0.022787945 -0.06553855 -0.075563654 0.027670845 0.041813575
-0.022329472 0.08364458 -0.036812037 -0.0119509725 0.022253767 0.028064659 0.022364806 -0.07717635
0.038258158 0.038604714 0.009135172 -0.078591175 -0.008165328 -0.027342461 -0.030723063 0.026717037
-0.058625907 -0.0044822698 -0.08467065 -0.040599193 0.044589 -0.051865585 0.06255885 0.07637239
0.014810797 -0.0693719 -0.059518978 0.058349006 -0.021720186 0.009502411 -0.08539362 0.044883616
-0.056408346 -0.05089234 0.004703954 -0.056614112 -0.045476384 -0.008149067 -0.042984724 -0.020309385
0.0342593 0.054189324 0.07143976 0.032899335 -0.017901786 0.002446581 -0.07502246 0.009932842
-0.035905205 -0.04405201 0.028456032 0.061877575 -0.04172806 0.018363647 0.08214476 -0.014590265
-0.031200249 0.08437524 -0.012345552 0.013179749 -0.030887175 0.095665604 -0.0047584623 -0.06991172
-0.03122329 0.008167511 0.06588935 0.07988743 -0.043669064 -0.07234277 -0.06721739 -0.085144565
-0.06668666 0.087084346 -0.04697293 0.057535704 -0.031771686 -0.05372127 0.06848135 -0.011339769
-0.053823642 0.039794408 -0.01919956 0.038037412 0.04397831 0.015999258 -0.05476191 -0.05139039
0.00034086546 -0.052662056 0.00437072 0.025036901 -0.027589336 0.063019656 -0.05458425 0.054592017
-0.03630577 -0.019426275 0.003379196 0.07019775 0.006661819 -0.059885368 0.099329114 -0.025891516
0.05774939 0.040737994 -0.015177345 -0.033416625 -0.07526977 -0.08727832 -0.027801968 0.07958721
0.017462142 0.07950484 -0.0289242 -0.036443483 0.07310576 -0.0269172 0.052089386 0.02531885
-0.039146267 9.064376e-05 0.09962052 -0.027998034 0.036107346 0.052499674 0.03292776 -0.016067505
-0.018221833 0.004948169 0.06574131 -0.061237708 -0.057222962 0.06031827 -0.030045848 0.0007582456
-0.023976244 -0.06550993 -0.05738461 0.03793093 0.024738595 0.042224847 -0.02603098 0.08260668
-0.053490568 0.049713723 0.06388401 -0.026522085 -0.043166846 0.08203649 -0.006180547 0.049824856
0.085498385 -0.02901093 -0.048174385 0.026067175 -0.044534773 -0.033710934 0.026747845 -0.04123771
0.084011845 -0.07357866 -0.02119977 0.075539134 -0.074936554 0.07243468 -0.059090786 0.0062640086
-0.06486362 -0.07654959 0.04762253 -0.039932474 -0.05486129 -0.0050800145 0.07852072 -0.053366687
0.08457309 -0.031530973 0.035733864 0.07390994 0.08757084 -0.06313391 0.022893019 0.04808212
-0.017931059 0.062379025 -0.022934668 -0.082417205 0.09415881 0.04277558 -0.021860793 0.014702514
-0.068576306 -0.05982009 -0.01075767 0.03436949 0.08007022 0.08214424 0.025097173 -0.010158114
-0.0795778 -0.08191448 0.04091424 0.08236179 0.047276907 0.041657664 0.030907735 0.011176435
0.007035815 -0.05128086 0.07876941 -0.017757282 0.015572883 0.05469828 0.08385769 0.0683364
-0.034173485 -0.014162637 0.06887962 0.04034882 -0.073961094 0.07274895 0.024779819 -0.031216968
-0.027487133 -0.029890765 0.07345017 0.075787075 0.0056957677 0.052246682 0.032322057 -0.044324875

lstm.bias_hh_l0 f4 [512]
00000000: 8435 64bc 169a 803d 222d 7fbd 2a96 ad3d
00000010: fc67 9dbc 8d20 d33c 1763 22bd c87e b73d
00000020: 0ecc 8dbd b3c6 ac3d 48cb 1dbc 721f 0cbd
00000030: ad9f 8d3d ce15 643d 1453 afbc 909f 1c3c
00000040: 087a 20bd 1c32 e93a 3482 433d 0755 95bd
00000050: 5518 a73d 2a16 5abd d15b 8f3d 46cb 213d
00000060: f8dd ff3c a3e5 8abd 1efd 5ebd 1952 bd3c
00000070: 894c 02bd 14f2 4b3d aa15 943d 8df1 2f3d
00000080: 4a30 ae3d 6a6c a0bd 06d6 673b 427f 1dbd
00000090: f687 1ebd 430c 9cbd 8451 a93d fe68 8bbd
000000a0: 6e3b 573d f9d1 a4bd fdc4 da3c d3f2 b03d
000000b0: 8d13 c9bc f369 7ebb c02d a23a 6065 853b
000000c0: a885 0e3d 2adb 213d 68c2 10bd 9a20 763d
000000d0: 24a8 663d 8821 953c 1ac0 34bc 8452 36bd
000000e0: 8ab4 3ebd 4b43 97bd 6a48 dbbc 6905 53bd
000000f0: 1024 e63c 6821 e5bc 553b ccbc b4e9 04bd
00000100: 4816 9abd d071 1fbd d6a3 2bbd d0f9 213d
00000110: 6a43 603d 5047 9fbd 7ee8 643d c48e 41bd
00000120: 00e0 723b ed5f 49bc 9286 323d 68ef 623b
00000130: 9800 bfbc 1e43 debc 12ae 973c 843e 75bd
00000140: 4e29 8f3d fcf8 cdbc 6e2a 3c3d 7a95 253d
00000150: 6261 263b 2043 5b3d 4035 a8bd 58fe b03c
00000160: 78f8 01bd a46c 533d 5714 85bd 8ce9 8a3c
00000170: 5dca 383d e523 a13d 8922 b4bd 90c3 ce3b
00000180: 00de 42bb 58b0 68bc 720c b73c 1741 053d
00000190: fb4f a5bd 5841 2d3c 6ea3 663d 495d ab3d
000001a0: 8ee9 1f3d dc73 91bd 6c61 a8bd 4f2c 43bd
000001b0: 2807 53bd c084 953c fc67 84bd c2d6 83bd
000001c0: 305f 203c da5e 07bd f12c 5e3d dca5 c6bc
000001d0: 1083 45bb ef09 99bd 8cc7 353d afda a2bd
000001e0: 86d0 fe3c 8a10 a7bc a7c9 973d 8038 e53b
000001f0: cb54 a4bd c6c8 993d 11c9 2e3d a0e4 bb3c
00000200: e66a eabc a85e 9d3c ce99 85bd 1b6d 28bd
00000210: 0834 0c3d e250 653d d0a7 db3b ec27 ccbc
00000220: b0c4 9b3c 0efa 9bbc 4258 0e3d b004 1ebc
00000230: f392 8e3d 5c85 f3bc e0bf 9d3d dc24 1abd
00000240: 914b 9a3d 7a0a 9fbd 52f2 333c 7b4d a13d
00000250: ccd5 703d e80e 6bbd 930e 8fbd 84dd 19bd
00000260: d8f1 0cbc 8236 f1bc 663e 07bd 5724 9d3d
00000270: d450 84bc be38 03bd 4863 f63c 7bbc 8d3d
00000280: 0074 c8bc e4d6 a1bc 6f62 9a3d e015 73bc
00000290: db89 47bd 84bc 963c 52c3 7a3d e273 593d
000002a0: 861d 4ebd dacd e13b f0ff fdbb 3a09 753d
000002b0: e0f3 8d3d 1e63 673d 2074 243c 58b0 2dbc
000002c0: e0ee 22bb 603d 403b cdfa 46bd 40a4 a83b
000002d0: 8aa1 503d 30dc 81bb 7cf8 f5bc b4ff cb3c
000002e0: 000a 10b9 4775 8c3d 9428 803c 50c9 bf3c
000002f0: a8d5 87bd 0a2c 9d3d 8662 1a3d e60d 473d
00000300: d345 57bd 820d 413d 30e6 853b 256f ae3d
00000310: f108 a63d 205d 07bb be2d 3f3d ec8d 78bd
00000320: 8652 83bd 9689 f7bc 4684 883d ca07 1e3d
00000330: 465c 68bd 5608 453d 9688 91bd 6c61 a6bc
00000340: 38d9 acbd 19f7 9cbd 0cdf 1ebd 8faf 293d
00000350: f62f a3bc 8db5 39bd 48af b43c 0033 cb3a
00000360: e0f9 31bd 5101 86bd de7d 6fbd 30e9 063d
00000370: b453 bebc 92c9 323d 4680 3b3d fe2f 9cbd
00000380: dc33 ce3c 8c47 9abd 4a43 833d 9ed2 853d
00000390: 800e 06bb be28 743d ad0c a63d e6c7 883b
000003a0: dab8 c23c 3e0f 4bbd a40a a7bc b0a6 863c
000003b0: 08dc 85bd 34ac 8ebd a20d 07bd c3f0 263d
000003c0: 7140 75bd d08e e8bc 6ec2 b43d 0b0a a6bd
000003d0: 74a9 59bc e2c4 353d df2a 8d3d 82c1 87bd
000003e0: 94b9 14bd 361f 7ebc 8293 2fbd fc3c 9dbc
000003f0: 111b 8f3d 1014 0d3d d0be 893c c613 92bd
-0.013928775 0.062793896 -0.0622989 0.08475907 -0.019214623 0.025772357 -0.03964528 0.089597285
-0.06923686 0.08436336 -0.009630986 -0.034209676 0.06915221 0.055684857 -0.02140192 0.009559527
-0.039178878 0.0017791423 0.047731593 -0.07291608 0.08158938 -0.053243794 0.069999345 0.039500497
0.031233773 -0.06782081 -0.05444061 0.023110436 -0.03181127 0.04979141 0.072306946 0.04295497
0.08505304 -0.07833178 0.003537537 -0.03845144 -0.03870388 -0.07619526 0.08267501 -0.06807135
0.05254691 -0.080478616 0.02670526 0.08640065 -0.024545455 -0.0038820475 0.0012373254 0.0040709227
0.034795433 0.03951565 -0.03534165 0.060089685 0.056312695 0.018204466 -0.011032129 -0.044512287
-0.046558894 -0.07385882 -0.026767928 -0.05151883 0.028093368 -0.02797003 -0.024930635 -0.03244944
-0.07523781 -0.0389269 -0.041904293 0.03954488 0.05475179 -0.07777274 0.055885784 -0.047255293
0.0037059784 -0.012290937 0.043585368 0.003462756 -0.023315713 -0.027131613 0.01851562 -0.059874073
0.069903 -0.025143139 0.0459389 0.040425755 0.0025387635 0.053530812 -0.08213282 0.021605656
-0.0317311 0.05161728 -0.0649802 0.016957067 0.045114864 0.078681745 -0.087956496 0.006309934
-0.0029734373 -0.0142022 0.022344802 0.032532778 -0.08071896 0.010574661 0.056308202 0.08367402
0.039041094 -0.071021765 -0.08221707 -0.047649678 -0.051520497 0.018251777 -0.06465146 -0.06437446
0.0097883195 -0.033049442 0.05424208 -0.02424901 -0.0030137934 -0.07472598 0.044379756 -0.07951867
0.031105291 -0.020393629 0.07411509 0.0069952607 -0.080239855 0.075089976 0.04267222 0.022936165
-0.028615426 0.019210175 -0.065234765 -0.041119676 0.03422931 0.05598534 0.0067033544 -0.02492138
0.019014686 -0.019040134 0.034752138 -0.009644672 0.06961622 -0.029726677 0.07702613 -0.037632808
0.075339444 -0.0776567 0.010983067 0.07876106 0.058797643 -0.057387263 -0.06985202 -0.03756477
-0.008602582 -0.029444937 -0.033018492 0.07672947 -0.016151823 -0.032036535 0.030076638 0.069207154
-0.024469376 -0.019755788 0.07538306 -0.014836758 -0.048715454 0.018400438 0.06122143 0.05308903
-0.050321124 0.0068909945 -0.0077514574 0.059823252 0.06931281 0.05649101 0.010037452 -0.010601126
-0.002486162 0.0029333457 -0.048579026 0.0051465333 0.050935306 -0.003963016 -0.030025713 0.024902202
-0.00013736635 0.068583064 0.01564435 0.023411423 -0.066325486 0.076744154 0.037691616 0.04859724
-0.052556824 0.047132023 0.0040862784 0.08517293 0.08107174 -0.0020654872 0.046674483 -0.060682222
-0.064122245 -0.030216973 0.06665854 0.038581647 -0.056728624 0.048103653 -0.0710613 -0.020310126
-0.08439869 -0.07664318 -0.038786933 0.04142719 -0.01992033 -0.045339156 0.022056237 0.001550287
-0.04345119 -0.0654322 -0.058469646 0.03293723 -0.023233272 0.043649264 0.045776628 -0.07626341
0.025171213 -0.07533178 0.06409319 0.06534313 -0.002045542 0.059609167 0.081078865 0.0041742204
0.023769785 -0.049575083 -0.020390816 0.016436905 -0.06536108 -0.06966439 -0.032971986 0.040756952
-0.05987591 -0.02838841 0.08826147 -0.08107384 -0.01328503 0.044377215 0.06892943 -0.066287056
-0.036309794 -0.015510371 -0.042865284 -0.019194119 0.069875844 0.03444296 0.01681462 -0.07132678

lstm.weight_ih_l1 f4 [512, 128]
00000000: 9589 60bd 5f80 633b b850 afbc 6f3a 243d
00000010: c20b 50bc a6e9 083d 34bf d93c fc70 99bd
00000020: 0b20 603c 4480 903d 405b 84ba bc79 6dbd
00000030: b513 323c a4f2 f93c ad80 77bc 0c14 91bd
00000040: 787e 66bd 9e2b afbc 6736 d63d 8fcc 20bd
00000050: bc45 fabb 70cf 8fbc 70a3 f6b9 8580 8e3d
00000060: 8e5b 5d3d 3c8f 073d 1016 4dbd 5be0 9fbd
00000070: ee68 253d 4c74 033c 4fad d33d 079c 9dbd
00000080: 831f ad3c 2be3 173d 605e a33d 607f 08bd
00000090: 385a 863c 07f7 32bd aa7a 3e3d e283 38bd
000000a0: 0c2e 723c 3d86 033d 1015 313c 0b77 5e3c
000000b0: a706 c83d 0ace 3f3c 2d9d d9bc d997 42bd
000000c0: 77da 16bd 5eec 823d 52fd c0bb bae1 4f3c
000000d0: a499 a93d 7899 acbc 50ec f5bc b9df 68bc
000000e0: f404 3ebd a9b8 a0bd 48ea 643d 486b 8f3d
000000f0: 3fda b6bd afc0 233d 64ff 0ebc 3087 81bc
00000100: c2a6 923c 6943 5e3d 1d2c 05bd c65c 4e3d
00000110: 445b 863c 2242 ccbb d7d1 c23b c0a6 643d
00000120: dad0 923d 3aee a13d 2fa3 0dbd 1727 b93d
00000130: bed5 af3c b4a4 9d3c c80b a93d a849 7abd
00000140: 8cc2 61bd 8fb5 ce3c 8f65 5bbd 486a babd
00000150: f024 fe3a 08e6 2f3c be92 ad3c 304c bd3c
00000160: a631 02bd c0aa 9abd 3e8a 883d d2ce 663d
00000170: 6f32 8fbd 1865 db3c ac13 83bd 3a39 88bc
00000180: 8ba1 883d e194 aa3d 6ead 5abd 982e 9abc
00000190: 88ab 94bc ed1d 6cbc c42a 8abc 4ce7 02bc
000001a0: 5969 803d 0a3b 743d af77 5dbd bf7a fabc
000001b0: a432 673d df94 af3d 295e 3c3b 9bd1 473c
000001c0: 7776 2abd ca08 613d b376 2e3d b722 9f3d
000001d0: 431d 48bd 289c e03c eeb0 eabc e09b 85bd
000001e0: 8ecd 093d 9858 1cbd b662 78bd 8974 d1bc
000001f0: eae8 193c b620 6dbc 67ae fe3c 081a b33d
00000200: a0ec 2b3d b40f 69bd 063f c5bc 36ca 00bd
00000210: 6aa4 8dbd 0b11 733d 83cc abbc 3cf3 8d3d
00000220: 4cbd dcbc 28e7 f63c a9ea 63bd b4a3 48bc
00000230: 7ae8 a7bd ba95 01bc 3864 523d 7cb0 8c3d
00000240: f2bc a73c 5a59 30bd f808 e0bc eb82 533c
00000250: 426a 88bc 3685 22bc bae0 89bd 57ca 7dbd
00000260: e2ef 6e3d ba18 6a3d 641b 86bc aa8f 763d
00000270: 987b e73c f0bd b23b 117d 2b3d 36b1 6cbd
00000280: fb83 efbc 8824 973d d4f4 bb3c 9738 ad3d
00000290: 1e55 a03d f86b ba3c b0a9 6bbd eab7 273d
000002a0: 426b 4bbc 78d9 05bc 045c edbb c172 91bc
000002b0: beec 47bd e843 f03c 92fb e53c 82f6 693d
000002c0: 0cc9 4f3d 57d9 933d 9947 3abd 2af4 863d
000002d0: 5093 3fbc eee9 eabc 2662 7e3d a40a 4e3d
000002e0: 96e1 283d 843e 923c 3a80 883d ca99 ce39
000002f0: 4113 a63d d457 89bd fee7 90bd e720 813d
00000300: 84ad e93c 4ee9 4c3d c29d 47bd 0964 303d
00000310: a009 c0bb 626b a8bd 10af acbc fe85 7cbc
00000320: 7da8 823d da34 e4bc d7e1 8a3b 2f73 d33c
00000330: 50fe 26bd 74e2 26bd 541e 52bc 0e4a a8bd
00000340: 54c1 74bd 3167 05bd df2e a43d 7e65 563c
00000350: 8c62 2fbc f868 e4bc 7a74 033c 7f68 62bd
00000360: 52e4 90bd 6ccc c33c 4665 5b3d fee3 b1bd
00000370: 34a0 13bd f8b8 7a3c 4ccb abbd 4d5f 4dbc
00000380: f86b dabc 80db 0fbb f5d8 9fbc b138 9cbd
00000390: c0bb 13bd a04d 973d d032 463c 432c 8b3d
000003a0: 925d ff3c fca9 e1bc 5e7c 7e3d df86 a33c
000003b0: 142b a1bd 3e09 443d ac60 99bd 31e8 94bd
000003c0: e6d7 6d3d 3fd7 3bbd 3e33 93bd b830 56bc
000003d0: 6ec9 a7bd 7015 98bd 32fd aebd a039 113d
000003e0: d6b3 4f3d 144d 0bbd 3037 283d a87b 043c
000003f0: daa3 c43c f8b8 b8bd e0e0 693d b4f8 e83a
-0.05481871 0.0034713966 -0.021400794 0.04009479 -0.012698116 0.03342595 0.02658043 -0.07492253
0.013679515 0.07055715 -0.0010097995 -0.057977423 0.010868956 0.030511208 -0.015106362 -0.07083902
-0.056272954 -0.021383103 0.10459595 -0.039257582 -0.0076377075 -0.017554969 -0.00047042547 0.06958107
0.05404239 0.033095583 -0.05006987 -0.07806464 0.040383272 0.008023333 0.1033579 -0.076957755
0.02113319 0.03708188 0.07976985 -0.0333246 0.016400442 -0.043692615 0.0465037 -0.04504765
0.014781486 0.03211044 0.010808244 0.013578187 0.09766894 0.011706838 -0.026564205 -0.047508094
-0.036829438 0.0639274 -0.005889573 0.012688095 0.08281258 -0.021069273 -0.03001991 -0.014213496
-0.046391442 -0.07847721 0.05588749 0.07002884 -0.08928346 0.03997868 -0.008727882 -0.015811533
0.017901782 0.054263506 -0.032512773 0.050381444 0.01640094 -0.0062334696 0.005945425 0.055823088
0.071687415 0.07906766 -0.034579452 0.09040659 0.021464225 0.019243576 0.082542 -0.0611054
-0.055117175 0.025233058 -0.05356365 -0.09102303 0.001938967 0.010735996 0.021188136 0.023107618
-0.03178563 -0.07552099 0.066669926 0.056349583 -0.06992041 0.026781604 -0.064002365 -0.01662885
0.06671437 0.08329178 -0.05338805 -0.018821046 -0.018148199 -0.014411432 -0.016866095 -0.007989716
0.062700935 0.059626617 -0.054069217 -0.030576108 0.05644478 0.08573317 0.0028742647 0.01219597
-0.041616883 0.054940023 0.04259367 0.07770293 -0.04885603 0.027418211 -0.02864882 -0.065238714
0.033643298 -0.038170427 -0.060641013 -0.025568264 0.00939391 -0.014473131 0.03108902 0.087451994
0.04197371 -0.05689974 -0.024077903 -0.031442843 -0.06916125 0.059342425 -0.020971542 0.06931159
-0.026945733 0.03013952 -0.05564371 -0.012246061 -0.08198638 -0.007909233 0.051365107 0.06869599
0.020475838 -0.043053962 -0.027348027 0.012909631 -0.01665223 -0.009919455 -0.06732316 -0.061960544
0.05833424 0.057152487 -0.016370483 0.060195602 0.028257176 0.005454771 0.04186732 -0.05778619
-0.029237738 0.07380015 0.022943892 0.08458059 0.07828735 0.022756562 -0.057534873 0.04094688
-0.012415709 -0.008169524 -0.007243635 -0.017754914 -0.04880976 0.029329255 0.02807406 0.057119854
0.050728843 0.07219189 -0.045478437 0.06589539 -0.011692837 -0.028676 0.06210532 0.050303116
0.04123076 0.017852075 0.06665082 0.00039405964 0.08109141 -0.06706205 -0.07075499 0.06305104
0.028525122 0.050027184 -0.048734434 0.04306415 -0.0058605224 -0.08223607 -0.02107957 -0.015412806
0.06379793 -0.027857233 0.004238348 0.02581176 -0.040769875 -0.040743306 -0.012824614 -0.0821725
-0.059754685 -0.032569114 0.080167525 0.013085721 -0.010704648 -0.027882084 0.008023376 -0.055275436
-0.07074799 0.023901187 0.05356338 -0.08686064 -0.036041453 0.015302889 -0.08388385 -0.0125349285
-0.026662812 -0.00219509 -0.019512633 -0.076280005 -0.036067724 0.07387853 0.012097076 0.06795552
0.031172547 -0.027546875 0.062130325 0.019961772 -0.078695446 0.047860377 -0.07489142 -0.072708495
0.058067225 -0.04585957 -0.07187508 -0.013073139 -0.081927165 -0.07425964 -0.08544387 0.035455346
0.050708614 -0.034009054 0.041068256 0.008086123 0.024003912 -0.09019655 0.057099223 0.0017774315

lstm.weight_hh_l1 f4 [512, 128]
00000000: a88b bf3d 0824 603d 3773 de3d 3886 c73d
00000010: 96ca cabc 7cda 803d ac21 533d 56f8 8a3d
00000020: f4ae b9bc 085c e43b a4cd ccbc db21 ccbd
00000030: 9d6d afbd 28b3 df3d 0474 acbd 2608 cbbc
00000040: 90e7 59bd 6287 c73d 12a9 023d 0ee9 bf3d
00000050: a94a 6b3d bed9 03bd cec5 b43d 246a cf3c
00000060: aa7d 943d d29e c43c e47c fabc d047 7e3d
00000070: d0a8 3f3d b468 de3d 54e2 5a3d cc59 a23d
00000080: d6ec 373d 0050 60bc e0c0 413d 47a2 e93c
00000090: 2dcc e3bb 2263 26bd d23e 22bd ecf9 aebd
000000a0: 3e2e 603d 8873 53bd 1ccd 2dbd 5fd9 a23d
000000b0: 0276 303d 4108 7c3c be61 9bbd d6cb b8bd
000000c0: f22f 26bd 90ce 163d b85c 95bd 7e87 273d
000000d0: c064 2b3d 5d61 9e3b a2c2 a8bd a420 9cbc
000000e0: ccbf 2ebd f271 efbc d8a9 763d aa95 393c
000000f0: 1625 0e3d e342 51bd b812 c3bd facb 713d
00000100: c027 e0bd 4e3b 1b3d 42bb 883d 687b 12bd
00000110: 80a2 923d 5e9f 5bbd e22b 0d3d 12d6 863d
00000120: 9c64 00bd 50c9 e1bc 5cfe 7d3d 4061 d0bd
00000130: 4cc8 583d 0eae 813d c46f adbd 8045 bf3d
00000140: 5433 24bd 5402 f2bc 2846 c0bd 447e 533d
00000150: 14e1 ddbd 1ce3 f63c d2e8 443d 1870 db3c
00000160: 4c33 a4bd 1a09 e93c 0230 2abc 160c 0ebd
00000170: 2456 3fbc 0053 183d ea2b 8cbc 1831 12bc
00000180: c07d e13d 591f a2bc d893 8cbc 2e73 64bd
00000190: 2857 d9bc fa95 a73c aa13 4fbc 14a5 39bd
000001a0: 8699 67bd 3499 56bd 6e64 58bd 8c53 023d
000001b0: b5be 19bc 7423 143a 42ac ac3d be5d 873d
000001c0: b916 0a3d 247d 12bd 3c4d 7f3d 7cf0 56bd
000001d0: d0f1 1fbd d0b0 b93d 244d 943d 7a6a 0f3d
000001e0: c6cf 08bd 003a c13d 60b3 df3c 10c4 0d3d
000001f0: 4ef8 16bd a61c 2fbd 0405 5f3d 68e6 753c
00000200: 4c50 10bd aa58 bbbc f48d 0abd c857 b5bb
00000210: 5607 ee3c dcb0 203c 409a b83d 646c 1abc
00000220: b6d0 b43d 0bfc 053d 8cf1 68bd 4872 a53c
00000230: 1824 5d3c c817 a93d 9a90 14bd 60d7 73bd
00000240: f351 b73d 57d9 ad3d a857 c0bd 0642 5cbd
00000250: 104e a3bd 268b 59bc 77d9 8e3d 7464 863c
00000260: e45f a53d de66 b83c 4e53 b43d 1261 d3ba
00000270: 6506 213d db9e b23d a8b8 71bd 3564 4fbd
00000280: 88fa 043d 06bf cb3b f16e 7abd 3ec5 40bd
00000290: 4f97 c53d f443 3f3d 00f3 9dbd 2f96 8039
000002a0: c69a 8ebd 4242 bbbd 585c 9d3d d504 af3d
000002b0: a43a b7bd b1ae 8d3d 7af8 9fbd b46f e53c
000002c0: 3066 443c 2650 6dbd e2bb 6d3d ec13 8abd
000002d0: ee6b ad3d 7a50 603d 5f9f 07bd 6c03 a53d
000002e0: d289 cd3c 9626 f03c 089d 613d 9621 ca3d
000002f0: de5a f0bc 24d2 b8bd 81e2 593d e880 ad3d
00000300: 085f 20bd 6e08 7e3d 4288 833d 2270 91bd
00000310: e914 993d e61a 81bd 8d88 ca3c 8c60 6ebd
00000320: 98fe 28bc 985b ae3b ba5e 84bc c308 27bd
00000330: 7278 93bd 12fa 843d c11d 9c3c f74f b13d
00000340: 52fc 42bd 7170 1cbd 9b07 673c b070 a43c
00000350: 80aa c2bd f953 1fbd fc02 af3c e73f c3bd
00000360: b629 4bbd 29bc 003d 0c5a 7b3d ca9e 653d
00000370: 6f23 c63d d5bf 71bc 46dc 7d3c 2cdd d0bd
00000380: 7091 d03d 332f 913d aa4f 77bc c8aa c7bd
00000390: 4479 0e3b ae49 483d 923b aebd 9073 593b
000003a0: 97a0 473d 243b b4bd 8f28 28bc be2a b1bc
000003b0: 0e1e 96bd 367e 1bbd 92da b1bc a663 06bc
000003c0: 604e b43d df00 14bd 45de 503d b993 003b
000003d0: 61b3 913c 0608 f53c a6c3 14bd a79c 823c
000003e0: d411 8b3d ae6b a9bc c59a a93d a28c b83d
000003f0: beb3 95bd ee67 c73c 1094 893d 9875 c03d
0.09352809 0.054721862 0.10861819 0.09742397 -0.024754804 0.062916726 0.051545784 0.067856476
-0.022666432 0.006968979 -0.0250004 -0.09967395 -0.08565829 0.10922843 -0.08420566 -0.024784159
-0.05319935 0.09742619 0.03189952 0.093706235 0.05744425 -0.032190077 0.08826791 0.025319166
0.07250531 0.024001513 -0.03057713 0.062080204 0.04679185 0.10859814 0.0534385 0.07927284
0.0449036 -0.0136909485 0.04730308 0.028519763 -0.00695183 -0.040621884 -0.03961069 -0.085437626
0.0547316 -0.05162385 -0.042431936 0.079516165 0.04308129 0.015382827 -0.07587002 -0.090232536
-0.040573068 0.036818087 -0.07293075 0.0409007 0.04184413 0.004833384 -0.08240248 -0.019058533
-0.04266338 -0.029229138 0.06022057 0.011327187 0.034703337 -0.05108918 -0.09525055 0.059032418
-0.10945082 0.037898354 0.066763416 -0.03576222 0.07159901 -0.05361878 0.034465678 0.065837994
-0.03134595 -0.027561814 0.062010154 -0.10174799 0.052925393 0.063320264 -0.08468583 0.09339428
-0.040088013 -0.029542126 -0.09388381 0.05163409 -0.10833946 0.030137591 0.048073597 0.026786849
-0.080175966 0.028446723 -0.0103874225 -0.034679495 -0.011678252 0.03718853 -0.017110784 -0.008922838
0.11010313 -0.019790338 -0.017160341 -0.055773906 -0.026530817 0.020457257 -0.012638966 -0.045323446
-0.056542896 -0.0523922 -0.052830152 0.031817958 -0.009383847 0.0005651035 0.08431293 0.06609677
0.033713076 -0.035763875 0.062329516 -0.052475438 -0.03904897 0.090669274 0.07241276 0.035013653
-0.033401273 0.09434891 0.027307212 0.034610808 -0.036857896 -0.04275193 0.054448143 0.015008546
-0.035232827 -0.022869427 -0.033826783 -0.005534146 0.029056232 0.009807792 0.09013796 -0.009425256
0.08828871 0.03271107 -0.056870982 0.020196095 0.013497375 0.08256489 -0.036270715 -0.05953157
0.089511774 0.0848872 -0.09391719 -0.053773902 -0.079738736 -0.0132778045 0.06975072 0.016405322
0.0807493 0.022509988 0.088049516 -0.0016126952 0.03931274 0.087217055 -0.059013993 -0.050632674
0.032465488 0.00621784 -0.06114096 -0.047063105 0.096480004 0.046695665 -0.07712364 0.00024525958
-0.069631144 -0.09143497 0.07683629 0.085458435 -0.08946732 0.06918085 -0.07811065 0.028007366
0.011987254 -0.057937764 0.058040507 -0.06742081 0.084678516 0.05476425 -0.033110972 0.08057293
0.025090132 0.029315274 0.055081397 0.09869687 -0.029340204 -0.09024456 0.053194527 0.084718525
-0.03915313 0.062019758 0.064224735 -0.07101466 0.074746914 -0.063039586 0.024723316 -0.058197543
-0.010314606 0.0053209774 -0.01615845 -0.04077984 -0.072007075 0.064930096 0.019057157 0.0865783
-0.047603913 -0.03819317 0.014100934 0.020073265 -0.095051765 -0.038898442 0.021363728 -0.09533673
-0.049600326 0.031429444 0.061365172 0.056059636 0.09674727 -0.014755209 0.015494412 -0.10198435
0.1018399 0.07089081 -0.015094677 -0.09749371 0.002173976 0.04889839 -0.08507456 0.0033180453
0.048737135 -0.08800343 -0.010263576 -0.021626826 -0.07329951 -0.03796216 -0.021710668 -0.008202469
0.08804011 -0.036133643 0.050993223 0.00196193 0.01778573 0.029911052 -0.036319397 0.015943838
0.0679051 -0.020681228 0.08281473 0.090111986 -0.07309674 0.02434155 0.06717694 0.09397429

lstm.bias_ih_l1 f4 [512]
00000000: c7c8 90bd b5fc 49bd c5e8 6dbd 0110 773c
00000010: ca54 a73d 5857 8e3d faf7 ba3d c401 2f3c
00000020: 5e07 1c3d 92a3 45bd 95b9 d33d 161e 343d
00000030: fa0c a93d 4c89 81bd 62e3 253d 297a a93d
00000040: 6482 b93d 7e46 f5ba 8a32 96bc 2002 da3d
00000050: 2b63 10bd b5ba bd3d ef5e dcbc d4e3 c9bc
00000060: d461 2d3d e850 10bb 0ebc 27bd 6bda 7b3d
00000070: 2e9f f23d eba8 e43b 6674 e53d 01bc e83c
00000080: 94a2 7dbd 16f7 d43d 7db5 853c 7aea c03c
00000090: 0b3d 34bd 948e 553d d231 2a3c 9cc6 57bd
000000a0: ce53 02bd 0594 f43d 5a22 c73d 1204 0c3d
000000b0: e6ba 11bd b251 5f3d 8288 d6bc 40a2 86bc
000000c0: c008 ce3d a07e dcbc 3845 db3d 5e91 72bc
000000d0: 764f cf3d 5eeb 313d 57d5 16bd 4adc 47bc
000000e0: db00 c53d 5e7b c23d 345e c9ba f9ed 6abc
000000f0: 1929 28bd 8262 d73c 03b7 5a3c e2b0 443d
00000100: ca9a c23c a872 d23d 6257 47bb 0a0f 50bd
00000110: e478 40bd 1dd4 2e3d dc06 df3d a804 aa3d
00000120: 2aae 8bbd 5855 51bd 1d06 033c a87e df3d
00000130: 8027 283d 3c84 473d 0627 913d af34 913c
00000140: 762f e13c aac0 7539 28d9 5dbd bd9c 02bd
00000150: 9999 773d c2fd 53bd e09f b53d a839 2dbd
00000160: be27 a63d 55e6 853d 5872 443d 2612 9d3d
00000170: 34e8 a53c 6027 963d 7d30 4ebc d2b4 ab3d
00000180: 1c9b cf3d 0f20 853d 3680 38bd 7c81 06bd
00000190: faca a13d 1cbf 85bb 6b69 c23d 227c d839
000001a0: 02ed 8bbc e27d 353c 467f 2c3d 34eb f63c
000001b0: b575 2f3d 8c42 593d ceb6 96bd a63e c33d
000001c0: c8d4 7cbd 71b5 903d cad1 88bd f46a d43d
000001d0: 7407 2cbd aa16 3bbd 86b0 9f3d d6ef 613d
000001e0: b35d c13d fdc6 e7bc bfc2 efbb 6412 bf3d
000001f0: ecaa df3b 162a 413d 228b c33c e641 e0bc
00000200: baf2 673d e90e c5bc df73 a43d 88b4 90bd
00000210: 6364 6e3d 83a7 cf3d 6e4d 53bd 16fb 343d
00000220: 3359 e13d c647 a33d 4ab8 15bd 2a44 d03d
00000230: dc23 4bbd d011 7dbd fe5f 0c3c 0081 713c
00000240: 1bd3 633d 5eac a23d abd8 9dbc 3086 543d
00000250: 4c0b 12bd 8202 043b acda 913c 128f 2cbb
00000260: 89ac 683d 7cee 123d e6b1 583d 1f7d 1fbc
00000270: 6877 ab3d d483 543d 40c1 503b 642c ba3d
00000280: 6e61 50bd bafa 2e3d f8db 833d d2c1 db3d
00000290: 3ebc 84bd fac8 483d 00aa d43d fda0 c53d
000002a0: a553 de3d 3c4e 03bc bcac 6fbc 0c7d 32bd
000002b0: 774e a2bc 5221 463c 3013 323c 2eb6 1b3d
000002c0: 0c4f 963c 8ca7 033e eeb3 ce3d de13 52bd
000002d0: 60e2 763d aed6 193c e2e5 60bc 84d2 303c
000002e0: 1ad8 b13d ef34 1abd da2a b5bb cca0 49bd
000002f0: b62e b83d f6f4 16bd 09d2 54bd e0c4 54bd
00000300: 04c6 4538 2289 bb3c f39e a03d 6ce9 bc3d
00000310: b019 083d 0299 123c ae39 273c d84e bc3d
00000320: 257b 8f3c 674d 193d e863 d0bb b2cd d73d
00000330: b634 123d df5f 02bd 728e 873d 184a a0bd
00000340: a9a3 ba3d f2b5 763d 6fb0 8a3c 3244 9d3d
00000350: 4a6e f73d e430 683d 7651 b43c 8a68 ccbb
00000360: 9aaf ecbc 7e3c 01bd 868f 883d 46b4 9a3b
00000370: 294e 65bc c486 c83d 2ef1 433d 8279 cb3c
00000380: c1b0 47bc c316 d5bc ea19 ad3d a2cf 883d
00000390: 9961 ab3c de01 943d c67c 073d ee1e a73d
000003a0: d7f2 9b3c 33cd 6c3c be0f 783d c462 7cbd
000003b0: 0813 863b 165a 3fbd 2815 c8bc 3474 10bd
000003c0: 1f01 d3bc 9a08 2dbd 757a 70bd 60cc cd3d
000003d0: c2dd 11bd 539d ec3c bd8f 0bbc f4c5 553c
000003e0: 8985 aa3d 96d4 813d 667c 313d 83a7 a63d
000003f0: 2023 6fbd 80a4 34bc ecb4 da3c bc41 a53d
-0.07069545 -0.049313266 -0.058083314 0.015079499 0.08170469 0.06950253 0.09129329 0.010681573
0.038092963 -0.048251696 0.10338131 0.043974005 0.08254428 -0.063250154 0.040500052 0.08275253
0.09058073 -0.0018713025 -0.018334646 0.106449366 -0.035250824 0.09264127 -0.026900737 -0.02464477
0.042329624 -0.002202088 -0.040950827 0.061487596 0.11846767 0.0069781444 0.11203842 0.02840996
-0.061922625 0.103986904 0.016321892 0.023549307 -0.044003528 0.052137926 0.010387855 -0.052679643
-0.031818204 0.11942295 0.09723349 0.03418357 -0.03557863 0.05452127 -0.026188139 -0.016434789
0.10060263 -0.026915848 0.10706562 -0.014805166 0.10122578 0.043437354 -0.03682455 -0.012198517
0.09619304 0.09496187 -0.0015363158 -0.014338964 -0.04105482 0.02629209 0.013349297 0.04802025
0.02375545 0.10275775 -0.0030417074 -0.050795592 -0.04699029 0.042682756 0.1088998 0.08301669
-0.068203285 -0.05110678 0.007997063 0.1091283 0.041053295 0.048710093 0.07087521 0.017725317
0.027488451 0.00023436794 -0.054162174 -0.03188776 0.060449217 -0.051755674 0.08868384 -0.042291313
0.08113049 0.06538073 0.04796061 0.07669477 0.020252325 0.07331729 -0.012584803 0.08384098
0.10137007 0.06500255 -0.045044146 -0.03283833 0.07900043 -0.00408162 0.09492763 0.00041291217
-0.017080788 0.011077376 0.042113565 0.03014145 0.042836864 0.05304198 -0.07359086 0.095334336
-0.06172636 0.07065857 -0.06680639 0.10371962 -0.041999295 -0.04567591 0.07797341 0.055160366
0.094417 -0.028293127 -0.0073169167 0.093296796 0.0068257954 0.047159277 0.023870055 -0.027375173
0.056627966 -0.024054961 0.08029913 -0.070656836 0.058201205 0.10139372 -0.051587515 0.044184767
0.110033415 0.07972674 -0.036552705 0.10169251 -0.049594745 -0.061784565 0.008567808 0.014740229
0.055621248 0.07943033 -0.019268354 0.051885784 -0.035655305 0.0020143096 0.017804466 -0.0026330394
0.056805167 0.035871968 0.052904032 -0.009734421 0.08372384 0.051883534 0.0031853467 0.09090498
-0.050874166 0.04271958 0.0643844 0.10730328 -0.06481217 0.04901979 0.103839874 0.09649847
0.10855798 -0.008014258 -0.014628585 -0.043576285 -0.019812806 0.012092905 0.0108688325 0.038015537
0.01834824 0.12856883 0.100929126 -0.051288478 0.06027448 0.0093895625 -0.013726683 0.010792378
0.08683796 -0.037648138 -0.00552879 -0.049225613 0.089932844 -0.036854707 -0.051958118 -0.051945567
4.7152877e-05 0.022892538 0.07842817 0.09224209 0.033227623 0.008947613 0.010206623 0.09194726
0.017514775 0.037427332 -0.006359566 0.1053728 0.0356948 -0.03182971 0.06618966 -0.07826632
0.09113247 0.06023211 0.016929833 0.07679023 0.12081583 0.05668725 0.0220115 -0.006238048
-0.028892327 -0.03155183 0.06668 0.0047211973 -0.013995686 0.097913295 0.04783743 0.024838213
-0.0121881375 -0.02601183 0.08452208 0.06680228 0.020920562 0.07226919 0.033077978 0.08160196
0.019036693 0.01445322 0.060561888 -0.061617628 0.004091624 -0.046716772 -0.02442415 -0.03526707
-0.02575737 -0.04224453 -0.058710534 0.10048747 -0.035611875 0.028883612 -0.008518157 0.013047684
0.08326251 0.06339376 0.043331526 0.08137419 -0.058383107 -0.011025548 0.026697598 0.080691785
