seqlstm/model_epoch_200.pt (torch, 811240 bytes, 10 tensors)

lstm.weight_ih_l0 f4 [512, 5]
0.00035420622 0.0070181135 -0.096202835 0.028653964 -0.06423826 0.10313636 0.04977692 0.011354735
0.10839835 0.048399188 -0.05652986 -0.089966 0.023384 -0.06308591 -0.060892962 0.054657217
-0.029800702 0.033381123 0.06740859 0.03316087 0.058717508 0.043336786 -0.0034780747 0.07372472
0.12539023 0.06496701 0.052889824 -0.08214549 -0.04575798 -0.06308122 0.05378411 -0.016458252
-0.06264463 0.06322655 0.08223578 0.0051148133 0.007880082 -0.07740219 0.015157398 -0.0491135
-0.0007061041 -0.04044974 -0.0043250895 -0.11512883 0.020328704 0.05286213 -0.05165434 0.06515172
-0.08500463 -0.044747937 -0.017072778 -0.020452246 -0.04184106 -0.038497724 0.0061322143 0.025714837
0.0026745684 0.029503278 -0.04877577 0.0046726633 -0.015241303 0.0145365205 0.005958948 -0.068069324
0.07795188 0.071968436 0.08158636 -0.06604037 0.011795149 0.14924122 -0.0081285015 0.025047641
-0.008155544 0.026223943 0.053774282 -0.04317483 -0.09070931 -0.05226156 -0.105868526 0.061750643
0.022385683 -0.09351109 -0.070909284 -0.083827995 -0.015849086 -0.009966969 -0.09720491 0.05296754
-0.07110368 -0.063112 -5.838205e-05 0.030893963 0.030135307 -0.030686283 0.049558956 -0.09555192
-0.041469205 0.014355802 -0.08076091 0.04656931 -0.015276365 -0.07703003 -0.048974425 0.051859125
7.634767e-05 -0.10803312 0.062499918 -0.10085483 -0.110296845 -0.048672616 -0.074723825 -0.03863609
0.00014977675 -0.08773345 0.0066273827 0.022932086 -0.00030875334 -0.06956412 -0.08675831 -0.0046606464
-0.047387157 -0.02793238 -0.07254107 -0.078336254 0.10758429 -0.10470311 -0.09398125 0.002316877
0.036062088 0.06428824 -0.04910323 0.08723812 0.04845483 0.031913944 0.083655566 -0.051235482
-0.008025448 0.036037937 0.06605425 0.08603611 0.009211119 -0.03116395 -0.04908301 -0.05119256
0.028110385 0.06875643 0.062064964 0.026509726 -0.042357504 0.10732488 0.032492302 -0.04600725
0.028714903 0.004797968 0.12398504 0.049013153 -0.054618172 -0.07659865 0.008572942 0.09458028
0.0110212285 0.03685173 -0.015983293 -0.09443576 -0.03095011 0.07683669 -0.009388883 0.08964086
-0.018419355 0.09385237 0.054271113 -0.062356535 -0.03814762 -0.004994805 0.10909442 0.0055363174
-0.054458752 -0.028165933 0.04578291 0.065273196 -0.018833054 -0.08864358 0.0446224 -0.000742903
0.07065493 0.08741736 -0.008823171 0.069613844 -0.08310978 0.08784674 0.08148362 -0.0011804339
0.0450086 0.06499548 0.021147352 -0.037018165 0.08708939 0.08312341 0.09028191 0.10701269
-0.062379032 -0.007458862 0.008108121 0.011869119 0.08574322 -0.09057293 0.008400628 0.018318474
0.0121324845 -0.02709873 -0.07787529 -0.08904627 0.05526737 0.042922698 0.03611996 0.06395383
-0.06832143 -0.008710306 -0.0920687 -0.04084545 0.04556664 -0.029955175 0.058100354 -0.0427578
0.014335126 -0.012371117 0.033256263 0.008924937 0.085843846 0.053916655 0.01172548 0.037520412
-0.011395965 -0.059886225 0.07578844 0.03004932 0.025515653 -0.046992954 -0.050405003 -0.011914619
0.05604203 -0.06786916 -0.027670585 -0.09640619 0.038185555 -0.0869173 -0.034324713 -0.022238584
0.04397632 -0.06929539 0.029116418 -0.067802146 0.04853516 -0.037198864 -0.10292032 0.0144996885
00000000: c1b4 b939 34f8 e53b fe05 c5bd b8bb ea3c
00000010: 598f 83bd 2839 d33d e2e2 4b3d 3609 3a3c
00000020: f4ff dd3d 3a3e 463d db8b 67bd 1840 b8bd
00000030: cd8f bf3c 3033 81bd e66a 79bd 3fe0 5f3d
00000040: 9a20 f4bc a5ba 083d 840d 8a3d b1d3 073d
00000050: c581 703d ea81 313d 69f0 63bb fcfc 963d
00000060: 4c66 003e 6c0d 853d 00a3 583d e53b a8bd
00000070: b86c 3bbd ba30 81bd ba4c 5c3d 75d3 86bc
00000080: d44b 80bd ec7c 813d 3c6b a83d 2a9a a73b
00000090: 761b 013c 0a85 9ebd bc56 783c 3d2b 49bd
000000a0: d819 39ba a0ae 25bd 7bb9 8dbb aac8 ebbd
000000b0: 6288 a63c f685 583d 8093 53bd 446e 853d
000000c0: e816 aebd 9d49 37bd 36dc 8bbc 788b a7bc
000000d0: 8861 2bbd caaf 1dbd bef0 c83b eca7 d23c
000000e0: d047 2f3b dcb0 f13c 1ac9 47bd 241d 993b
000000f0: a8b6 79bc 962a 6e3c 4743 c33b ee67 8bbd
00000100: 3ca5 9f3d 3064 933d c016 a73d 2c40 87bd
00000110: 7140 413c b1d2 183e 682d 05bc b630 cd3c
00000120: d59e 05bc 98d3 d63c 6c42 5c3d 17d8 30bd
00000130: cdc5 b9bd 3810 56bd 99d1 d8bd 3eee 7c3d
00000140: 2e62 b73c be82 bfbd e338 91bd 03ae abbd
00000150: f1d5 81bc 7f4c 23bc 5e13 c7bd 7ef4 583d
00000160: ce9e 91bd dd40 81bd 40df 74b8 5615 fd3c
00000170: 52de f63c cd61 fbbc 55fe 4a3d bab0 c3bd
00000180: 9ddb 29bd 9934 6b3c fa65 a5bd 76bf 3e3d
00000190: b849 7abc ecc1 9dbd 6899 48bd 3c6a 543d
000001a0: d81c a038 7840 ddbd eaff 7f3d fa8c cebd
000001b0: 50e3 e1bd f05c 47bd ce08 99bd e040 1ebd
000001c0: 640d 1d39 98ad b3bd 842a d93b 12dc bb3c
000001d0: 2ce0 a1b9 a277 8ebd 57ae b1bd 56b8 98bb
000001e0: 0919 42bd 72d2 e4bc 6a90 94bd c26e a0bd
000001f0: 2755 dc3d 966e d6bd 3e79 c0bd bfd6 173b
00000200: d7b5 133d 8ea9 833d 7820 49bd e6a9 b23d
00000210: 9278 463d 32b8 023d 9c53 ab3d 4cdc 51bd
00000220: 2b7d 03bc 849c 133d 7347 873d b333 b03d
00000230: 3cea 163c 8a4b ffbc 440b 49bd 4aaf 51bd
00000240: c047 e63c 2cd0 8c3d d537 7e3d ed2a d93c
00000250: 107f 2dbd 26cd db3d a616 053d 1972 3cbd
00000260: 843b eb3c 4638 9d3b deeb fd3d 04c2 483d
00000270: 4eb7 5fbd c1df 9cbd 8675 0c3c 4eb3 c13d
00000280: 6292 343c d7f1 163d 65ef 82bc 8967 c1bd
00000290: 168b fdbc 8e5c 9d3d d4d3 19bc a195 b73d
000002a0: 30e4 96bc ac35 c03d 634b 5e3d 9169 7fbd
000002b0: ae40 1cbd 76ab a3bb e56c df3d ff69 b53b
000002c0: 2410 5fbd 3ebc e6bc dc86 3b3d f4ad 853d
000002d0: c747 9abc c48a b5bd fac5 363d 60bf 42ba
000002e0: 88b3 903d df07 b33d 108f 10bc b491 8e3d
000002f0: 7635 aabd fee8 b33d e2e0 a63d cab8 9aba
00000300: f05a 383d 5a1c 853d 363d ad3c 5ca0 17bd
00000310: ec5b b23d 9b3c aa3d b9e5 b83d 7829 db3d
00000320: 2881 7fbd 7869 f4bb edd7 043c b176 423c
00000330: 249a af3d 4d7e b9bd caa2 093c a010 963c
00000340: 54c7 463c 28fe ddbc 147d 9fbd e45d b6bd
00000350: 0a60 623d b6cf 2f3d 86f2 133d 3afa 823d
00000360: 1bec 8bbd acb5 0ebc 848e bcbd 8f4d 27bd
00000370: 16a4 3a3d 8e64 f5bc a3fa 6d3d ce22 2fbd
00000380: e0dd 6a3c 3ab0 4abc b837 083d e639 123c
00000390: e6ce af3d b6d7 5c3d 3a1c 403c 01af 193d
000003a0: 24b6 3abc 424b 75bd f836 9b3d fe29 f63c
000003b0: 3406 d13c af7b 40bd 7a75 4ebd 8935 43bc
000003c0: 548c 653d fcfe 8abd 6cad e2bc 9c70 c5bd
000003d0: 7568 1c3d b301 b2bd 1298 0cbd b12d b6bc
000003e0: 8420 343d beea 8dbd 8e85 ee3c dadb 8abd
000003f0: cecc 463d d65d 18bd e4c7 d2bd 1a90 6d3c

lstm.weight_hh_l0 f4 [512, 128]
-0.0133931115 0.052735988 -0.1200819 0.09557682 -0.031061996 -0.017558303 0.040923234 0.013789881
0.0008504739 -0.025246706 -0.13623025 -0.034388192 0.046664886 0.032345064 -0.059673782 0.006594559
-0.13121015 -0.017370863 -0.119566776 -0.05677005 0.049107365 0.069639415 0.044534072 0.0051436196
0.06547652 0.034501433 -0.04366278 -0.086106494 -0.06715336 0.010836737 0.011229524 0.022854956
-0.08655002 0.0060807006 0.005403651 0.01256757 -0.07516037 -0.024468882 0.060467772 -0.08788839
0.027122928 0.12666015 -0.00046840945 0.12128895 -0.002935264 -0.10863018 0.025418263 -0.045396578
-0.0090591675 0.07314652 0.08670096 -0.096290566 -0.11691734 2.0858002e-05 -0.06661916 -0.018780282
0.101319395 0.032918297 -0.13121401 -0.008108506 -0.030398179 0.019666195 -0.03430839 -0.041842163
0.004136394 0.045491207 0.042231247 -0.012602565 0.024217837 0.011401661 -0.08602974 -0.017489605
0.06605974 0.041286454 -0.10038103 -0.028903242 0.025264341 0.10077305 -0.04853724 -0.06396759
-0.08816251 -0.13172343 -0.0037010575 -0.041770093 0.09909011 -0.05041658 0.13436323 0.030194238
-0.114861004 -0.030385993 -0.021126978 0.0010058939 -0.014991786 -0.0064688334 0.11851517 -0.023342727
0.03744804 0.09161337 -0.12695971 -0.040286258 0.062002342 0.04256449 0.09604074 0.08976005
0.03131697 0.02278772 0.0039813686 -0.029552646 0.011285417 -0.016861588 -0.09301451 -0.0056001544
0.089540444 0.0021803994 0.04419116 -0.0021756333 -0.037524864 0.007887868 0.03942232 -0.0060857055
0.037339658 0.014812923 0.106843896 0.048855335 0.096501976 -0.053222477 0.13186258 -0.048868995
0.054689325 -0.018532388 0.06465872 -0.022350043 0.09104775 -0.05388047 -0.09299508 0.022123005
-0.0057209227 -0.070339575 0.09251407 0.010835858 -0.030308288 0.095280714 -0.057309546 0.07243305
0.03695313 0.010811338 -0.012316892 -0.03084924 -0.056728143 0.017227702 0.061913557 -0.09936702
-0.028004285 -0.009232761 -0.04890167 -0.061480056 0.075625 -0.022172 0.00073210686 0.037120152
0.050673924 -0.0022956603 -0.057273313 -0.034772545 0.017882127 0.011054736 0.07688451 -0.0123985745
0.06419647 0.01630425 0.07404665 -0.08956939 -0.05480846 0.048135422 0.09856768 -0.037279494
0.09049511 -0.066255584 0.037054162 -0.004469293 0.018835843 0.05457897 0.008071693 -0.012968392
0.05176732 -0.014049271 0.06568879 -0.020701833 -0.07220729 -0.04364097 0.051726483 -0.08332847
0.08101283 -0.030555412 -0.0125371665 -0.08273323 -0.01039707 -0.09381582 0.03281959 -0.023619222
-0.036566027 -0.013152469 0.049203575 0.0067812726 -0.0031302958 -0.030114777 -0.05074563 -0.050923526
0.08873251 0.022177257 -0.010217183 0.057073347 -0.008128822 -0.032587625 -0.08560992 -0.009867478
0.040290747 0.11707173 0.0779881 -0.09342709 0.04690995 -0.06707237 -0.020368837 0.044329137
0.00183757 -0.06631387 0.04415919 -0.08223117 0.10132998 -0.0038314788 -0.03913945 0.096255735
-0.007684011 -0.023477554 -0.064186245 0.04097022 0.02937923 0.040450588 0.062344056 -0.02383423
-0.031112418 0.07942406 0.086371794 0.08145469 -0.069424696 -0.047177702 0.07693243 -0.013414398
-0.020531125 -0.030435007 -0.039702546 0.0031083268 0.04708408 0.00022354872 -0.1102979 -0.021805823
00000000: c86e 5bbc b101 583d 80ed f5bd c8bd c33d
00000010: ba75 febc 6ed6 8fbc 1f9f 273d f4ee 613c
00000020: 56f2 5e3a 2ed2 cebc f17f 0bbe a2da 0cbd
00000030: ae23 3f3d 427c 043d 7f6c 74bd 2c17 d83b
00000040: f45b 06be 574d 8ebc 6ddf f4bd b687 68bd
00000050: ce24 493d 1c9f 8e3d 5c69 363d cf8b a83b
00000060: 8e18 863d 6051 0d3d bed7 32bd 9a58 b0bd
00000070: b387 89bd 928c 313c 0afc 373c 513a bb3c
00000080: 2341 b1bd 9d40 c73b 1c11 b13b 36e8 4d3c
00000090: aeed 99bd f772 c8bc 0ead 773d d4fe b3bd
000000a0: e730 de3c 33b3 013e da94 f5b9 5766 f83d
000000b0: 8f5d 40bb 8079 debd f639 d03c c3f1 39bd
000000c0: e76c 14bc d8cd 953d 4690 b13d fd33 c5bd
000000d0: 5c72 efbd 38f8 ae37 a06f 88bd 1bd9 99bc
000000e0: 8b80 cf3d 56d5 063d f75c 06be 8ad9 04bc
000000f0: 9a05 f9bc 001b a13c f486 0cbd b062 2bbd
00000100: 968a 873b fd54 3a3d acfa 2c3d fd7a 4ebc
00000110: 7c64 c63c 08ce 3a3c 5c30 b0bd 5c46 8fbc
00000120: 544a 873d fc1b 293d 9294 cdbd 7ec6 ecbc
00000130: 2af7 ce3c 1a62 ce3d fcce 46bd 7101 83bd
00000140: 8c8e b4bd 82e2 06be 718d 72bb 1e17 2bbd
00000150: c1ef ca3d 9e81 4ebd 8496 093e e859 f73c
00000160: 3f3c ebbd 0cec f8bc 7c12 adbc 33d8 833a
00000170: 1ca0 75bc 82f8 d3bb 15b8 f23d 3f39 bfbc
00000180: 1e63 193d ca9f bb3d ba01 02be 3403 25bd
00000190: 2bf6 7d3d 1a58 2e3d 02b1 c43d 1ed4 b73d
000001a0: 3946 003d 50ad ba3c 2476 823b 6418 f2bc
000001b0: 78e6 383c 5021 8abc 647e bebd 8081 b7bb
000001c0: fb60 b73d 08e5 0e3b ca01 353d 1295 0ebb
000001d0: acb3 19bd 1e3c 013c 4c79 213d 996a c7bb
000001e0: 78f1 183d e7b1 723c f9d0 da3d 881c 483d
000001f0: d4a2 c53d d0ff 59bd fc06 073e db2a 48bd
00000200: ea01 603d 3cd1 97bc ca6b 843d 7017 b7bc
00000210: 3e77 ba3d c5b1 5cbd 3474 bebd 4e3b b53c
00000220: 9476 bbbb 320e 90bd 0478 bd3d e288 313c
00000230: 1649 f8bc 8922 c33d 6abd 6abd c757 943d
00000240: 2a5c 173d 0a22 313c cacc 49bc 8cb7 fcbc
00000250: c55b 68bd 1c21 8d3c 1299 7d3d f080 cbbd
00000260: 3e69 e5bc 0245 17bc 1e4d 48bd 83d2 7bbd
00000270: 48e1 9a3d 0ea2 b5bc dcea 3f3a 4d0b 183d
00000280: 768f 4f3d ca72 16bb 6c97 6abd a86d 0ebd
00000290: 8a7d 923c ec1e 353c a075 9d3d 6423 4bbc
000002a0: 7079 833d 7e90 853c c5a5 973d 2870 b7bd
000002b0: d67e 60bd a629 453d dadd c93d 62b2 18bd
000002c0: 8055 b93d 02b1 87bd 1bc6 173d 2673 92bb
000002d0: a04d 9a3c 338e 5f3d 223f 043c 6179 54bc
000002e0: f809 543d ea2e 66bc d887 863d e496 a9bc
000002f0: 6ae1 93bd e0c0 32bd 26df 533d 1ea8 aabd
00000300: 0eea a53d 584f fabc b068 4dbc 0a70 a9bd
00000310: 7958 2abc 8222 c0bd d66d 063d 197d c1bc
00000320: 42c6 15bd 747d 57bc b089 493d 7035 de3b
00000330: a625 4dbb 44b3 f6bc a6da 4fbd 3095 50bd
00000340: 64b9 b53d 14ad b53c f965 27bc bec5 693d
00000350: c02e 05bc 9a7a 05bd 4154 afbd 34ab 21bc
00000360: e907 253d 4ec3 ef3d 3ab8 9f3d b456 bfbd
00000370: a624 403d 3d5d 89bd 8cdc a6bc 7892 353d
00000380: 9eda f03a 91cf 87bd 44e0 343d d168 a8bd
00000390: 1886 cf3d 8c19 7bbb b050 20bd ba21 c53d
000003a0: 28ca fbbb 0054 c0bc 1474 83bd 64d0 273d
000003b0: b6ac f03c 84af 253d 7b5c 7f3d 0140 c3bc
000003c0: 78df febc 15a9 a23d b2e3 b03d b7d1 a63d
000003d0: 892e 8ebd 683d 41bd c08e 9d3d 10c8 5bbc
000003e0: e430 a8bc d652 f9bc 239f 22bd 12b5 4b3b
000003f0: 3cdb 403d 6768 6a39 dee3 e1bd 20a2 b2bc

lstm.bias_ih_l0 f4 [512]
0.013171187 0.019600727 -0.035338156 0.07827962 -0.062336124 -0.05588516 0.0048737107 0.04199773
-0.011198238 0.09276569 0.07671947 -0.024900459 0.042332374 -0.060567435 0.09511093 0.014870714
-0.03598439 -0.052449293 0.038283285 -0.033172544 -0.038516637 -0.03705492 0.035756126 -0.0336775
-0.045265425 -0.07120359 0.07828683 0.038729288 -0.006603254 -0.046546407 0.0316123 -0.016356252
0.09508644 0.07392324 0.09409292 0.11662332 -0.037455596 -0.011778867 0.004888215 -0.067519456
0.07035817 -0.03125911 0.043603957 0.041230313 0.014011393 0.024919728 0.003044971 0.0005882422
0.062407084 -0.05480352 0.030836346 0.0044372613 -0.019521458 0.0056912526 -0.012398736 0.07950021
0.05472216 -0.02873849 -0.04566378 -0.026993748 0.05626373 0.028028633 0.071033604 0.048375435
-0.0033409647 -0.0015296654 0.012021158 0.07340324 0.05309262 0.052109025 -0.050502613 -0.024092656
0.027462166 0.032090507 0.014678514 0.011204783 -0.046266127 -0.023841027 0.02323726 0.04495702
-0.010307288 -0.012254277 0.021306986 -0.061232008 0.057734467 -0.026645526 0.08420177 0.06814704
0.02570171 0.051029127 0.025673736 -0.059748605 0.043461513 0.04609395 0.06003157 0.07047665
0.050594512 0.0038111089 -0.027327418 -0.04017129 -0.0020483858 0.07325664 0.08078486 0.047164343
-0.025823895 -0.028071003 0.027663214 -0.06984311 -0.01666367 -0.04718761 0.06623338 0.019588754
0.022296453 0.06942125 0.016798839 -0.034632422 -0.08209588 0.112200946 0.09402554 0.053896762
0.048130892 0.028892282 0.07738124 -0.02715502 -0.03089923 0.07263754 0.057362504 -0.007080506
-0.046779472 -0.034385644 0.0804954 -0.01998404 0.028478067 -0.050587673 0.05028935 -0.05879848
-0.019988388 0.008420153 -0.058579996 0.017797366 -9.9168334e-05 0.09732749 0.098393366 0.097729616
0.067822866 -0.01327805 -0.07759916 -0.08053939 0.0014013785 0.07215389 0.07516849 0.05520729
0.008313801 -0.0080567915 0.112756334 -0.028171428 -0.04873832 0.08945905 0.07586217 0.08483662
-0.04963547 0.09593783 -0.0033615762 0.07612935 -0.029146718 -0.030172464 0.1123775 -0.03580364
-0.059361942 0.012127108 0.015856864 -0.0031843912 0.020814218 -0.024791822 -0.07185787 -0.017445873
0.08354132 -0.016886652 0.026754953 0.0035273302 -0.0037246249 -0.089265734 0.029509192 -0.010822469
0.055795103 -0.06444075 0.0949222 -0.05508854 -0.015292356 0.0085529415 -0.0051396913 0.004515878
-0.06740075 0.08700486 0.041222624 -0.058782965 0.08971582 0.039582822 0.06272475 0.0058896923
0.019033194 -0.013811946 0.050280433 -0.045801412 0.06880349 -0.020117998 0.038763016 0.014443335
0.08440034 0.091535434 -0.031091532 -0.005847767 -0.025611654 -0.053627364 0.08205402 -0.02854282
0.07205139 -0.038607955 -0.04787545 0.014950382 -0.015851589 0.031177565 0.089241914 0.054631833
0.032424267 0.012716375 0.042541403 -0.08288482 0.07287574 0.025925595 -0.05442968 0.026416047
0.057903357 0.08332603 0.086726695 -0.030872513 0.018758995 0.1009452 -0.07465969 0.037462264
0.016991489 -0.010647349 -0.020853296 0.059022225 0.066193536 -0.0598332 0.08265233 -0.06586777
-0.020523727 0.08567644 0.08000502 0.073265016 0.101793036 0.037992205 0.047306046 -0.05864358
00000000: f6cb 573c b491 a03c bebe 10bd 1151 a03d
00000010: 2a54 7fbd d6e7 64bd a6b3 9f3b d005 2c3d
00000020: d078 37bc f0fb bd3d 191f 9d3d 0cfc cbbc
00000030: b664 2d3d 8f15 78bd 85c9 c23d 4ca4 733c
00000040: 5e64 13bd 12d5 56bd efce 1c3d efdf 07bd
00000050: 9fc3 1dbd e6c6 17bd 0475 123d 6bf1 09bd
00000060: 3d68 39bd 30d3 91bd d854 a03d 9aa2 1e3d
00000070: 1c60 d8bb 72a7 3ebd e67b 013d 8cfd 85bc
00000080: aebc c23d 1165 973d cab3 c03d 35d8 ee3d
00000090: 0a6b 19bd 26fc 40bc 522d a03b a447 8abd
000000a0: f217 903d 8d09 00bd 109a 323d 1ee1 283d
000000b0: 0b90 653c 7524 cc3c 238e 473b 4434 1a3a
000000c0: 929e 7f3d a879 60bd 819c fc3c 7266 913b
000000d0: 77eb 9fbc b07d ba3b 1124 4bbc 02d1 a23d
000000e0: 5824 603d fb6c ebbc f209 3bbd fe21 ddbc
000000f0: cc74 663d 4e9c e53c 117a 913d 5225 463d
00000100: 16f4 5abb 0e7f c8ba 64f4 443c 7054 963d
00000110: a677 593d 4670 553d d4db 4ebd f65d c5bc
00000120: 56f8 e03c 5671 033d 267e 703c 4494 373c
00000130: 8d81 3dbd 424e c3bc 115c be3c da24 383d
00000140: e6df 28bc 2ac6 48bc fd8b ae3c 6ace 7abd
00000150: fa7a 6c3d b847 dabc fa71 ac3d ad90 8b3d
00000160: 648c d23c eb03 513d ba51 d23c f4ba 74bd
00000170: b304 323d 02cd 3c3d aae3 753d 1056 903d
00000180: 313c 4f3d ccc3 793b c0dd dfbc a78a 24bd
00000190: 363e 06bb 9407 963d 8872 a53d 662f 413d
000001a0: a28c d3bc 29f5 e5bc f79d e23c e809 8fbd
000001b0: 4082 88bc cc47 41bd 5ea5 873d 9878 a03c
000001c0: 0da7 b63c ba2c 8e3d b89d 893c bada 0dbd
000001d0: e221 a8bd 9cc9 e53d 7690 c03d dac2 5c3d
000001e0: e624 453d 82af ec3c 0e7a 9e3d 3474 debc
000001f0: 6220 fdbc fec2 943d f2f4 6a3d 9703 e8bb
00000200: d59b 3fbd f6d7 0cbd c6da a43d 92b5 a3bc
00000210: d64a e93c 0535 4fbd 35fc 4d3d add6 70bd
00000220: b0be a3bc aef4 093c 94f1 6fbd c8cb 913c
00000230: 98f8 cfb8 a353 c73d 7682 c93d 7726 c83d
00000240: b7e6 8a3d 2e8c 59bc 4fec 9ebd d6f1 a4bd
00000250: 76ae b73a 6bc5 933d f0f1 993d 0a21 623d
00000260: 9c36 083c a200 04bc cbec e63d c4c7 e6bc
00000270: d5a1 47bd 4e36 b73d a05d 9b3d d2be ad3d
00000280: 904e 4bbd 0e7b c43d e44d 5cbb b4e9 9b3d
00000290: 19c5 eebc 3e2c f7bc 2d26 e63d d6a6 12bd
000002a0: 8225 73bd c7b0 463c 41e6 813c 38b1 50bb
000002b0: 9482 aa3c 3818 cbbc 382a 93bd a6ea 8ebc
000002c0: b617 ab3d e055 8abc 342d db3c c82a 673b
000002d0: d618 74bb f4d0 b6bd 43bd f13c ba50 31bc
000002e0: 6889 643d 83f9 83bd 9266 c23d 85a4 61bd
000002f0: ca8c 7abc a321 0c3c db6a a8bb eef9 933b
00000300: 6809 8abd 9b2f b23d 0ed9 283d 68c6 70bd
00000310: eebc b73d 9921 223d d575 803d 52fe c03b
00000320: 80eb 9b3c 804b 62bc dbf2 4d3d 439a 3bbd
00000330: d8e8 8c3d 80ce a4bc f8c5 1e3d bda3 6c3c
00000340: 16da ac3d ee76 bb3d abb3 febc a09e bfbb
00000350: 88cf d1bc 5ea8 5bbd f00b a83d a2d2 e9bc
00000360: ae8f 933d 6023 1ebd 0c19 44bd 72f2 743c
00000370: 31db 81bc 1868 ff3c 77c4 b63d a1c5 5f3d
00000380: 4fcf 043d 5858 503c e53f 2e3d 84bf a9bd
00000390: e03f 953d ea61 d43c a8f1 5ebd 7766 d83c
000003a0: 122c 6d3d d6a6 aa3d c49d b13d 5ae8 fcbc
000003b0: 77ac 993c 5bbc ce3d 2ee7 98bd 0872 193d
000003c0: bc31 8b3c 3872 2ebc 88d4 aabc 4ac1 713d
000003d0: 7a90 873d a813 75bd a045 a93d aee5 86bd
000003e0: 6021 a8bc 2177 af3d acd9 a33d f80b 963d
000003f0: de78 d03d b79d 1b3d fcc3 413d 4034 70bd

lstm.bias_hh_l0 f4 [512]
0.019515872 0.03675141 0.0089674685 0.0823124 0.09578182 -0.044895664 -0.050449796 0.004940507
0.014820781 0.0024622264 -0.024810163 0.092581674 -0.044523172 -0.010780952 0.039208837 0.10018459
0.007477058 -0.045492478 0.06499087 0.092985466 -0.00020939234 -0.06291915 -0.06750298 0.03355397
-0.024159743 0.093163624 0.058747716 -0.06896669 -0.063969076 -0.05783718 0.048641667 0.091063276
0.025427703 0.05279093 0.10990742 0.108440034 0.06540522 0.0146959815 -0.02208196 0.06527054
0.030812204 -0.009754783 0.0877052 0.05051505 -0.07099175 -0.0042509786 -0.017429488 -0.06723793
-0.011840647 -0.060840383 0.05773733 0.020789474 -0.036146678 0.05160887 -0.007537801 0.069920674
-0.06500633 -0.061586708 0.08805024 -0.007682626 0.03078676 0.11124175 -0.004845394 0.051009096
-0.028502062 -0.034215026 0.0786342 -0.007736044 0.010592438 -0.033450216 0.02244559 -0.009094948
0.045816712 -0.0066063968 0.002826861 0.06463414 0.0002577266 0.015567233 -0.008456312 -0.04338389
-0.0043886635 -0.005196549 -0.058758624 -0.0036806955 0.02081383 0.013604506 0.027487777 -0.011503842
0.0025187177 0.011060887 -0.06207724 0.09243074 -0.008209819 0.010878719 0.06351109 0.04642989
0.11985451 0.070319474 0.051481888 0.036054272 -0.033937715 0.008263541 -0.0009433682 0.10633059
-0.028856702 0.07992851 0.092644304 -0.052850265 -0.050331913 0.077553585 0.016869232 0.11276071
0.022065917 -0.011121472 0.042884506 0.07988599 0.08227809 0.08976826 0.043719955 0.028677883
-0.04549323 -0.008200617 -0.010975096 -0.024628941 0.05736509 0.01656419 0.05457569 0.033535734
0.065222226 -0.03672698 0.005460076 -0.04782045 -0.016476166 0.03198864 0.03456733 -0.026903152
-0.025617752 -0.030136745 0.029190525 -0.015456803 -0.016339906 0.009403782 -0.058899835 0.11603118
0.011323265 -0.06647735 0.034027234 0.07186569 0.095237836 -0.015783988 0.0114636095 -0.009048329
0.00030051143 0.077734254 0.06331619 -0.053318612 0.037012327 0.05298408 0.047655422 0.08223276
0.027404554 0.05652114 0.04588703 0.09184189 0.013256051 -0.061615445 0.03572301 0.022294242
-0.057662576 0.067289524 0.046509676 0.07558876 -0.0092266705 0.029213324 -0.051066957 0.05154971
0.004771821 -0.023724355 0.07085593 0.069848865 0.077999294 -0.042919002 0.045442723 -0.0047644647
-0.016383361 0.08258737 -0.013840789 -0.05777205 0.028308613 -0.05210236 -0.06972163 -0.040452033
0.079834655 0.0019791366 -0.041027874 -0.033403367 -0.044125 -0.04341318 0.08265779 0.08026025
-0.068828106 0.09375635 0.047462966 0.05259647 -0.07330325 0.03457737 -0.0029788688 0.023037069
-0.057562094 -0.0263874 0.08220872 0.011282141 -0.029976152 -0.0451336 0.014014471 -0.042184085
0.059673913 -2.1210639e-05 -0.054785974 0.012765545 -0.02872167 0.08707462 -0.02838073 0.06315188
0.10391246 0.028689977 0.07529898 0.06207478 -0.011773592 0.05696752 0.059732042 0.016061103
0.1000018 0.0929251 -0.078647524 0.0035078018 0.06880096 0.056191124 0.030194044 -0.0063973786
-0.04080588 0.01481932 0.07727346 -0.017567115 -0.015671477 0.07132359 -0.03469675 -0.058017507
0.022767764 0.055454798 0.07640123 0.026511293 0.09598857 0.10034765 0.09116763 -0.07195215
00000000: c0df 9f3c a688 163d 4aec 123c 6793 a83d
00000010: 4229 c43d 84e4 37bd 72a4 4ebd fae3 a13b
00000020: dcd2 723c 4e5d 213b af3e cbbc 769b bd3d
00000030: ee5d 36bd 97a2 30bc 7299 203d 942d cd3d
00000040: 1c02 f53b 5256 3abd ef19 853d 2a6f be3d
00000050: 5490 5bb9 c1db 80bd 013f 8abd e36f 093d
00000060: a7ea c5bc 92cc be3d 72a1 703d 683e 8dbd
00000070: 3802 83bd aee6 6cbd 7c3c 473d 627f ba3d
00000080: c24d d03c 4d3b 583d 2417 e13d cf15 de3d
00000090: 2cf3 853d 6ac7 703c 3ae5 b4bc 90ac 853d
000000a0: e069 fc3c 86d2 1fbc c99e b33d dee8 4e3d
000000b0: 1f64 91bd cb4b 8bbb 49c8 8ebc 0ab4 89bd
000000c0: 46ff 41bc c433 79bd fb7d 6c3d b04e aa3c
000000d0: 8a0e 14bd d363 533d a8ff f6bb 9232 8f3d
000000e0: 0a22 85bd 5842 7cbd af53 b43d 8abe fbbb
000000f0: 8434 fc3c b7d2 e33d 1cc6 9ebb eaee 503d
00000100: 287d e9bc 0e25 0cbd f80a a13d a47e fdbb
00000110: e88b 2d3c 1803 09bd d0df b73c fa02 15bc
00000120: 4eaa 3b3d 797a d8bb dc42 393b e75e 843d
00000130: 7b1f 8739 b50d 7f3c 588c 0abc 4eb3 31bd
00000140: c7ce 8fbb d047 aabb e2ac 70bd d337 71bb
00000150: c481 aa3c 6fe5 5e3c 0c2e e13c 9c7a 3cbc
00000160: 1211 253b b938 353c b444 7ebd 544c bd3d
00000170: 7a82 06bc a83c 323c 1a12 823d 452d 3e3d
00000180: 4876 f53d a803 903d acde 523d a5ad 133d
00000190: 4602 0bbd ce63 073c 5e4c 77ba dac3 d93d
000001a0: e464 ecbc 8fb1 a33d 4cbc bd3d 8579 58bd
000001b0: d628 4ebd 6ad4 9e3d 5831 8a3c 16ef e63d
000001c0: 95c3 b43c d636 36bc aaa7 2f3d 449b a33d
000001d0: 6a81 a83d 6cd8 b73d b213 333d e1ed ea3c
000001e0: 1c57 3abd e15b 06bc e4d0 33bc a2c2 c9bc
000001f0: a8f7 6a3d a0b1 873c c28a 5f3d c45c 093d
00000200: 3b93 853d 086f 16bd 70ea b23b 60df 43bd
00000210: 06f9 86bc 8506 033d 7996 0d3d 0064 dcbc
00000220: 52dc d1bc 56e1 f6bc f820 ef3c 883e 7dbc
00000230: 44db 85bc 5212 1a3c f440 71bd c1a1 ed3d
00000240: 3785 393c 4725 88bd 2460 0b3d 522e 933d
00000250: 0e0c c33d 6c4d 81bc ddd1 3b3c 713f 14bc
00000260: f68d 9d39 2333 9f3d ebab 813d 9e64 5abd
00000270: 3d9a 173d d605 593d 5532 433d a669 a83d
00000280: 847f e03c b682 673d 0af4 3b3d 9a17 bc3d
00000290: e82f 593c 7a60 7cbd 4a52 123d 6aa2 b63c
000002a0: 982f 6cbd 17cf 893d ee80 3e3d 48ce 9a3d
000002b0: 762b 17bc c850 ef3c 962b 51bd ca25 533d
000002c0: f05c 9c3b 9459 c2bc ea1c 913d ec0c 8f3d
000002d0: 18be 9f3d d6cb 2fbd 2622 3a3d 3a1f 9cbb
000002e0: 6636 86bc 9123 a93d 7ac4 62bc 63a2 6cbd
000002f0: 77e7 e73c 4969 55bd 37ca 8ebd 08b1 25bd
00000300: 5a80 a33d 67b4 013b d80c 28bd f8d1 08bd
00000310: 6abc 34bd 05d2 31bd 7d48 a93d 7c5f a43d
00000320: c0f5 8cbd 5403 c03d 8768 423d 656f 573d
00000330: 0420 96bd 00a1 0d3d 2039 43bb 3cb8 bc3c
00000340: 3bc6 6bbd 642a d8bc 0c5d a83d bbd8 383c
00000350: 8c90 f5bc 02de 38bd f49c 653c 38c9 2cbd
00000360: a26c 743d 80ed b1b7 4267 60bd 9426 513c
00000370: b549 ebbc 2e54 b23d b47e e8bc c655 813d
00000380: 0ed0 d43d 3e07 eb3c 5a36 9a3d 2042 7e3d
00000390: 06e6 40bc c656 693d 96a9 743d 9392 833c
000003a0: becd cc3d 844f be3d f411 a1bd 26e3 653b
000003b0: 85e7 8c3d aa28 663d 8059 f73c 1aa1 d1bb
000003c0: 1124 27bd bccc 723c 8c41 9e3d e9e8 8fbc
000003d0: 7861 80bc 1a12 923d 2e1e 0ebd c4a3 6dbd
000003e0: 7683 ba3c 9224 633d 4078 9c3d 362e d93c
000003f0: a895 c43d 1283 cd3d 18b6 ba3d a65b 93bd

lstm.weight_ih_l1 f4 [512, 128]
0.067801386 0.087562114 -0.025968049 -0.06109232 0.083839245 0.080582 0.01253712 0.037886377
0.05039992 -0.039312813 0.09325886 0.026117569 0.06215354 0.05438614 0.064845994 0.06413773
0.018746838 0.028508477 -0.07242711 -0.0022880908 0.063087106 0.003324147 -0.06299091 0.031769566
-0.05228877 0.026266418 0.019540649 -0.006208189 0.059593596 -0.05265566 -0.10758246 0.079752326
-0.023934264 -0.061031178 0.04974188 -0.022608344 -0.005731277 -0.0148979165 -0.045969747 0.05614806
-0.06969561 0.065025926 -0.022785034 -0.04886052 0.0065516317 0.042670257 0.06687987 -0.06524612
0.030363262 0.009555938 -0.046448074 -0.042755015 0.055243853 -0.04998254 0.0030332517 0.05473513
0.073382914 0.04470145 0.038093977 -0.047946654 -0.07930006 -0.04557565 -0.004588254 0.035793148
0.0064923605 -0.03284373 0.080857284 0.04321567 -0.051447764 -0.018837193 0.0009256797 -0.033163488
0.011624879 0.0022984613 -0.031896643 -0.04839784 -0.051335737 0.00036977878 0.022625955 -0.00478173
-0.020249028 0.039718717 -0.010520645 0.07183203 0.0052021174 -0.003902458 -0.09306911 0.01090957
0.053230554 0.04452742 -0.07868841 -0.08767074 -0.0077968296 0.016853942 -0.014703434 0.060664177
0.032826386 -0.041883305 0.038732998 0.06573321 -0.012873534 0.05830446 0.08705611 -0.080839306
0.027242629 -0.012010727 -0.065950006 0.038587276 -0.102667704 -0.055521738 0.037205696 -0.017964318
-0.052769072 0.04212794 -0.04001697 -0.0039331773 0.0847404 -0.02805915 -0.032675885 0.0894682
-0.04463355 0.049180582 -0.10244809 -0.03316009 0.06579447 -0.10258284 -0.026925523 0.059267845
0.054432094 -0.096948564 0.07505736 0.03220226 0.019022593 0.078828834 0.053406738 0.061013732
-0.0320341 0.0437736 0.0005676111 0.039289147 0.06297614 -0.069532394 -0.077824816 0.00021480511
0.000752397 0.053635195 0.026354877 0.027023008 0.017629553 0.07631073 0.044657737 0.03351924
0.05225669 0.078368515 3.5887933e-07 -0.063943915 0.053044684 -0.02042754 -0.085972235 0.057637494
-0.042428978 0.017244386 -0.04868434 0.06587252 0.021429744 0.047359426 -0.03075758 -0.0029276516
0.08128331 0.013901714 -0.07725383 -0.060723614 0.0064155245 -0.05958923 0.0745708 0.010288222
-0.029536337 0.018251589 -0.07619583 0.07455173 -0.09513852 0.072651535 0.04015123 0.0744563
-0.021890175 -0.038692422 -0.06898244 -0.005548618 0.07217289 0.056612954 0.0013809304 -0.030892756
0.025834179 -0.060630165 -0.0009983148 0.019002352 0.006651285 -0.075759515 -0.005580063 -0.043622766
-0.06736573 -0.021913674 -0.055149034 0.0756475 -0.017709583 0.09131423 0.06665319 0.07592474
0.027696073 -0.050789557 -0.008459048 -0.02100125 0.068606615 -0.057287507 0.084104374 0.068129376
0.07653318 -0.029760865 -0.08324675 0.034912135 0.028100131 0.09568827 0.086296275 -0.051476575
-0.04208186 -0.043947436 -0.021299157 0.099915534 -0.10064256 -0.06947801 -0.0049213134 -0.02627179
0.0071593546 -0.04102763 0.06654218 0.055474155 0.012387481 0.09896806 -0.014941247 0.10634628
0.0949739 0.07750299 0.08987787 0.03882495 -0.028047249 0.049718544 0.050067004 0.020028625
0.05827204 -0.01859207 -0.06996088 -0.03025736 -0.014730135 0.079810135 0.022558358 0.023480136
00000000: 74db 8a3d c453 b33d f2ba d4bc f13b 7abd
00000010: e9b3 ab3d 2d08 a53d 7e68 4d3c bf2e 1b3d
00000020: 2670 4e3d 7906 21bd 80fe be3d 83f4 d53c
00000030: b694 7e3d 00c4 5e3d facd 843d a45a 833d
00000040: f892 993c 9c8a e93c aa54 94bd cbf3 15bb
00000050: d033 813d efd9 593b 6101 81bd ce20 023d
00000060: c02c 56bd ac2c d73c b613 a03c 106e cbbb
00000070: 6a18 743d 76ad 57bd 3154 dcbd 3055 a33d
00000080: ca11 c4bc d4fb 79bd 24be 4b3d 2235 b9bc
00000090: 70cd bbbb 6416 74bc c64a 3cbd 82fb 653d
000000a0: 92bc 8ebd 502c 853d aea7 babc f821 48bd
000000b0: 12af d63b 02c7 2e3d 50f8 883d c29f 85bd
000000c0: 60bc f83c 8290 1c3c 5640 3ebd e21f 2fbd
000000d0: 6147 623d 7eba 4cbd 85c9 463b f231 603d
000000e0: c849 963d de18 373d 6e08 1c3d b663 44bd
000000f0: 1268 a2bd 88ad 3abd 1059 96bb d69b 123d
00000100: debd d43b 2687 06bd 8198 a53d ea02 313d
00000110: e4ba 52bd 7550 9abc 50a9 723a 70d6 07bd
00000120: 4776 3e3c c8a1 163b 0ea6 02bd d03c 46bd
00000130: 6c45 52bd dede c139 115a b93c 0fb0 9cbb
00000140: 4ae1 a5bc 18b0 223d c95e 2cbc ac1c 933d
00000150: 8676 aa3b 61c0 7fbb 049b bebd 0ebe 323c
00000160: 4808 5a3d 6262 363d 6427 a1bd b88c b3bd
00000170: 8c7c ffbb 4711 8a3c ace6 70bc 007b 783d
00000180: f674 063d d48d 2bbd 7ea6 1e3d 229f 863d
00000190: 84eb 52bc a8d0 6e3d 794a b23d 148f a5bd
000001a0: ef2b df3c a4c8 44bc cc10 87bd b10d 1e3d
000001b0: 7243 d2bd c36a 63bd 0065 183d e829 93bc
000001c0: 6224 58bd 598e 2c3d d6e8 23bd e2e1 80bb
000001d0: 608c ad3d 4ddc e5bc 26d7 05bd 1b3b b73d
000001e0: abd1 36bd 9471 493d 4ed0 d1bd e0d2 07bd
000001f0: 40bf 863d f416 d2bd ea92 dcbc d7c2 723d
00000200: 30f4 5e3d f88c c6bd acb7 993d 84e6 033d
00000210: 45d5 9b3c 0371 a13d 06c1 5a3d 89e9 793d
00000220: 3036 03bd f24b 333d bccb 143a a8ed 203d
00000230: a2f9 803d 0067 8ebd 9e62 9fbd 4f3d 6139
00000240: 823c 453a 94b0 5b3d 2fe6 d73c 5b5f dd3c
00000250: da6b 903c cd48 9c3d 08eb 363d 784b 093d
00000260: 1c0b 563d ac7f a03d 00ac c034 07f5 82bd
00000270: 6245 593d a857 a7bc 3612 b0bd 4b15 6c3d
00000280: 02ca 2dbd 1944 8d3c 3b69 47bd 2ce8 863d
00000290: 6e8d af3c f5fb 413d 52f7 fbbc d8dd 3fbb
000002a0: dd77 a63d 04c4 633c 4237 9ebd 53b9 78bd
000002b0: 5239 d23b d613 74bd 93b8 983d ee8f 283c
000002c0: 30f6 f1bc 5b84 953c 8f0c 9cbd 94ae 983d
000002d0: fcd7 c2bd 54ca 943d 9e75 243d 8b7c 983d
000002e0: 0653 b3bc f27b 1ebd aa46 8dbd 2ed1 b5bb
000002f0: 61cf 933d fce2 673d 5600 b53a ce12 fdbc
00000300: 33a2 d33c 5657 78bd e3d9 82ba d2aa 9b3c
00000310: 06f3 d93b ce27 9bbd f6d8 b6bb c9ad 32bd
00000320: 0bf7 89bd 4e84 b3bc f4e3 61bd 14ed 9a3d
00000330: b013 91bc f402 bb3d 7881 883d 6e7e 9b3d
00000340: e0e2 e23c b608 50bd d297 0abc d00a acbc
00000350: a081 8c3d 4ea6 6abd ea3e ac3d 6a87 8b3d
00000360: 6ebd 9c3d 0fcd f3bc 467d aabd 0700 0f3d
00000370: 3f32 e63c 36f8 c33d 1abc b03d 1ad9 52bd
00000380: 075e 2cbd 3a02 34bd 927b aebc 84a0 cc3d
00000390: b01d cebd 7d4a 8ebd f842 a1bb f037 d7bc
000003a0: 0599 ea3b 970c 28bd 4447 883d de38 633d
000003b0: dcf4 4a3c c4af ca3d 22cc 74bc 14cc d93d
000003c0: ad81 c23d e3b9 9e3d e411 b83d e906 1f3d
000003d0: 58c3 e5bc aca5 4b3d 0f13 4d3d 1213 a43c
000003e0: aaae 6e3d 664e 98bc a647 8fbd 48de f7bc
000003f0: aa56 71bc 7f73 a33d 4ecc b83c 6a59 c03c

lstm.weight_hh_l1 f4 [512, 128]
-0.030407164 -0.051703244 0.06374101 0.07297322 0.048830777 0.018549226 -0.07547819 0.05815292
-0.062409386 -0.0050753513 0.06175271 0.032664597 -0.04007858 0.039626006 -0.043991067 -0.04309845
-0.037096597 -0.003034978 -0.020029996 0.054900307 0.052455347 -0.0073127095 -0.06216032 -0.048707828
0.03917516 0.004391706 0.06550387 0.019507056 0.0014597586 0.03731811 0.08194575 -0.048930466
-0.07064667 -0.08611777 0.075647414 -0.019002201 0.011311469 -0.031734865 -0.018647563 0.07245064
-0.006143103 -0.08020508 -0.031329256 -0.06571874 0.0047858222 -0.09006667 0.08069965 0.05538336
0.10647574 0.014390964 -0.03475806 -0.033450447 0.0058540455 -0.03899794 0.049307846 0.04174283
0.028098827 -0.033958066 -0.0433095 -0.058476336 0.015868362 -0.042450324 -0.036865138 -0.06582956
-0.02759821 0.029912114 0.017468601 -0.05861087 0.04601834 -0.008518815 -0.071221665 0.03114193
0.01670534 0.022231925 -0.056095935 -0.032877915 -0.103333235 0.030731872 0.059074283 0.015475862
0.027312053 0.0406743 0.040264234 -0.09254065 -0.019006088 -0.0070327623 0.068597466 -0.033398822
0.018243568 -0.0027775904 -0.04109515 -0.06939126 -0.06774846 -0.081895046 0.103092074 0.04532078
-0.07398383 0.04946876 0.06815547 -0.046366684 0.023986608 0.043316565 -0.059236802 0.031294726
-0.023809738 0.042603683 -0.05089716 0.098079726 0.07235676 0.045608014 0.045559272 0.06419197
-0.0515887 -0.008754791 0.016985094 -0.016947638 -0.010726331 -0.055483155 -0.01840743 -0.06440906
-0.076683104 -0.04982447 -0.030623132 0.09964156 0.016751051 -0.029884156 -0.019873878 0.009008991
0.040481184 -0.07462959 -0.09179969 0.020373972 -0.06105356 -0.0021667741 0.025061164 0.0768408
0.021509994 0.028064176 -0.031330325 -0.05915139 0.07177388 0.018557796 -0.08356351 0.019485164
-0.0144964075 0.063350186 0.010770589 -0.041022204 0.013160586 0.06368443 0.057446107 -0.013982371
-0.057628192 -0.062719926 -0.0019651582 -0.06921358 -0.017439859 0.020878494 -0.0042738477 -0.019684508
-0.02412192 0.04562982 -0.046805028 -0.011081917 -0.04909617 0.0046419427 0.080914125 -0.017455228
0.054065805 0.0013372395 -0.018249106 0.034889616 0.0677093 -0.01395993 -0.075301245 -0.057438035
-0.018052086 -0.05853287 -0.024614476 -0.032355785 0.064075276 -0.06293598 -0.08355728 0.049785033
-0.05886683 0.07757192 -0.052081093 -0.08668131 0.051564563 -0.049469024 -0.043540746 -0.0040271617
-0.030116722 -0.0658464 0.06023769 0.015088696 0.102685556 0.024315044 0.0140371425 0.042721678
-0.021059152 -0.026960142 0.011826783 0.06893574 0.017530728 0.08464915 0.011520765 0.08110453
0.05251985 -0.06935556 -0.080695525 -0.039710343 -0.056404173 -0.018105019 0.012738459 0.0073854825
-0.04227726 -0.051859878 0.03578621 0.063374266 0.04925432 0.038124137 -0.012298325 0.003847991
-0.08770644 -0.024408411 -0.086964145 -0.05324343 0.020823473 -0.018989235 0.045172438 0.051341735
0.03379294 0.009547472 0.056838974 -0.040719647 -0.024705721 -0.0067078415 0.05582679 0.092318475
-0.032190606 -0.040300168 0.013480052 -0.012837649 -0.02718703 0.06901958 0.055141076 -0.0710961
-0.010083726 -0.105342895 0.01474118 0.053133465 -0.041676603 0.061274678 0.07239498 -0.026034001
00000000: 7218 f9bc c8c6 53bd a68a 823d fc72 953d
00000010: c802 483d 8cf4 973c 4f94 9abd c231 6e3d
00000020: fca0 7fbd 224f a6bb 69f0 7c3d 50cb 053d
00000030: 7029 24bd e14e 223d fa2f 34bd 0088 30bd
00000040: 9af2 17bd 7be6 46bb f215 a4bc 25df 603d
00000050: 6bdb 563d 749f efbb d29b 7ebd dc81 47bd
00000060: 2276 203d 4de8 8f3b e526 863d 43cd 9f3c
00000070: 5f55 bf3a e0da 183d 2cd3 a73d 506b 48bd
00000080: 34af 90bd 835e b0bd 08ed 9a3d 81aa 9bbc
00000090: bd53 393c 6bfc 01bd c6c2 98bc 0061 943d
000000a0: 154c c9bb 9042 a4bd 1b53 00bd 8c97 86bd
000000b0: 63d2 9c3b e074 b8bd dc45 a53d a9d9 623d
000000c0: f40f da3d 14c8 6b3c 785e 0ebd 5603 09bd
000000d0: 4bd3 bf3b 4ebc 1fbd 06f7 493d 88fa 2a3d
000000e0: 832f e63c 9d17 0bbd 4d65 31bd e284 6fbd
000000f0: 5efe 813c 64e0 2dbd e6ff 16bd a6d1 86bd
00000100: a415 e2bc 400a f53c 501a 8f3c f411 70bd
00000110: ba7d 3c3d 8092 0bbc aadc 91bd 5c1d ff3c
00000120: a3d9 883c ba1f b63c dac4 65bd feaa 06bd
00000130: 60a0 d3bd 68c1 fb3c e0f7 713d 788e 7d3c
00000140: 87bd df3c 189a 263d 1cec 243d f485 bdbd
00000150: a8b2 9bbc 1673 e6bb d47c 8c3d 34cd 08bd
00000160: 8973 953c 3c08 36bb 6353 28bd 011d 8ebd
00000170: b4bf 8abd 97b8 a7bd f021 d33d 48a2 393d
00000180: d684 97bd c19f 4a3d 1895 8b3d feea 3dbd
00000190: 907f c43c b66c 313d 4aa2 72bd e62e 003d
000001a0: a40c c3bc 3381 2e3d 8a79 50bd 06de c83d
000001b0: c82f 943d 78cf 3a3d 5c9c 3a3d 1477 833d
000001c0: ac4e 53bd 4170 0fbc 5324 8b3c c6d5 8abc
000001d0: 7ebd 2fbc 4e42 63bd 2ecb 96bc e6e8 83bd
000001e0: 080c 9dbd be14 4cbd 5ddd fabc e010 cc3d
000001f0: 8039 893c 9ecf f4bc 8bce a2bc 729a 133c
00000200: 99cf 253d 66d7 98bd 7a01 bcbd 51e7 a63c
00000210: 4c13 7abd 7000 0ebb 124d cd3c b65e 9d3d
00000220: ba35 b03c d8e6 e53c 3a54 00bd ba48 72bd
00000230: 2ffe 923d 8506 983c 5823 abbd 5a9f 9f3c
00000240: 5782 6dbc bebd 813d 2077 303c e606 28bd
00000250: 809f 573c fc6c 823d 9c4c 6b3d 5116 65bc
00000260: 8a0b 6cbd 4e73 80bd e2c9 00bb d9bf 8dbd
00000270: 09de 8ebc 6009 ab3c a20b 8cbb 6841 a1bc
00000280: 559b c5bc 56e6 3a3d a1b6 3fbd ee90 35bc
00000290: 1119 49bd 701b 983b 4eb6 a53d 44fe 8ebc
000002a0: 1b74 5d3d 5046 af3a 267f 95bc 6ae8 0e3d
000002b0: 2cab 8a3d 31b8 64bc 8a37 9abd 2544 6bbd
000002c0: f8e1 93bc 2ac0 6fbd 4ca4 c9bc 8087 04bd
000002d0: e639 833d 94e4 80bd 1420 abbd 64eb 4b3d
000002e0: 581e 71bd 07de 9e3d fc52 55bd f885 b1bd
000002f0: 5d35 533d 08a0 4abd c857 32bd 48f6 83bb
00000300: 58b7 f6bc 7ada 86bd ccbb 763d 9436 773c
00000310: ce4c d23d 5830 c73c 0bfc 653c edfc 2e3d
00000320: 3e84 acbc 84db dcbc 20c5 413c 2e2e 8d3d
00000330: 9a9c 8f3c 895c ad3d 97c1 3c3c 221a a63d
00000340: 0e1f 573d 4a0a 8ebd b243 a5bd 50a7 22bd
00000350: 1008 67bd fa50 94bc f8b4 503c eb01 f23b
00000360: ec2a 2dbd 066b 54bd 9094 123d 5eca 813d
00000370: e6be 493d 0e28 1c3d ea7e 49bc 942e 7c3b
00000380: 6f9f b3bd 26f4 c7bc 421a b2bd c815 5abd
00000390: fd95 aa3c 508f 9bbc bc06 393d b64b 523d
000003a0: 776a 0a3d 006d 1c3c fccf 683d a5c9 26bd
000003b0: a763 cabc 74cd dbbb a2aa 643d 7811 bd3d
000003c0: 4cda 03bd ca11 25bd 70db 5c3c 0155 52bc
000003d0: 56b7 debc 235a 8d3d 9cdb 613d d59a 91bd
000003e0: 3636 25bc 04be d7bd fe84 713c 7aa2 593d
000003f0: 16b5 2abd 28fb 7a3d d243 943d 4245 d5bc

lstm.bias_ih_l1 f4 [512]
-0.03732833 -0.059728287 -0.076307744 0.017420493 0.03574878 0.086747855 0.088296816 0.018376991
-0.022102203 -0.06189675 0.058348432 -0.035323434 0.07918705 0.0031996816 -0.04557506 -0.0073986948
-0.073762365 0.034084003 0.10809401 0.01955806 -0.016015831 -0.008882554 0.07934066 0.009451728
0.014533237 0.07637569 -0.030918807 0.10838716 0.06448737 0.0014051113 -0.06639002 0.040216662
0.011999592 -0.054976467 0.0051095607 0.054940954 -0.010849342 -0.028225888 -0.06728696 0.0084966365
0.018082336 0.06492751 0.038543284 -0.0057730153 0.012588823 -0.072036155 0.04773073 -0.0020410812
0.05292964 -0.022920284 -0.0411928 -0.020281795 0.056719467 0.012697268 -0.061916865 -0.05469569
0.06484123 -0.004368374 -0.054020707 0.086729616 0.003347674 -0.01941074 0.019885343 0.078861095
0.033511925 0.0011416231 0.042914204 0.059712492 0.01410543 0.061810717 0.007924518 -0.042971887
0.08212081 -0.060382996 0.10186209 -0.06312607 -0.037825342 0.06570198 0.08578405 0.028401705
0.07878332 0.059348047 0.07511489 0.09643449 0.10975249 -0.028959922 -0.022740535 0.02473393
0.098084025 -0.0046528764 -0.046563223 0.052022167 -0.01755995 0.07811174 0.12851048 -0.0068259407
0.08305433 -0.05482368 0.041449126 -0.036015734 0.07977302 0.022659663 0.093924105 0.076920405
-0.0063283253 0.093503945 0.03936188 0.009749356 -0.003464032 0.023791123 0.03587451 -0.0024906164
-0.031352118 -0.036742426 0.08717319 0.044246294 0.09594421 0.08331743 0.058472462 -0.04421127
-0.026292896 0.07090171 -0.02787407 0.1011829 0.115817174 0.017806716 0.08585767 0.07658717
-0.08098851 -0.02752094 0.00046915308 -0.0928553 0.036185354 -0.07095094 -0.031454124 0.02474162
0.09733601 0.094780646 0.07148507 -0.05716692 0.026804082 -0.0020821881 0.08645755 0.07240087
0.07002938 -0.032516323 0.027694367 0.08922872 0.01857121 -0.036776826 0.07160118 0.06586268
0.09017895 0.010419836 -0.013755367 0.0010165536 0.05724308 -0.03490474 0.047633305 0.0812688
-0.022925679 0.0069186 0.06930001 -0.022353273 0.0053984644 -0.048048355 -0.0652588 -0.03619857
0.03153821 -0.012817398 0.02075771 0.016275104 0.01950271 0.031912595 -0.077060595 0.089918196
-0.014585746 -0.03385161 0.007779059 0.04213624 0.061796986 -0.07193936 0.09372876 0.08010207
0.027948048 -0.011552088 0.02292639 0.034745224 -0.007594984 -0.02558367 0.00078835705 0.083473764
0.079524934 0.0790405 -0.012860443 0.02759742 0.018051194 0.023799539 0.013953433 0.022148274
0.004948367 0.06525889 -0.044083178 0.01441656 -0.07675862 0.08508466 -0.0076899114 0.063853726
0.048331 -0.047360636 -0.06813619 0.08420211 -0.026626687 -0.06176325 0.056993842 0.037125666
0.000609571 0.035039738 -0.030305568 0.040005345 -0.027679522 -0.08156188 -0.0072817416 -0.038454823
-0.04359378 -0.056637507 -0.05845166 0.08463094 -0.0691271 -0.046747133 0.037357982 -0.01988817
-0.07706754 -0.044952966 0.046422727 -0.042374942 -0.076479726 0.06386637 -0.026353996 0.080111995
0.0303263 0.014206212 0.018630818 -0.07360402 0.052107956 0.026843593 0.02910168 -0.046848044
0.06576424 -0.0038664145 0.08841931 0.026277937 -0.05504744 0.055383295 0.005861479 0.06178341
00000000: 97e5 18bd a6a5 74bd 3c47 9cbd 6cb5 8e3c
00000010: 506d 123d dca8 b13d f6d4 b43d 588b 963c
00000020: ae0f b5bc 7287 7dbd c4fe 6e3d 4eaf 10bd
00000030: d22c a23d c0b1 513b eaac 3abd c070 f2bb
00000040: b910 97bd ab9b 0b3d 6460 dd3d 3a38 a03c
00000050: a233 83bc 2288 11bc 5b7d a23d 6cdb 1a3c
00000060: d01c 6e3c dc6a 9c3d 7049 fdbc 16fa dd3d
00000070: f411 843d b62b b83a 7ef7 87bd 3aba 243d
00000080: f099 443c 012f 61bd 1a6e a73b c409 613d
00000090: 70c1 31bc fa39 e7bc bfcd 89bd 7a35 0b3c
000000a0: 6821 943c b7f8 843d 90df 1d3d 902b bdbb
000000b0: 5a41 4e3c b187 93bd 4c81 433d a9c3 05bb
000000c0: c0cc 583d 52c3 bbbc c8b9 28bd 0226 a6bc
000000d0: ac52 683d 3408 503c 8a9c 7dbd 9608 60bd
000000e0: 7bcb 843d 9424 8fbb d144 5dbd 4c9f b13d
000000f0: a664 5b3b 4603 9fbc 96e6 a23c ed81 a13d
00000100: cd43 093d 84a2 953a cec6 2f3d 1695 743d
00000110: 761a 673c 3c2d 7d3d d6d5 013c 4a03 30bd
00000120: f52e a83d 2954 77bd 129d d03d 3e48 81bd
00000130: bfee 1abd c28e 863d 8caf af3d b1aa e83c
00000140: 2659 a13d f016 733d d6d5 993d 727f c53d
00000150: eac5 e03d 5c3d edbc 5c4a babc d09e ca3c
00000160: 47e0 c83d 2877 98bb 14b9 3ebd 3215 553d
00000170: e2d9 8fbc 0cf9 9f3d 4098 033e 24ac dfbb
00000180: 6318 aa3d cc8e 60bd 8fc6 293d 3c85 13bd
00000190: 0a60 a33d c2a0 b93c 485b c03d 7288 9d3d
000001a0: d75d cfbb ff7e bf3d ec39 213d c3bb 1f3c
000001b0: d004 63bb 9ae5 c23c 26f1 123d 9c39 23bb
000001c0: 146b 00bd 3a7f 16bd dc87 b23d 9a3b 353d
000001d0: 667e c43d 54a2 aa3d d280 6f3d e016 35bd
000001e0: 3364 d7bc ea34 913d 2958 e4bc fb38 cf3d
000001f0: 8e31 ed3d 64df 913c 25d6 af3d bcd9 9c3d
00000200: 4edd a5bd 9873 e1bc a9f8 f539 eb2a bebd
00000210: 1837 143d ba4e 91bd 0ad6 00bd f0ae ca3c
00000220: 1a58 c73d 5b1c c23d c466 923d dc27 6abd
00000230: 3c94 db3c 5275 08bb a810 b13d e846 943d
00000240: 906b 8f3d d62f 05bd 4cdf e23c 8cbd b63d
00000250: a622 983c 4ca3 16bd a4a3 923d 03e3 863d
00000260: beaf b83d f6b7 2a3c 315e 61bc e13d 853a
00000270: b877 6a3d 46f8 0ebd 241b 433d 4270 a63d
00000280: a2ce bbbc 6cb5 e23b 2aed 8d3d 361e b7bc
00000290: 9ae5 b03b 5ace 44bd 68a6 85bd f444 14bd
000002a0: 362e 013d 1000 52bc 130c aa3c 5e53 853c
000002b0: 26c4 9f3c c8b6 023d f2d1 9dbd 0827 b83d
000002c0: 0ef9 6ebc fca7 0abd 7ae7 fe3b 0d97 2c3d
000002d0: d61e 7d3d f154 93bd ddf4 bf3d 8e0c a43d
000002e0: 4ef3 e43c f844 3dbc 20d0 bb3c 0251 0e3d
000002f0: 58df f8bb d894 d1bc bfa9 4e3a 4bf4 aa3d
00000300: f8dd a23d fcdf a13d 9cb4 52bc fc13 e23c
00000310: 19e0 933c 40f7 c23c f19c 643c 4c70 b53c
00000320: e925 a23b 74a6 853d 9090 34bd 6f33 6c3c
00000330: a033 9dbd de40 ae3d a7fb fbbb bec5 823d
00000340: baf6 453d 3afd 41bd fd8a 8bbd 2872 ac3d
00000350: 3620 dabc 76fb 7cbd 6072 693d 1511 183d
00000360: 9ecb 1f3a d485 0f3d 6243 f8bc a5dc 233d
00000370: 2ac0 e2bc ea09 a7bd ad9b eebb ce82 1dbd
00000380: 648f 32bd bbfc 67bd 026b 6fbd fc52 ad3d
00000390: 8292 8dbd ec79 3fbd af04 193d 84ec a2bc
000003a0: 96d5 9dbd 9a20 38bd c225 3e3d 5991 2dbd
000003b0: 67a1 9cbd 5fcc 823d 56e4 d7bc c211 a43d
000003c0: dc6e f83c 2cc1 683c a89f 983c b4bd 96bd
000003d0: 276f 553d 18e7 db3c a566 ee3c bce3 3fbd
000003e0: 67af 863d ac63 7dbb 2f15 b53d d444 d73c
000003f0: 6d79 61bd 98d9 623d a611 c03b 9a10 7d3d
